{"AttConvNet1": {"auc_score": 0.6173689619732785, "model_summary": "==========================================================================================\nLayer (type:depth-idx)                   Output Shape              Param #\n==========================================================================================\n\u251c\u2500GCNConv: 1-1                           [-1, 12]                  252\n\u251c\u2500GCNConv: 1-2                           [-1, 10]                  120\n\u251c\u2500NLGCN: 1-3                             [-1, 10]                  --\n|    \u2514\u2500Conv1d: 2-1                       [-1, 1, 1418]             10\n\u251c\u2500Linear: 1-4                            [-1, 12]                  132\n\u251c\u2500Linear: 1-5                            [-1, 10]                  110\n\u251c\u2500GCNConv: 1-6                           [-1, 21]                  210\n==========================================================================================\nTotal params: 834\nTrainable params: 834\nNon-trainable params: 0\nTotal mult-adds (M): 0.01\n==========================================================================================\nInput size (MB): 0.11\nForward/backward pass size (MB): 0.01\nParams size (MB): 0.00\nEstimated Total Size (MB): 0.13\n=========================================================================================="}, "AttConvNet2": {"auc_score": 0.5970966084275436, "model_summary": "==========================================================================================\nLayer (type:depth-idx)                   Output Shape              Param #\n==========================================================================================\n\u251c\u2500GCNConv: 1-1                           [-1, 12]                  252\n\u251c\u2500GCNConv: 1-2                           [-1, 10]                  120\n\u251c\u2500NLGCN: 1-3                             [-1, 10]                  --\n|    \u2514\u2500Conv1d: 2-1                       [-1, 1, 1418]             10\n\u251c\u2500Linear: 1-4                            [-1, 12]                  132\n\u251c\u2500Linear: 1-5                            [-1, 10]                  110\n\u251c\u2500GCNConv: 1-6                           [-1, 12]                  120\n\u251c\u2500GCNConv: 1-7                           [-1, 21]                  252\n==========================================================================================\nTotal params: 996\nTrainable params: 996\nNon-trainable params: 0\nTotal mult-adds (M): 0.01\n==========================================================================================\nInput size (MB): 0.11\nForward/backward pass size (MB): 0.01\nParams size (MB): 0.00\nEstimated Total Size (MB): 0.13\n=========================================================================================="}, "AttConvNet3": {"auc_score": 0.598098663926002, "model_summary": "==========================================================================================\nLayer (type:depth-idx)                   Output Shape              Param #\n==========================================================================================\n\u251c\u2500GCNConv: 1-1                           [-1, 12]                  252\n\u251c\u2500GCNConv: 1-2                           [-1, 10]                  120\n\u251c\u2500NLGCN: 1-3                             [-1, 10]                  --\n|    \u2514\u2500Conv1d: 2-1                       [-1, 1, 1418]             10\n\u251c\u2500Linear: 1-4                            [-1, 12]                  132\n\u251c\u2500Linear: 1-5                            [-1, 10]                  110\n\u251c\u2500GCNConv: 1-6                           [-1, 12]                  120\n\u251c\u2500GCNConv: 1-7                           [-1, 12]                  144\n\u251c\u2500GCNConv: 1-8                           [-1, 21]                  252\n==========================================================================================\nTotal params: 1,140\nTrainable params: 1,140\nNon-trainable params: 0\nTotal mult-adds (M): 0.01\n==========================================================================================\nInput size (MB): 0.11\nForward/backward pass size (MB): 0.01\nParams size (MB): 0.00\nEstimated Total Size (MB): 0.1
…
