{
    "AttConvNet1": {
        "auc_score": 0.5797533401849948,
        "model_summary": "==========================================================================================\nLayer (type:depth-idx)                   Output Shape              Param #\n==========================================================================================\n\u251c\u2500GCNConv: 1-1                           [-1, 12]                  252\n\u251c\u2500GCNConv: 1-2                           [-1, 10]                  120\n\u251c\u2500NLGCN: 1-3                             [-1, 10]                  --\n|    \u2514\u2500Conv1d: 2-1                       [-1, 1, 1418]             10\n\u251c\u2500Linear: 1-4                            [-1, 12]                  132\n\u251c\u2500Linear: 1-5                            [-1, 10]                  110\n\u251c\u2500GCNConv: 1-6                           [-1, 21]                  210\n==========================================================================================\nTotal params: 834\nTrainable params: 834\nNon-trainable params: 0\nTotal mult-adds (M): 0.01\n==========================================================================================\nInput size (MB): 0.11\nForward/backward pass size (MB): 0.01\nParams size (MB): 0.00\nEstimated Total Size (MB): 0.13\n=========================================================================================="
    },
    "AttConvNet2": {
        "auc_score": 0.5780061664953752,
        "model_summary": "==========================================================================================\nLayer (type:depth-idx)                   Output Shape              Param #\n==========================================================================================\n\u251c\u2500GCNConv: 1-1                           [-1, 12]                  252\n\u251c\u2500GCNConv: 1-2                           [-1, 10]                  120\n\u251c\u2500NLGCN: 1-3                             [-1, 10]                  --\n|    \u2514\u2500Conv1d: 2-1                       [-1, 1, 1418]             10\n\u251c\u2500Linear: 1-4                            [-1, 12]                  132\n\u251c\u2500Linear: 1-5                            [-1, 10]                  110\n\u251c\u2500GCNConv: 1-6                           [-1, 12]                  120\n\u251c\u2500GCNConv: 1-7                           [-1, 21]                  252\n==========================================================================================\nTotal params: 996\nTrainable params: 996\nNon-trainable params: 0\nTotal mult-adds (M): 0.01\n==========================================================================================\nInput size (MB): 0.11\nForward/backward pass size (MB): 0.01\nParams size (MB): 0.00\nEstimated Total Size (MB): 0.13\n=========================================================================================="
    },
    "AttConvNet3": {
        "auc_score": 0.4978931140801644,
        "model_summary": "==========================================================================================\nLayer (type:depth-idx)                   Output Shape              Param #\n==========================================================================================\n\u251c\u2500GCNConv: 1-1                           [-1, 12]                  252\n\u251c\u2500GCNConv: 1-2                           [-1, 10]                  120\n\u251c\u2500NLGCN: 1-3                             [-1, 10]                  --\n|    \u2514\u2500Conv1d: 2-1                       [-1, 1, 1418]             10\n\u251c\u2500Linear: 1-4                            [-1, 12]                  132\n\u251c\u2500Linear: 1-5                            [-1, 10]                  110\n\u251c\u2500GCNConv: 1-6                           [-1, 12]                  120\n\u251c\u2500GCNConv: 1-7                           [-1, 12]                  144\n\u251c\u2500GCNConv: 1-8                           [-1, 21]                  252\n==========================================================================================\nTotal params: 1,140\nTrainable params: 1,140\nNon-trainable params: 0\nTotal mult-adds (M): 0.01\n==========================================================================================\nInput size (MB): 0.11\nForward/backward pass size (MB): 0.01\nParams size (MB): 0.00\nEstimated Total Size (MB): 0.13\n=========================================================================================="
    },
    "AttConvNet4": {
        "auc_score": 0.51120246659815,
        "model_summary": "==========================================================================================\nLayer (type:depth-idx)                   Output Shape              Param #\n==========================================================================================\n\u251c\u2500GCNConv: 1-1                           [-1, 12]                  252\n\u251c\u2500GCNConv: 1-2                           [-1, 10]                  120\n\u251c\u2500NLGCN: 1-3                             [-1, 10]                  --\n|    \u2514\u2500Conv1d: 2-1                       [-1, 1, 1418]             10\n\u251c\u2500Linear: 1-4                            [-1, 12]                  132\n\u251c\u2500Linear: 1-5                            [-1, 10]                  110\n\u251c\u2500GCNConv: 1-6                           [-1, 12]                  120\n\u251c\u2500GCNConv: 1-7                           [-1, 12]                  144\n\u251c\u2500GCNConv: 1-8                           [-1, 12]                  144\n\u251c\u2500GCNConv: 1-9                           [-1, 21]                  252\n==========================================================================================\nTotal params: 1,284\nTrainable params: 1,284\nNon-trainable params: 0\nTotal mult-adds (M): 0.01\n==========================================================================================\nInput size (MB): 0.11\nForward/backward pass size (MB): 0.01\nParams size (MB): 0.00\nEstimated Total Size (MB): 0.13\n=========================================================================================="
    },
    "ConvNet1": {
        "auc_score": 0.5845066803699898,
        "model_summary": "==========================================================================================\nLayer (type:depth-idx)                   Output Shape              Param #\n==========================================================================================\n\u251c\u2500GCNConv: 1-1                           [-1, 10]                  210\n\u251c\u2500NLGCN: 1-2                             [-1, 10]                  --\n|    \u2514\u2500Conv1d: 2-1                       [-1, 1, 1418]             10\n\u251c\u2500Linear: 1-3                            [-1, 12]                  132\n\u251c\u2500Linear: 1-4                            [-1, 10]                  110\n\u251c\u2500Linear: 1-5                            [-1, 10]                  110\n\u251c\u2500GCNConv: 1-6                           [-1, 12]                  120\n\u251c\u2500GCNConv: 1-7                           [-1, 21]                  252\n==========================================================================================\nTotal params: 944\nTrainable params: 944\nNon-trainable params: 0\nTotal mult-adds (M): 0.01\n==========================================================================================\nInput size (MB): 0.11\nForward/backward pass size (MB): 0.01\nParams size (MB): 0.00\nEstimated Total Size (MB): 0.13\n=========================================================================================="
    },
    "ConvNet2": {
        "auc_score": 0.6249229188078109,
        "model_summary": "==========================================================================================\nLayer (type:depth-idx)                   Output Shape              Param #\n==========================================================================================\n\u251c\u2500GCNConv: 1-1                           [-1, 12]                  252\n\u251c\u2500GCNConv: 1-2                           [-1, 10]                  120\n\u251c\u2500NLGCN: 1-3                             [-1, 10]                  --\n|    \u2514\u2500Conv1d: 2-1                       [-1, 1, 1418]             10\n\u251c\u2500Linear: 1-4                            [-1, 12]                  132\n\u251c\u2500Linear: 1-5                            [-1, 10]                  110\n\u251c\u2500Linear: 1-6                            [-1, 10]                  110\n\u251c\u2500GCNConv: 1-7                           [-1, 12]                  120\n\u251c\u2500GCNConv: 1-8                           [-1, 21]                  252\n==========================================================================================\nTotal params: 1,106\nTrainable params: 1,106\nNon-trainable params: 0\nTotal mult-adds (M): 0.01\n==========================================================================================\nInput size (MB): 0.11\nForward/backward pass size (MB): 0.01\nParams size (MB): 0.00\nEstimated Total Size (MB): 0.13\n=========================================================================================="
    },
    "ConvNet3": {
        "auc_score": 0.552582219938335,
        "model_summary": "==========================================================================================\nLayer (type:depth-idx)                   Output Shape              Param #\n==========================================================================================\n\u251c\u2500GCNConv: 1-1                           [-1, 12]                  252\n\u251c\u2500GCNConv: 1-2                           [-1, 10]                  120\n\u251c\u2500GCNConv: 1-3                           [-1, 10]                  100\n\u251c\u2500NLGCN: 1-4                             [-1, 10]                  --\n|    \u2514\u2500Conv1d: 2-1                       [-1, 1, 1418]             10\n\u251c\u2500Linear: 1-5                            [-1, 12]                  132\n\u251c\u2500Linear: 1-6                            [-1, 10]                  110\n\u251c\u2500Linear: 1-7                            [-1, 10]                  110\n\u251c\u2500GCNConv: 1-8                           [-1, 12]                  120\n\u251c\u2500GCNConv: 1-9                           [-1, 21]                  252\n==========================================================================================\nTotal params: 1,206\nTrainable params: 1,206\nNon-trainable params: 0\nTotal mult-adds (M): 0.01\n==========================================================================================\nInput size (MB): 0.11\nForward/backward pass size (MB): 0.01\nParams size (MB): 0.00\nEstimated Total Size (MB): 0.13\n=========================================================================================="
    },
    "ConvNet4": {
        "auc_score": 0.5372816032887975,
        "model_summary": "==========================================================================================\nLayer (type:depth-idx)                   Output Shape              Param #\n==========================================================================================\n\u251c\u2500GCNConv: 1-1                           [-1, 12]                  252\n\u251c\u2500GCNConv: 1-2                           [-1, 10]                  120\n\u251c\u2500GCNConv: 1-3                           [-1, 10]                  100\n\u251c\u2500GCNConv: 1-4                           [-1, 10]                  100\n\u251c\u2500NLGCN: 1-5                             [-1, 10]                  --\n|    \u2514\u2500Conv1d: 2-1                       [-1, 1, 1418]             10\n\u251c\u2500Linear: 1-6                            [-1, 12]                  132\n\u251c\u2500Linear: 1-7                            [-1, 10]                  110\n\u251c\u2500Linear: 1-8                            [-1, 10]                  110\n\u251c\u2500GCNConv: 1-9                           [-1, 12]                  120\n\u251c\u2500GCNConv: 1-10                          [-1, 21]                  252\n==========================================================================================\nTotal params: 1,306\nTrainable params: 1,306\nNon-trainable params: 0\nTotal mult-adds (M): 0.01\n==========================================================================================\nInput size (MB): 0.11\nForward/backward pass size (MB): 0.01\nParams size (MB): 0.00\nEstimated Total Size (MB): 0.13\n=========================================================================================="
    },
    "ConvNet5": {
        "auc_score": 0.609994861253854,
        "model_summary": "==========================================================================================\nLayer (type:depth-idx)                   Output Shape              Param #\n==========================================================================================\n\u251c\u2500GCNConv: 1-1                           [-1, 12]                  252\n\u251c\u2500GCNConv: 1-2                           [-1, 10]                  120\n\u251c\u2500GCNConv: 1-3                           [-1, 10]                  100\n\u251c\u2500GCNConv: 1-4                           [-1, 10]                  100\n\u251c\u2500GCNConv: 1-5                           [-1, 10]                  100\n\u251c\u2500NLGCN: 1-6                             [-1, 10]                  --\n|    \u2514\u2500Conv1d: 2-1                       [-1, 1, 1418]             10\n\u251c\u2500Linear: 1-7                            [-1, 12]                  132\n\u251c\u2500Linear: 1-8                            [-1, 10]                  110\n\u251c\u2500Linear: 1-9                            [-1, 10]                  110\n\u251c\u2500GCNConv: 1-10                          [-1, 12]                  120\n\u251c\u2500GCNConv: 1-11                          [-1, 21]                  252\n==========================================================================================\nTotal params: 1,406\nTrainable params: 1,406\nNon-trainable params: 0\nTotal mult-adds (M): 0.01\n==========================================================================================\nInput size (MB): 0.11\nForward/backward pass size (MB): 0.01\nParams size (MB): 0.01\nEstimated Total Size (MB): 0.13\n=========================================================================================="
    },
    "ConvNet6": {
        "auc_score": 0.5888232271325797,
        "model_summary": "==========================================================================================\nLayer (type:depth-idx)                   Output Shape              Param #\n==========================================================================================\n\u251c\u2500GCNConv: 1-1                           [-1, 12]                  252\n\u251c\u2500GCNConv: 1-2                           [-1, 10]                  120\n\u251c\u2500GCNConv: 1-3                           [-1, 10]                  100\n\u251c\u2500GCNConv: 1-4                           [-1, 10]                  100\n\u251c\u2500GCNConv: 1-5                           [-1, 10]                  100\n\u251c\u2500GCNConv: 1-6                           [-1, 10]                  100\n\u251c\u2500NLGCN: 1-7                             [-1, 10]                  --\n|    \u2514\u2500Conv1d: 2-1                       [-1, 1, 1418]             10\n\u251c\u2500Linear: 1-8                            [-1, 12]                  132\n\u251c\u2500Linear: 1-9                            [-1, 10]                  110\n\u251c\u2500Linear: 1-10                           [-1, 10]                  110\n\u251c\u2500GCNConv: 1-11                          [-1, 12]                  120\n\u251c\u2500GCNConv: 1-12                          [-1, 21]                  252\n==========================================================================================\nTotal params: 1,506\nTrainable params: 1,506\nNon-trainable params: 0\nTotal mult-adds (M): 0.01\n==========================================================================================\nInput size (MB): 0.11\nForward/backward pass size (MB): 0.01\nParams size (MB): 0.01\nEstimated Total Size (MB): 0.13\n=========================================================================================="
    },
    "DenseNet1": {
        "auc_score": 0.5805883864337102,
        "model_summary": "==========================================================================================\nLayer (type:depth-idx)                   Output Shape              Param #\n==========================================================================================\n\u251c\u2500GCNConv: 1-1                           [-1, 12]                  252\n\u251c\u2500GCNConv: 1-2                           [-1, 10]                  120\n\u251c\u2500NLGCN: 1-3                             [-1, 10]                  --\n|    \u2514\u2500Conv1d: 2-1                       [-1, 1, 1418]             10\n\u251c\u2500Linear: 1-4                            [-1, 12]                  132\n\u251c\u2500Linear: 1-5                            [-1, 10]                  110\n\u251c\u2500GCNConv: 1-6                           [-1, 12]                  120\n\u251c\u2500GCNConv: 1-7                           [-1, 21]                  252\n==========================================================================================\nTotal params: 996\nTrainable params: 996\nNon-trainable params: 0\nTotal mult-adds (M): 0.01\n==========================================================================================\nInput size (MB): 0.11\nForward/backward pass size (MB): 0.01\nParams size (MB): 0.00\nEstimated Total Size (MB): 0.13\n=========================================================================================="
    },
    "DenseNet2": {
        "auc_score": 0.6013360739979445,
        "model_summary": "==========================================================================================\nLayer (type:depth-idx)                   Output Shape              Param #\n==========================================================================================\n\u251c\u2500GCNConv: 1-1                           [-1, 12]                  252\n\u251c\u2500GCNConv: 1-2                           [-1, 10]                  120\n\u251c\u2500NLGCN: 1-3                             [-1, 10]                  --\n|    \u2514\u2500Conv1d: 2-1                       [-1, 1, 1418]             10\n\u251c\u2500Linear: 1-4                            [-1, 12]                  132\n\u251c\u2500Linear: 1-5                            [-1, 10]                  110\n\u251c\u2500Linear: 1-6                            [-1, 10]                  110\n\u251c\u2500GCNConv: 1-7                           [-1, 12]                  120\n\u251c\u2500GCNConv: 1-8                           [-1, 21]                  252\n==========================================================================================\nTotal params: 1,106\nTrainable params: 1,106\nNon-trainable params: 0\nTotal mult-adds (M): 0.01\n==========================================================================================\nInput size (MB): 0.11\nForward/backward pass size (MB): 0.01\nParams size (MB): 0.00\nEstimated Total Size (MB): 0.13\n=========================================================================================="
    },
    "DenseNet3": {
        "auc_score": 0.5713514902363823,
        "model_summary": "==========================================================================================\nLayer (type:depth-idx)                   Output Shape              Param #\n==========================================================================================\n\u251c\u2500GCNConv: 1-1                           [-1, 12]                  252\n\u251c\u2500GCNConv: 1-2                           [-1, 10]                  120\n\u251c\u2500NLGCN: 1-3                             [-1, 10]                  --\n|    \u2514\u2500Conv1d: 2-1                       [-1, 1, 1418]             10\n\u251c\u2500Linear: 1-4                            [-1, 12]                  132\n\u251c\u2500Linear: 1-5                            [-1, 10]                  110\n\u251c\u2500Linear: 1-6                            [-1, 10]                  110\n\u251c\u2500Linear: 1-7                            [-1, 10]                  110\n\u251c\u2500GCNConv: 1-8                           [-1, 12]                  120\n\u251c\u2500GCNConv: 1-9                           [-1, 21]                  252\n==========================================================================================\nTotal params: 1,216\nTrainable params: 1,216\nNon-trainable params: 0\nTotal mult-adds (M): 0.01\n==========================================================================================\nInput size (MB): 0.11\nForward/backward pass size (MB): 0.01\nParams size (MB): 0.00\nEstimated Total Size (MB): 0.13\n=========================================================================================="
    },
    "DenseNet4": {
        "auc_score": 0.5856115107913669,
        "model_summary": "==========================================================================================\nLayer (type:depth-idx)                   Output Shape              Param #\n==========================================================================================\n\u251c\u2500GCNConv: 1-1                           [-1, 12]                  252\n\u251c\u2500GCNConv: 1-2                           [-1, 10]                  120\n\u251c\u2500NLGCN: 1-3                             [-1, 10]                  --\n|    \u2514\u2500Conv1d: 2-1                       [-1, 1, 1418]             10\n\u251c\u2500Linear: 1-4                            [-1, 12]                  132\n\u251c\u2500Linear: 1-5                            [-1, 10]                  110\n\u251c\u2500Linear: 1-6                            [-1, 10]                  110\n\u251c\u2500Linear: 1-7                            [-1, 10]                  110\n\u251c\u2500Linear: 1-8                            [-1, 10]                  110\n\u251c\u2500GCNConv: 1-9                           [-1, 12]                  120\n\u251c\u2500GCNConv: 1-10                          [-1, 21]                  252\n==========================================================================================\nTotal params: 1,326\nTrainable params: 1,326\nNon-trainable params: 0\nTotal mult-adds (M): 0.01\n==========================================================================================\nInput size (MB): 0.11\nForward/backward pass size (MB): 0.01\nParams size (MB): 0.01\nEstimated Total Size (MB): 0.13\n=========================================================================================="
    },
    "DenseNet5": {
        "auc_score": 0.6149023638232272,
        "model_summary": "==========================================================================================\nLayer (type:depth-idx)                   Output Shape              Param #\n==========================================================================================\n\u251c\u2500GCNConv: 1-1                           [-1, 12]                  252\n\u251c\u2500GCNConv: 1-2                           [-1, 10]                  120\n\u251c\u2500NLGCN: 1-3                             [-1, 10]                  --\n|    \u2514\u2500Conv1d: 2-1                       [-1, 1, 1418]             10\n\u251c\u2500Linear: 1-4                            [-1, 12]                  132\n\u251c\u2500Linear: 1-5                            [-1, 10]                  110\n\u251c\u2500Linear: 1-6                            [-1, 10]                  110\n\u251c\u2500Linear: 1-7                            [-1, 10]                  110\n\u251c\u2500Linear: 1-8                            [-1, 10]                  110\n\u251c\u2500Linear: 1-9                            [-1, 10]                  110\n\u251c\u2500GCNConv: 1-10                          [-1, 12]                  120\n\u251c\u2500GCNConv: 1-11                          [-1, 21]                  252\n==========================================================================================\nTotal params: 1,436\nTrainable params: 1,436\nNon-trainable params: 0\nTotal mult-adds (M): 0.01\n==========================================================================================\nInput size (MB): 0.11\nForward/backward pass size (MB): 0.01\nParams size (MB): 0.01\nEstimated Total Size (MB): 0.13\n=========================================================================================="
    },
    "DenseNet6": {
        "auc_score": 0.5921377183967113,
        "model_summary": "==========================================================================================\nLayer (type:depth-idx)                   Output Shape              Param #\n==========================================================================================\n\u251c\u2500GCNConv: 1-1                           [-1, 12]                  252\n\u251c\u2500GCNConv: 1-2                           [-1, 10]                  120\n\u251c\u2500NLGCN: 1-3                             [-1, 10]                  --\n|    \u2514\u2500Conv1d: 2-1                       [-1, 1, 1418]             10\n\u251c\u2500Linear: 1-4                            [-1, 12]                  132\n\u251c\u2500Linear: 1-5                            [-1, 10]                  110\n\u251c\u2500Linear: 1-6                            [-1, 10]                  110\n\u251c\u2500Linear: 1-7                            [-1, 10]                  110\n\u251c\u2500Linear: 1-8                            [-1, 10]                  110\n\u251c\u2500Linear: 1-9                            [-1, 10]                  110\n\u251c\u2500Linear: 1-10                           [-1, 10]                  110\n\u251c\u2500GCNConv: 1-11                          [-1, 12]                  120\n\u251c\u2500GCNConv: 1-12                          [-1, 21]                  252\n==========================================================================================\nTotal params: 1,546\nTrainable params: 1,546\nNon-trainable params: 0\nTotal mult-adds (M): 0.01\n==========================================================================================\nInput size (MB): 0.11\nForward/backward pass size (MB): 0.01\nParams size (MB): 0.01\nEstimated Total Size (MB): 0.13\n=========================================================================================="
    },
    "DenseNet7": {
        "auc_score": 0.5840184994861254,
        "model_summary": "==========================================================================================\nLayer (type:depth-idx)                   Output Shape              Param #\n==========================================================================================\n\u251c\u2500GCNConv: 1-1                           [-1, 12]                  252\n\u251c\u2500GCNConv: 1-2                           [-1, 10]                  120\n\u251c\u2500NLGCN: 1-3                             [-1, 10]                  --\n|    \u2514\u2500Conv1d: 2-1                       [-1, 1, 1418]             10\n\u251c\u2500Linear: 1-4                            [-1, 12]                  132\n\u251c\u2500Linear: 1-5                            [-1, 10]                  110\n\u251c\u2500Linear: 1-6                            [-1, 10]                  110\n\u251c\u2500Linear: 1-7                            [-1, 10]                  110\n\u251c\u2500Linear: 1-8                            [-1, 10]                  110\n\u251c\u2500Linear: 1-9                            [-1, 10]                  110\n\u251c\u2500Linear: 1-10                           [-1, 10]                  110\n\u251c\u2500Linear: 1-11                           [-1, 10]                  110\n\u251c\u2500GCNConv: 1-12                          [-1, 12]                  120\n\u251c\u2500GCNConv: 1-13                          [-1, 21]                  252\n==========================================================================================\nTotal params: 1,656\nTrainable params: 1,656\nNon-trainable params: 0\nTotal mult-adds (M): 0.01\n==========================================================================================\nInput size (MB): 0.11\nForward/backward pass size (MB): 0.01\nParams size (MB): 0.01\nEstimated Total Size (MB): 0.13\n=========================================================================================="
    },
    "DenseNet8": {
        "auc_score": 0.6135662898252826,
        "model_summary": "==========================================================================================\nLayer (type:depth-idx)                   Output Shape              Param #\n==========================================================================================\n\u251c\u2500GCNConv: 1-1                           [-1, 12]                  252\n\u251c\u2500GCNConv: 1-2                           [-1, 10]                  120\n\u251c\u2500NLGCN: 1-3                             [-1, 10]                  --\n|    \u2514\u2500Conv1d: 2-1                       [-1, 1, 1418]             10\n\u251c\u2500Linear: 1-4                            [-1, 12]                  132\n\u251c\u2500Linear: 1-5                            [-1, 10]                  110\n\u251c\u2500Linear: 1-6                            [-1, 10]                  110\n\u251c\u2500Linear: 1-7                            [-1, 10]                  110\n\u251c\u2500Linear: 1-8                            [-1, 10]                  110\n\u251c\u2500Linear: 1-9                            [-1, 10]                  110\n\u251c\u2500Linear: 1-10                           [-1, 10]                  110\n\u251c\u2500Linear: 1-11                           [-1, 10]                  110\n\u251c\u2500Linear: 1-12                           [-1, 10]                  110\n\u251c\u2500GCNConv: 1-13                          [-1, 12]                  120\n\u251c\u2500GCNConv: 1-14                          [-1, 21]                  252\n==========================================================================================\nTotal params: 1,766\nTrainable params: 1,766\nNon-trainable params: 0\nTotal mult-adds (M): 0.01\n==========================================================================================\nInput size (MB): 0.11\nForward/backward pass size (MB): 0.01\nParams size (MB): 0.01\nEstimated Total Size (MB): 0.13\n=========================================================================================="
    },
    "NLNet1": {
        "auc_score": 0.6175488180883864,
        "model_summary": "==========================================================================================\nLayer (type:depth-idx)                   Output Shape              Param #\n==========================================================================================\n\u251c\u2500GCNConv: 1-1                           [-1, 12]                  252\n\u251c\u2500GCNConv: 1-2                           [-1, 10]                  120\n\u251c\u2500NLGCN: 1-3                             [-1, 10]                  --\n|    \u2514\u2500Conv1d: 2-1                       [-1, 1, 1418]             10\n\u251c\u2500Linear: 1-4                            [-1, 12]                  132\n\u251c\u2500Linear: 1-5                            [-1, 10]                  110\n\u251c\u2500Linear: 1-6                            [-1, 10]                  110\n\u251c\u2500GCNConv: 1-7                           [-1, 12]                  120\n\u251c\u2500GCNConv: 1-8                           [-1, 21]                  252\n==========================================================================================\nTotal params: 1,106\nTrainable params: 1,106\nNon-trainable params: 0\nTotal mult-adds (M): 0.01\n==========================================================================================\nInput size (MB): 0.11\nForward/backward pass size (MB): 0.01\nParams size (MB): 0.00\nEstimated Total Size (MB): 0.13\n=========================================================================================="
    },
    "NLNet2": {
        "auc_score": 0.6102004110996917,
        "model_summary": "==========================================================================================\nLayer (type:depth-idx)                   Output Shape              Param #\n==========================================================================================\n\u251c\u2500GCNConv: 1-1                           [-1, 12]                  252\n\u251c\u2500GCNConv: 1-2                           [-1, 10]                  120\n\u251c\u2500NLGCN: 1-3                             [-1, 10]                  --\n|    \u2514\u2500Conv1d: 2-1                       [-1, 1, 1418]             10\n\u251c\u2500NLGCN: 1-4                             [-1, 10]                  --\n|    \u2514\u2500Conv1d: 2-2                       [-1, 1, 1418]             10\n\u251c\u2500Linear: 1-5                            [-1, 12]                  132\n\u251c\u2500Linear: 1-6                            [-1, 10]                  110\n\u251c\u2500Linear: 1-7                            [-1, 10]                  110\n\u251c\u2500GCNConv: 1-8                           [-1, 12]                  120\n\u251c\u2500GCNConv: 1-9                           [-1, 21]                  252\n==========================================================================================\nTotal params: 1,116\nTrainable params: 1,116\nNon-trainable params: 0\nTotal mult-adds (M): 0.03\n==========================================================================================\nInput size (MB): 0.11\nForward/backward pass size (MB): 0.02\nParams size (MB): 0.00\nEstimated Total Size (MB): 0.14\n=========================================================================================="
    },
    "NLNet3": {
        "auc_score": 0.5459917780061665,
        "model_summary": "==========================================================================================\nLayer (type:depth-idx)                   Output Shape              Param #\n==========================================================================================\n\u251c\u2500GCNConv: 1-1                           [-1, 12]                  252\n\u251c\u2500GCNConv: 1-2                           [-1, 10]                  120\n\u251c\u2500NLGCN: 1-3                             [-1, 10]                  --\n|    \u2514\u2500Conv1d: 2-1                       [-1, 1, 1418]             10\n\u251c\u2500NLGCN: 1-4                             [-1, 10]                  (recursive)\n|    \u2514\u2500Conv1d: 2-2                       [-1, 1, 1418]             (recursive)\n\u251c\u2500NLGCN: 1-5                             [-1, 10]                  (recursive)\n|    \u2514\u2500Conv1d: 2-3                       [-1, 1, 1418]             (recursive)\n\u251c\u2500Linear: 1-6                            [-1, 12]                  132\n\u251c\u2500Linear: 1-7                            [-1, 10]                  110\n\u251c\u2500Linear: 1-8                            [-1, 10]                  110\n\u251c\u2500GCNConv: 1-9                           [-1, 12]                  120\n\u251c\u2500GCNConv: 1-10                          [-1, 21]                  252\n==========================================================================================\nTotal params: 1,106\nTrainable params: 1,106\nNon-trainable params: 0\nTotal mult-adds (M): 0.04\n==========================================================================================\nInput size (MB): 0.11\nForward/backward pass size (MB): 0.01\nParams size (MB): 0.00\nEstimated Total Size (MB): 0.13\n=========================================================================================="
…
