{"AttConvNet1": {"auc_score": 0.6198612538540595, "model_summary": "==========================================================================================\nLayer (type:depth-idx)                   Output Shape              Param #\n==========================================================================================\n\u251c\u2500GCNConv: 1-1                           [-1, 12]                  252\n\u251c\u2500GCNConv: 1-2                           [-1, 10]                  120\n\u251c\u2500NLGCN: 1-3                             [-1, 10]                  --\n|    \u2514\u2500Conv1d: 2-1                       [-1, 1, 1418]             10\n\u251c\u2500Linear: 1-4                            [-1, 12]                  132\n\u251c\u2500Linear: 1-5                            [-1, 10]                  110\n\u251c\u2500GCNConv: 1-6                           [-1, 21]                  210\n==========================================================================================\nTotal params: 834\nTrainable params: 834\nNon-trainable params: 0\nTotal mult-adds (M): 0.01\n==========================================================================================\nInput size (MB): 0.11\nForward/backward pass size (MB): 0.01\nParams size (MB): 0.00\nEstimated Total Size (MB): 0.13\n==========================================================================================", "threshold": "18.861902", "accuracy": "0.7468265162200282"}, "AttConvNet2": {"auc_score": 0.5963514902363822, "model_summary": "==========================================================================================\nLayer (type:depth-idx)                   Output Shape              Param #\n==========================================================================================\n\u251c\u2500GCNConv: 1-1                           [-1, 12]                  252\n\u251c\u2500GCNConv: 1-2                           [-1, 10]                  120\n\u251c\u2500NLGCN: 1-3                             [-1, 10]                  --\n|    \u2514\u2500Conv1d: 2-1                       [-1, 1, 1418]             10\n\u251c\u2500Linear: 1-4                            [-1, 12]                  132\n\u251c\u2500Linear: 1-5                            [-1, 10]                  110\n\u251c\u2500GCNConv: 1-6                           [-1, 12]                  120\n\u251c\u2500GCNConv: 1-7                           [-1, 21]                  252\n==========================================================================================\nTotal params: 996\nTrainable params: 996\nNon-trainable params: 0\nTotal mult-adds (M): 0.01\n==========================================================================================\nInput size (MB): 0.11\nForward/backward pass size (MB): 0.01\nParams size (MB): 0.00\nEstimated Total Size (MB): 0.13\n==========================================================================================", "threshold": "18.81085", "accuracy": "0.7440056417489421"}, "AttConvNet3": {"auc_score": 0.597327852004111, "model_summary": "==========================================================================================\nLayer (type:depth-idx)                   Output Shape              Param #\n==========================================================================================\n\u251c\u2500GCNConv: 1-1                           [-1, 12]                  252\n\u251c\u2500GCNConv: 1-2                           [-1, 10]                  120\n\u251c\u2500NLGCN: 1-3                             [-1, 10]                  --\n|    \u2514\u2500Conv1d: 2-1                       [-1, 1, 1418]             10\n\u251c\u2500Linear: 1-4                            [-1, 12]                  132\n\u251c\u2500Linear: 1-5                            [-1, 10]                  110\n\u251c\u2500GCNConv: 1-6                           [-1, 12]                  120\n\u251c\u2500GCNConv: 1-7                           [-1, 12]                  144\n\u251c\u2500GCNConv: 1-8                           [-1, 21]                  252\n==========================================================================================\nTotal params: 1,140\nTrainable params: 1,140\nNon-trainable params: 0\nTotal mult-adds (M): 0.01\n==========================================================================================\nInput size (MB): 0.11\nForward/backward pass size (MB): 0.01\nParams size (MB): 0.00\nEstimated Total Size (MB): 0.13\n==========================================================================================", "threshold": "18.806337", "accuracy": "0.7468265162200282"}, "AttConvNet4": {"auc_score": 0.618884892086331, "model_summary": "==========================================================================================\nLayer (type:depth-idx)                   Output Shape              Param #\n==========================================================================================\n\u251c\u2500GCNConv: 1-1                           [-1, 12]                  252\n\u251c\u2500GCNConv: 1-2                           [-1, 10]                  120\n\u251c\u2500NLGCN: 1-3                             [-1, 10]                  --\n|    \u2514\u2500Conv1d: 2-1                       [-1, 1, 1418]             10\n\u251c\u2500Linear: 1-4                            [-1, 12]                  132\n\u251c\u2500Linear: 1-5                            [-1, 10]                  110\n\u251c\u2500GCNConv: 1-6                           [-1, 12]                  120\n\u251c\u2500GCNConv: 1-7                           [-1, 12]                  144\n\u251c\u2500GCNConv: 1-8                           [-1, 12]                  144\n\u251c\u2500GCNConv: 1-9                           [-1, 21]                  252\n==========================================================================================\nTotal params: 1,284\nTrainable params: 1,284\nNon-trainable params: 0\nTotal mult-adds (M): 0.01\n==========================================================================================\nInput size (MB): 0.11\nForward/backward pass size (MB): 0.01\nParams size (MB): 0.00\nEstimated Total Size (MB): 0.13\n==========================================================================================", "threshold": "9.41863", "accuracy": "0.7461212976022567"}, "ConvNet1": {"auc_score": 0.6079907502569373, "model_summary": "==========================================================================================\nLayer (type:depth-idx)                   Output Shape              Param #\n==========================================================================================\n\u251c\u2500GCNConv: 1-1                           [-1, 10]                  210\n\u251c\u2500NLGCN: 1-2                             [-1, 10]                  --\n|    \u2514\u2500Conv1d: 2-1                       [-1, 1, 1418]             10\n\u251c\u2500Linear: 1-3                            [-1, 12]                  132\n\u251c\u2500Linear: 1-4                            [-1, 10]                  110\n\u251c\u2500Linear: 1-5                            [-1, 10]                  110\n\u251c\u2500GCNConv: 1-6                           [-1, 12]                  120\n\u251c\u2500GCNConv: 1-7                           [-1, 21]                  252\n==========================================================================================\nTotal params: 944\nTrainable params: 944\nNon-trainable params: 0\nTotal mult-adds (M): 0.01\n==========================================================================================\nInput size (MB): 0.11\nForward/backward pass size (MB): 0.01\nParams size (MB): 0.00\nEstimated Total Size (MB): 0.13\n==========================================================================================", "threshold": "18.819431", "accuracy": "0.7468265162200282"}, "ConvNet2": {"auc_score": 0.5960431654676259, "model_summary": "==========================================================================================\nLayer (type:depth-idx)                   Output Shape              Param #\n==========================================================================================\n\u251c\u2500GCNConv: 1-1                           [-1, 12]                  252\n\u251c\u2500GCNConv: 1-2                           [-1, 10]                  120\n\u251c\u2500NLGCN: 1-3                             [-1, 10]                  --\n|    \u2514\u2500Conv1d: 2-1                       [-1, 1, 1418]             10\n\u251c\u2500Linear: 1-4                            [-1, 12]                  132\n\u251c\u2500Linear: 1-5                            [-1, 10]                  110\n\u251c\u2500Linear: 1-6                            [-1, 10]                  110\n\u251c\u2500GCNConv: 1-7                           [-1, 12]                  120\n\u251c\u2500GCNConv: 1-8                           [-1, 21]                  252\n==========================================================================================\nTotal params: 1,106\nTrainable params: 1,106\nNon-trainable params: 0\nTotal mult-adds (M): 0.01\n==========================================================================================\nInput size (MB): 0.11\nForward/backward pass size (MB): 0.01\nParams size (MB): 0.00\nEstimated Total Size (MB): 0.13\n==========================================================================================", "threshold": "18.815407", "accuracy": "0.7454160789844851"}, "ConvNet3": {"auc_score": 0.6141058581706064, "model_summary": "==========================================================================================\nLayer (type:depth-idx)                   Output Shape              Param #\n==========================================================================================\n\u251c\u2500GCNConv: 1-1                           [-1, 12]                  252\n\u251c\u2500GCNConv: 1-2                           [-1, 10]                  120\n\u251c\u2500GCNConv: 1-3                           [-1, 10]                  100\n\u251c\u2500NLGCN: 1-4                             [-1, 10]                  --\n|    \u2514\u2500Conv1d: 2-1                       [-1, 1, 1418]             10\n\u251c\u2500Linear: 1-5                            [-1, 12]                  132\n\u251c\u2500Linear: 1-6                            [-1, 10]                  110\n\u251c\u2500Linear: 1-7                            [-1, 10]                  110\n\u251c\u2500GCNConv: 1-8                           [-1, 12]                  120\n\u251c\u2500GCNConv: 1-9                           [-1, 21]                  252\n==========================================================================================\nTotal params: 1,206\nTrainable params: 1,206\nNon-trainable params: 0\nTotal mult-adds (M): 0.01\n==========================================================================================\nInput size (MB): 0.11\nForward/backward pass size (MB): 0.01\nParams size (MB): 0.00\nEstimated Total Size (MB): 0.13\n==========================================================================================", "threshold": "18.819439", "accuracy": "0.7482369534555712"}, "ConvNet4": {"auc_score": 0.6376927029804728, "model_summary": "==========================================================================================\nLayer (type:depth-idx)                   Output Shape              Param #\n==========================================================================================\n\u251c\u2500GCNConv: 1-1                           [-1, 12]                  252\n\u251c\u2500GCNConv: 1-2                           [-1, 10]                  120\n\u251c\u2500GCNConv: 1-3                           [-1, 10]                  100\n\u251c\u2500GCNConv: 1-4                           [-1, 10]                  100\n\u251c\u2500NLGCN: 1-5                             [-1, 10]                  --\n|    \u2514\u2500Conv1d: 2-1                       [-1, 1, 1418]             10\n\u251c\u2500Linear: 1-6                            [-1, 12]                  132\n\u251c\u2500Linear: 1-7                            [-1, 10]                  110\n\u251c\u2500Linear: 1-8                            [-1, 10]                  110\n\u251c\u2500GCNConv: 1-9                           [-1, 12]                  120\n\u251c\u2500GCNConv: 1-10                          [-1, 21]                  252\n==========================================================================================\nTotal params: 1,306\nTrainable params: 1,306\nNon-trainable params: 0\nTotal mult-adds (M): 0.01\n==========================================================================================\nInput size (MB): 0.11\nForward/backward pass size (MB): 0.01\nParams size (MB): 0.00\nEstimated Total Size (MB): 0.13\n==========================================================================================", "threshold": "19.18325", "accuracy": "0.7496473906911142"}, "ConvNet5": {"auc_score": 0.5982528263103802, "model_summary": "==========================================================================================\nLayer (type:depth-idx)                   Output Shape              Param #\n==========================================================================================\n\u251c\u2500GCNConv: 1-1                           [-1, 12]                  252\n\u251c\u2500GCNConv: 1-2                           [-1, 10]                  120\n\u251c\u2500GCNConv: 1-3                           [-1, 10]                  100\n\u251c\u2500GCNConv: 1-4                           [-1, 10]                  100\n\u251c\u2500GCNConv: 1-5                           [-1, 10]                  100\n\u251c\u2500NLGCN: 1-6                             [-1, 10]                  --\n|    \u2514\u2500Conv1d: 2-1                       [-1, 1, 1418]             10\n\u251c\u2500Linear: 1-7                            [-1, 12]                  132\n\u251c\u2500Linear: 1-8                            [-1, 10]                  110\n\u251c\u2500Linear: 1-9                            [-1, 10]                  110\n\u251c\u2500GCNConv: 1-10                          [-1, 12]                  120\n\u251c\u2500GCNConv: 1-11                          [-1, 21]                  252\n==========================================================================================\nTotal params: 1,406\nTrainable params: 1,406\nNon-trainable params: 0\nTotal mult-adds (M): 0.01\n==========================================================================================\nInput size (MB): 0.11\nForward/backward pass size (MB): 0.01\nParams size (MB): 0.01\nEstimated Total Size (MB): 0.13\n==========================================================================================", "threshold": "18.817099", "accuracy": "0.7475317348377997"}, "ConvNet6": {"auc_score": 0.5923946557040083, "model_summary": "==========================================================================================\nLayer (type:depth-idx)                   Output Shape              Param #\n==========================================================================================\n\u251c\u2500GCNConv: 1-1                           [-1, 12]                  252\n\u251c\u2500GCNConv: 1-2                           [-1, 10]                  120\n\u251c\u2500GCNConv: 1-3                           [-1, 10]                  100\n\u251c\u2500GCNConv: 1-4                           [-1, 10]                  100\n\u251c\u2500GCNConv: 1-5                           [-1, 10]                  100\n\u251c\u2500GCNConv: 1-6                           [-1, 10]                  100\n\u251c\u2500NLGCN: 1-7                             [-1, 10]                  --\n|    \u2514\u2500Conv1d: 2-1                       [-1, 1, 1418]             10\n\u251c\u2500Linear: 1-8                            [-1, 12]                  132\n\u251c\u2500Linear: 1-9                            [-1, 10]                  110\n\u251c\u2500Linear: 1-10                           [-1, 10]                  110\n\u251c\u2500GCNConv: 1-11                          [-1, 12]                  120\n\u251c\u2500GCNConv: 1-12                          [-1, 21]                  252\n==========================================================================================\nTotal params: 1,506\nTrainable params: 1,506\nNon-trainable params: 0\nTotal mult-adds (M): 0.01\n==========================================================================================\nInput size (MB): 0.11\nForward/backward pass size (MB): 0.01\nParams size (MB): 0.01\nEstimated Total Size (MB): 0.1
…
 (MB): 0.01\nParams size (MB): 0.00\nEstimated Total Size (MB): 0.13\n==========================================================================================", "threshold": "18.817198", "accuracy": "0.7468265162200282"}, "DenseNet3": {"auc_score": 0.6013874614594039, "model_summary": "==========================================================================================\nLayer (type:depth-idx)                   Output Shape              Param #\n==========================================================================================\n\u251c\u2500GCNConv: 1-1                           [-1, 12]                  252\n\u251c\u2500GCNConv: 1-2                           [-1, 10]                  120\n\u251c\u2500NLGCN: 1-3                             [-1, 10]                  --\n|    \u2514\u2500Conv1d: 2-1                       [-1, 1, 1418]             10\n\u251c\u2500Linear: 1-4                            [-1, 12]                  132\n\u251c\u2500Linear: 1-5                            [-1, 10]                  110\n\u251c\u2500Linear: 1-6                            [-1, 10]                  110\n\u251c\u2500Linear: 1-7                            [-1, 10]                  110\n\u251c\u2500GCNConv: 1-8                           [-1, 12]                  120\n\u251c\u2500GCNConv: 1-9                           [-1, 21]                  252\n==========================================================================================\nTotal params: 1,216\nTrainable params: 1,216\nNon-trainable params: 0\nTotal mult-adds (M): 0.01\n==========================================================================================\nInput size (MB): 0.11\nForward/backward pass size (MB): 0.01\nParams size (MB): 0.00\nEstimated Total Size (MB): 0.13\n==========================================================================================", "threshold": "9.418633", "accuracy": "0.7454160789844851"}, "DenseNet4": {"auc_score": 0.59827852004111, "model_summary": "==========================================================================================\nLayer (type:depth-idx)                   Output Shape              Param #\n==========================================================================================\n\u251c\u2500GCNConv: 1-1                           [-1, 12]                  252\n\u251c\u2500GCNConv: 1-2                           [-1, 10]                  120\n\u251c\u2500NLGCN: 1-3                             [-1, 10]                  --\n|    \u2514\u2500Conv1d: 2-1                       [-1, 1, 1418]             10\n\u251c\u2500Linear: 1-4                            [-1, 12]                  132\n\u251c\u2500Linear: 1-5                            [-1, 10]                  110\n\u251c\u2500Linear: 1-6                            [-1, 10]                  110\n\u251c\u2500Linear: 1-7                            [-1, 10]                  110\n\u251c\u2500Linear: 1-8                            [-1, 10]                  110\n\u251c\u2500GCNConv: 1-9                           [-1, 12]                  120\n\u251c\u2500GCNConv: 1-10                          [-1, 21]                  252\n==========================================================================================\nTotal params: 1,326\nTrainable params: 1,326\nNon-trainable params: 0\nTotal mult-adds (M): 0.01\n==========================================================================================\nInput size (MB): 0.11\nForward/backward pass size (MB): 0.01\nParams size (MB): 0.01\nEstimated Total Size (MB): 0.13\n==========================================================================================", "threshold": "18.817104", "accuracy": "0.7482369534555712"}, "DenseNet5": {"auc_score": 0.5962487153134635, "model_summary": "==========================================================================================\nLayer (type:depth-idx)                   Output Shape              Param #\n==========================================================================================\n\u251c\u2500GCNConv: 1-1                           [-1, 12]                  252\n\u251c\u2500GCNConv: 1-2                           [-1, 10]                  120\n\u251c\u2500NLGCN: 1-3                             [-1, 10]                  --\n|    \u2514\u2500Conv1d: 2-1                       [-1, 1, 1418]             10\n\u251c\u2500Linear: 1-4                            [-1, 12]                  132\n\u251c\u2500Linear: 1-5                            [-1, 10]                  110\n\u251c\u2500Linear: 1-6                            [-1, 10]                  110\n\u251c\u2500Linear: 1-7                            [-1, 10]                  110\n\u251c\u2500Linear: 1-8                            [-1, 10]                  110\n\u251c\u2500Linear: 1-9                            [-1, 10]                  110\n\u251c\u2500GCNConv: 1-10                          [-1, 12]                  120\n\u251c\u2500GCNConv: 1-11                          [-1, 21]                  252\n==========================================================================================\nTotal params: 1,436\nTrainable params: 1,436\nNon-trainable params: 0\nTotal mult-adds (M): 0.01\n==========================================================================================\nInput size (MB): 0.11\nForward/backward pass size (MB): 0.01\nParams size (MB): 0.01\nEstimated Total Size (MB): 0.13\n==========================================================================================", "threshold": "18.815723", "accuracy": "0.7447108603667136"}, "DenseNet6": {"auc_score": 0.6122302158273382, "model_summary": "==========================================================================================\nLayer (type:depth-idx)                   Output Shape              Param #\n==========================================================================================\n\u251c\u2500GCNConv: 1-1                           [-1, 12]                  252\n\u251c\u2500GCNConv: 1-2                           [-1, 10]                  120\n\u251c\u2500NLGCN: 1-3                             [-1, 10]                  --\n|    \u2514\u2500Conv1d: 2-1                       [-1, 1, 1418]             10\n\u251c\u2500Linear: 1-4                            [-1, 12]                  132\n\u251c\u2500Linear: 1-5                            [-1, 10]                  110\n\u251c\u2500Linear: 1-6                            [-1, 10]                  110\n\u251c\u2500Linear: 1-7                            [-1, 10]                  110\n\u251c\u2500Linear: 1-8                            [-1, 10]                  110\n\u251c\u2500Linear: 1-9                            [-1, 10]                  110\n\u251c\u2500Linear: 1-10                           [-1, 10]                  110\n\u251c\u2500GCNConv: 1-11                          [-1, 12]                  120\n\u251c\u2500GCNConv: 1-12                          [-1, 21]                  252\n==========================================================================================\nTotal params: 1,546\nTrainable params: 1,546\nNon-trainable params: 0\nTotal mult-adds (M): 0.01\n==========================================================================================\nInput size (MB): 0.11\nForward/backward pass size (MB): 0.01\nParams size (MB): 0.01\nEstimated Total Size (MB): 0.13\n==========================================================================================", "threshold": "18.819715", "accuracy": "0.7468265162200282"}, "DenseNet7": {"auc_score": 0.6002826310380267, "model_summary": "==========================================================================================\nLayer (type:depth-idx)                   Output Shape              Param #\n==========================================================================================\n\u251c\u2500GCNConv: 1-1                           [-1, 12]                  252\n\u251c\u2500GCNConv: 1-2                           [-1, 10]                  120\n\u251c\u2500NLGCN: 1-3                             [-1, 10]                  --\n|    \u2514\u2500Conv1d: 2-1                       [-1, 1, 1418]             10\n\u251c\u2500Linear: 1-4                            [-1, 12]                  132\n\u251c\u2500Linear: 1-5                            [-1, 10]                  110\n\u251c\u2500Linear: 1-6                            [-1, 10]                  110\n\u251c\u2500Linear: 1-7                            [-1, 10]                  110\n\u251c\u2500Linear: 1-8                            [-1, 10]                  110\n\u251c\u2500Linear: 1-9                            [-1, 10]                  110\n\u251c\u2500Linear: 1-10                           [-1, 10]                  110\n\u251c\u2500Linear: 1-11                           [-1, 10]                  110\n\u251c\u2500GCNConv: 1-12                          [-1, 12]                  120\n\u251c\u2500GCNConv: 1-13                          [-1, 21]                  252\n==========================================================================================\nTotal params: 1,656\nTrainable params: 1,656\nNon-trainable params: 0\nTotal mult-adds (M): 0.01\n==========================================================================================\nInput size (MB): 0.11\nForward/backward pass size (MB): 0.01\nParams size (MB): 0.01\nEstimated Total Size (MB): 0.13\n==========================================================================================", "threshold": "18.819431", "accuracy": "0.7482369534555712"}, "DenseNet8": {"auc_score": 0.6047790339157246, "model_summary": "==========================================================================================\nLayer (type:depth-idx)                   Output Shape              Param #\n==========================================================================================\n\u251c\u2500GCNConv: 1-1                           [-1, 12]                  252\n\u251c\u2500GCNConv: 1-2                           [-1, 10]                  120\n\u251c\u2500NLGCN: 1-3                             [-1, 10]                  --\n|    \u2514\u2500Conv1d: 2-1                       [-1, 1, 1418]             10\n\u251c\u2500Linear: 1-4                            [-1, 12]                  132\n\u251c\u2500Linear: 1-5                            [-1, 10]                  110\n\u251c\u2500Linear: 1-6                            [-1, 10]                  110\n\u251c\u2500Linear: 1-7                            [-1, 10]                  110\n\u251c\u2500Linear: 1-8                            [-1, 10]                  110\n\u251c\u2500Linear: 1-9                            [-1, 10]                  110\n\u251c\u2500Linear: 1-10                           [-1, 10]                  110\n\u251c\u2500Linear: 1-11                           [-1, 10]                  110\n\u251c\u2500Linear: 1-12                           [-1, 10]                  110\n\u251c\u2500GCNConv: 1-13                          [-1, 12]                  120\n\u251c\u2500GCNConv: 1-14                          [-1, 21]                  252\n==========================================================================================\nTotal params: 1,766\nTrainable params: 1,766\nNon-trainable params: 0\nTotal mult-adds (M): 0.01\n==========================================================================================\nInput size (MB): 0.11\nForward/backward pass size (MB): 0.01\nParams size (MB): 0.01\nEstimated Total Size (MB): 0.1
…
ize (MB): 0.01\nParams size (MB): 0.00\nEstimated Total Size (MB): 0.13\n==========================================================================================", "threshold": "18.817099", "accuracy": "0.7447108603667136"}, "NLNet2": {"auc_score": 0.6045991778006167, "model_summary": "==========================================================================================\nLayer (type:depth-idx)                   Output Shape              Param #\n==========================================================================================\n\u251c\u2500GCNConv: 1-1                           [-1, 12]                  252\n\u251c\u2500GCNConv: 1-2                           [-1, 10]                  120\n\u251c\u2500NLGCN: 1-3                             [-1, 10]                  --\n|    \u2514\u2500Conv1d: 2-1                       [-1, 1, 1418]             10\n\u251c\u2500NLGCN: 1-4                             [-1, 10]                  --\n|    \u2514\u2500Conv1d: 2-2                       [-1, 1, 1418]             10\n\u251c\u2500Linear: 1-5                            [-1, 12]                  132\n\u251c\u2500Linear: 1-6                            [-1, 10]                  110\n\u251c\u2500Linear: 1-7                            [-1, 10]                  110\n\u251c\u2500GCNConv: 1-8                           [-1, 12]                  120\n\u251c\u2500GCNConv: 1-9                           [-1, 21]                  252\n==========================================================================================\nTotal params: 1,116\nTrainable params: 1,116\nNon-trainable params: 0\nTotal mult-adds (M): 0.03\n==========================================================================================\nInput size (MB): 0.11\nForward/backward pass size (MB): 0.02\nParams size (MB): 0.00\nEstimated Total Size (MB): 0.1
…
ss size (MB): 0.01\nParams size (MB): 0.00\nEstimated Total Size (MB): 0.13\n==========================================================================================", "threshold": "9.4186535", "accuracy": "0.7482369534555712"}, "N2": {"auc_score": 0.6358170606372044, "model_summary": "==========================================================================================\nLayer (type:depth-idx)                   Output Shape              Param #\n==========================================================================================\n\u251c\u2500GCNConv: 1-1                           [-1, 12]                  252\n\u251c\u2500GCNConv: 1-2                           [-1, 10]                  120\n\u251c\u2500NLGCN: 1-3                             [-1, 10]                  --\n|    \u2514\u2500Conv1d: 2-1                       [-1, 1, 1418]             10\n\u251c\u2500GCNConv: 1-4                           [-1, 10]                  100\n\u251c\u2500GCNConv: 1-5                           [-1, 12]                  120\n\u251c\u2500Linear: 1-6                            [-1, 12]                  156\n\u251c\u2500Linear: 1-7                            [-1, 10]                  110\n\u251c\u2500Linear: 1-8                            [-1, 10]                  110\n\u251c\u2500GCNConv: 1-9                           [-1, 12]                  120\n\u251c\u2500GCNConv: 1-10                          [-1, 21]                  252\n==========================================================================================\nTotal params: 1,350\nTrainable params: 1,350\nNon-trainable params: 0\nTotal mult-adds (M): 0.01\n==========================================================================================\nInput size (MB): 0.11\nForward/backward pass size (MB): 0.01\nParams size (MB): 0.01\nEstimated Total Size (MB): 0.13\n==========================================================================================", "threshold": "9.4489565", "accuracy": "0.7468265162200282"}, "N3": {"auc_score": 0.6239208633093525, "model_summary": "==========================================================================================\nLayer (type:depth-idx)                   Output Shape              Param #\n==========================================================================================\n\u251c\u2500GCNConv: 1-1                           [-1, 12]                  252\n\u251c\u2500GCNConv: 1-2                           [-1, 10]                  120\n\u251c\u2500GCNConv: 1-3                           [-1, 12]                  120\n\u251c\u2500GCNConv: 1-4                           [-1, 12]                  120\n\u251c\u2500GCNConv: 1-5                           [-1, 21]                  252\n==========================================================================================\nTotal params: 864\nTrainable params: 864\nNon-trainable params: 0\nTotal mult-adds (M): 0.00\n==========================================================================================\nInput size (MB): 0.11\nForward/backward pass size (MB): 0.00\nParams size (MB): 0.00\nEstimated Total Size (MB): 0.12\n==========================================================================================", "threshold": "9.911642", "accuracy": "0.7482369534555712"}, "N4": {"auc_score": 0.6644398766700925, "model_summary": "==========================================================================================\nLayer (type:depth-idx)                   Output Shape              Param #\n==========================================================================================\n\u251c\u2500GCNConv: 1-1                           [-1, 256]                 5,376\n\u251c\u2500GCNConv: 1-2                           [-1, 64]                  16,384\n\u251c\u2500GCNConv: 1-3                           [-1, 256]                 16,384\n\u251c\u2500GCNConv: 1-4                           [-1, 256]                 16,384\n\u251c\u2500GCNConv: 1-5                           [-1, 21]                  5,376\n==========================================================================================\nTotal params: 59,904\nTrainable params: 59,904\nNon-trainable params: 0\nTotal mult-adds (M): 0.00\n==========================================================================================\nInput size (MB): 0.11\nForward/backward pass size (MB): 0.01\nParams size (MB): 0.23\nEstimated Total Size (MB): 0
…
