{"AttConvNet1": {"auc_score": 0.6349948612538541, "model_summary": "==========================================================================================\nLayer (type:depth-idx)                   Output Shape              Param #\n==========================================================================================\n\u251c\u2500GCNConv: 1-1                           [-1, 12]                  252\n\u251c\u2500GCNConv: 1-2                           [-1, 10]                  120\n\u251c\u2500NLGCN: 1-3                             [-1, 10]                  --\n|    \u2514\u2500Conv1d: 2-1                       [-1, 1, 1418]             10\n\u251c\u2500Linear: 1-4                            [-1, 12]                  132\n\u251c\u2500Linear: 1-5                            [-1, 10]                  110\n\u251c\u2500GCNConv: 1-6                           [-1, 21]                  210\n==========================================================================================\nTotal params: 834\nTrainable params: 834\nNon-trainable params: 0\nTotal mult-adds (M): 0.01\n==========================================================================================\nInput size (MB): 0.11\nForward/backward pass size (MB): 0.01\nParams size (MB): 0.00\nEstimated Total Size (MB): 0.13\n==========================================================================================", "threshold": "18.862682"}, "AttConvNet2": {"auc_score": 0.5974820143884892, "model_summary": "==========================================================================================\nLayer (type:depth-idx)                   Output Shape              Param #\n==========================================================================================\n\u251c\u2500GCNConv: 1-1                           [-1, 12]                  252\n\u251c\u2500GCNConv: 1-2                           [-1, 10]                  120\n\u251c\u2500NLGCN: 1-3                             [-1, 10]                  --\n|    \u2514\u2500Conv1d: 2-1                       [-1, 1, 1418]             10\n\u251c\u2500Linear: 1-4                            [-1, 12]                  132\n\u251c\u2500Linear: 1-5                            [-1, 10]                  110\n\u251c\u2500GCNConv: 1-6                           [-1, 12]                  120\n\u251c\u2500GCNConv: 1-7                           [-1, 21]                  252\n==========================================================================================\nTotal params: 996\nTrainable params: 996\nNon-trainable params: 0\nTotal mult-adds (M): 0.01\n==========================================================================================\nInput size (MB): 0.11\nForward/backward pass size (MB): 0.01\nParams size (MB): 0.00\nEstimated Total Size (MB): 0.13\n==========================================================================================", "threshold": "18.806437"}, "AttConvNet3": {"auc_score": 0.5994989722507709, "model_summary": "==========================================================================================\nLayer (type:depth-idx)                   Output Shape              Param #\n==========================================================================================\n\u251c\u2500GCNConv: 1-1                           [-1, 12]                  252\n\u251c\u2500GCNConv: 1-2                           [-1, 10]                  120\n\u251c\u2500NLGCN: 1-3                             [-1, 10]                  --\n|    \u2514\u2500Conv1d: 2-1                       [-1, 1, 1418]             10\n\u251c\u2500Linear: 1-4                            [-1, 12]                  132\n\u251c\u2500Linear: 1-5                            [-1, 10]                  110\n\u251c\u2500GCNConv: 1-6                           [-1, 12]                  120\n\u251c\u2500GCNConv: 1-7                           [-1, 12]                  144\n\u251c\u2500GCNConv: 1-8                           [-1, 21]                  252\n==========================================================================================\nTotal params: 1,140\nTrainable params: 1,140\nNon-trainable params: 0\nTotal mult-adds (M): 0.01\n==========================================================================================\nInput size (MB): 0.11\nForward/backward pass size (MB): 0.01\nParams size (MB): 0.00\nEstimated Total Size (MB): 0.13\n==========================================================================================", "threshold": "9.900912"}, "AttConvNet4": {"auc_score": 0.6164439876670093, "model_summary": "==========================================================================================\nLayer (type:depth-idx)                   Output Shape              Param #\n==========================================================================================\n\u251c\u2500GCNConv: 1-1                           [-1, 12]                  252\n\u251c\u2500GCNConv: 1-2                           [-1, 10]                  120\n\u251c\u2500NLGCN: 1-3                             [-1, 10]                  --\n|    \u2514\u2500Conv1d: 2-1                       [-1, 1, 1418]             10\n\u251c\u2500Linear: 1-4                            [-1, 12]                  132\n\u251c\u2500Linear: 1-5                            [-1, 10]                  110\n\u251c\u2500GCNConv: 1-6                           [-1, 12]                  120\n\u251c\u2500GCNConv: 1-7                           [-1, 12]                  144\n\u251c\u2500GCNConv: 1-8                           [-1, 12]                  144\n\u251c\u2500GCNConv: 1-9                           [-1, 21]                  252\n==========================================================================================\nTotal params: 1,284\nTrainable params: 1,284\nNon-trainable params: 0\nTotal mult-adds (M): 0.01\n==========================================================================================\nInput size (MB): 0.11\nForward/backward pass size (MB): 0.01\nParams size (MB): 0.00\nEstimated Total Size (MB): 0.13\n==========================================================================================", "threshold": "9.418633"}, "ConvNet1": {"auc_score": 0.6041880781089415, "model_summary": "==========================================================================================\nLayer (type:depth-idx)                   Output Shape              Param #\n==========================================================================================\n\u251c\u2500GCNConv: 1-1                           [-1, 10]                  210\n\u251c\u2500NLGCN: 1-2                             [-1, 10]                  --\n|    \u2514\u2500Conv1d: 2-1                       [-1, 1, 1418]             10\n\u251c\u2500Linear: 1-3                            [-1, 12]                  132\n\u251c\u2500Linear: 1-4                            [-1, 10]                  110\n\u251c\u2500Linear: 1-5                            [-1, 10]                  110\n\u251c\u2500GCNConv: 1-6                           [-1, 12]                  120\n\u251c\u2500GCNConv: 1-7                           [-1, 21]                  252\n==========================================================================================\nTotal params: 944\nTrainable params: 944\nNon-trainable params: 0\nTotal mult-adds (M): 0.01\n==========================================================================================\nInput size (MB): 0.11\nForward/backward pass size (MB): 0.01\nParams size (MB): 0.00\nEstimated Total Size (MB): 0.13\n==========================================================================================", "threshold": "18.819431"}, "ConvNet2": {"auc_score": 0.6066289825282631, "model_summary": "==========================================================================================\nLayer (type:depth-idx)                   Output Shape              Param #\n==========================================================================================\n\u251c\u2500GCNConv: 1-1                           [-1, 12]                  252\n\u251c\u2500GCNConv: 1-2                           [-1, 10]                  120\n\u251c\u2500NLGCN: 1-3                             [-1, 10]                  --\n|    \u2514\u2500Conv1d: 2-1                       [-1, 1, 1418]             10\n\u251c\u2500Linear: 1-4                            [-1, 12]                  132\n\u251c\u2500Linear: 1-5                            [-1, 10]                  110\n\u251c\u2500Linear: 1-6                            [-1, 10]                  110\n\u251c\u2500GCNConv: 1-7                           [-1, 12]                  120\n\u251c\u2500GCNConv: 1-8                           [-1, 21]                  252\n==========================================================================================\nTotal params: 1,106\nTrainable params: 1,106\nNon-trainable params: 0\nTotal mult-adds (M): 0.01\n==========================================================================================\nInput size (MB): 0.11\nForward/backward pass size (MB): 0.01\nParams size (MB): 0.00\nEstimated Total Size (MB): 0.13\n==========================================================================================", "threshold": "9.41863"}, "ConvNet3": {"auc_score": 0.5984198355601233, "model_summary": "==========================================================================================\nLayer (type:depth-idx)                   Output Shape              Param #\n==========================================================================================\n\u251c\u2500GCNConv: 1-1                           [-1, 12]                  252\n\u251c\u2500GCNConv: 1-2                           [-1, 10]                  120\n\u251c\u2500GCNConv: 1-3                           [-1, 10]                  100\n\u251c\u2500NLGCN: 1-4                             [-1, 10]                  --\n|    \u2514\u2500Conv1d: 2-1                       [-1, 1, 1418]             10\n\u251c\u2500Linear: 1-5                            [-1, 12]                  132\n\u251c\u2500Linear: 1-6                            [-1, 10]                  110\n\u251c\u2500Linear: 1-7                            [-1, 10]                  110\n\u251c\u2500GCNConv: 1-8                           [-1, 12]                  120\n\u251c\u2500GCNConv: 1-9                           [-1, 21]                  252\n==========================================================================================\nTotal params: 1,206\nTrainable params: 1,206\nNon-trainable params: 0\nTotal mult-adds (M): 0.01\n==========================================================================================\nInput size (MB): 0.11\nForward/backward pass size (MB): 0.01\nParams size (MB): 0.00\nEstimated Total Size (MB): 0.13\n==========================================================================================", "threshold": "18.807632"}, "ConvNet4": {"auc_score": 0.5985868448098663, "model_summary": "==========================================================================================\nLayer (type:depth-idx)                   Output Shape              Param #\n==========================================================================================\n\u251c\u2500GCNConv: 1-1                           [-1, 12]                  252\n\u251c\u2500GCNConv: 1-2                           [-1, 10]                  120\n\u251c\u2500GCNConv: 1-3                           [-1, 10]                  100\n\u251c\u2500GCNConv: 1-4                           [-1, 10]                  100\n\u251c\u2500NLGCN: 1-5                             [-1, 10]                  --\n|    \u2514\u2500Conv1d: 2-1                       [-1, 1, 1418]             10\n\u251c\u2500Linear: 1-6                            [-1, 12]                  132\n\u251c\u2500Linear: 1-7                            [-1, 10]                  110\n\u251c\u2500Linear: 1-8                            [-1, 10]                  110\n\u251c\u2500GCNConv: 1-9                           [-1, 12]                  120\n\u251c\u2500GCNConv: 1-10                          [-1, 21]                  252\n==========================================================================================\nTotal params: 1,306\nTrainable params: 1,306\nNon-trainable params: 0\nTotal mult-adds (M): 0.01\n==========================================================================================\nInput size (MB): 0.11\nForward/backward pass size (MB): 0.01\nParams size (MB): 0.00\nEstimated Total Size (MB): 0.13\n==========================================================================================", "threshold": "18.806707"}, "ConvNet5": {"auc_score": 0.5965056526207605, "model_summary": "==========================================================================================\nLayer (type:depth-idx)                   Output Shape              Param #\n==========================================================================================\n\u251c\u2500GCNConv: 1-1                           [-1, 12]                  252\n\u251c\u2500GCNConv: 1-2                           [-1, 10]                  120\n\u251c\u2500GCNConv: 1-3                           [-1, 10]                  100\n\u251c\u2500GCNConv: 1-4                           [-1, 10]                  100\n\u251c\u2500GCNConv: 1-5                           [-1, 10]                  100\n\u251c\u2500NLGCN: 1-6                             [-1, 10]                  --\n|    \u2514\u2500Conv1d: 2-1                       [-1, 1, 1418]             10\n\u251c\u2500Linear: 1-7                            [-1, 12]                  132\n\u251c\u2500Linear: 1-8                            [-1, 10]                  110\n\u251c\u2500Linear: 1-9                            [-1, 10]                  110\n\u251c\u2500GCNConv: 1-10                          [-1, 12]                  120\n\u251c\u2500GCNConv: 1-11                          [-1, 21]                  252\n==========================================================================================\nTotal params: 1,406\nTrainable params: 1,406\nNon-trainable params: 0\nTotal mult-adds (M): 0.01\n==========================================================================================\nInput size (MB): 0.11\nForward/backward pass size (MB): 0.01\nParams size (MB): 0.01\nEstimated Total Size (MB): 0.13\n==========================================================================================", "threshold": "18.806337"}, "ConvNet6": {"auc_score": 0.6103802672147995, "model_summary": "==========================================================================================\nLayer (type:depth-idx)                   Output Shape              Param #\n==========================================================================================\n\u251c\u2500GCNConv: 1-1                           [-1, 12]                  252\n\u251c\u2500GCNConv: 1-2                           [-1, 10]                  120\n\u251c\u2500GCNConv: 1-3                           [-1, 10]                  100\n\u251c\u2500GCNConv: 1-4                           [-1, 10]                  100\n\u251c\u2500GCNConv: 1-5                           [-1, 10]                  100\n\u251c\u2500GCNConv: 1-6                           [-1, 10]                  100\n\u251c\u2500NLGCN: 1-7                             [-1, 10]                  --\n|    \u2514\u2500Conv1d: 2-1                       [-1, 1, 1418]             10\n\u251c\u2500Linear: 1-8                            [-1, 12]                  132\n\u251c\u2500Linear: 1-9                            [-1, 10]                  110\n\u251c\u2500Linear: 1-10                           [-1, 10]                  110\n\u251c\u2500GCNConv: 1-11                          [-1, 12]                  120\n\u251c\u2500GCNConv: 1-12                          [-1, 21]                  252\n==========================================================================================\nTotal params: 1,506\nTrainable params: 1,506\nNon-trainable params: 0\nTotal mult-adds (M): 0.01\n==========================================================================================\nInput size (MB): 0.11\nForward/backward pass size (MB): 0.01\nParams size (MB): 0.01\nEstimated Total Size (MB): 0.13\n==========================================================================================", "threshold": "19.456497"}, "DenseNet1": {"auc_score": 0.6266187050359712, "model_summary": "==========================================================================================\nLayer (type:depth-idx)                   Output Shape              Param #\n==========================================================================================\n\u251c\u2500GCNConv: 1-1                           [-1, 12]                  252\n\u251c\u2500GCNConv: 1-2                           [-1, 10]                  120\n\u251c\u2500NLGCN: 1-3                             [-1, 10]                  --\n|    \u2514\u2500Conv1d: 2-1                       [-1, 1, 1418]             10\n\u251c\u2500Linear: 1-4                            [-1, 12]                  132\n\u251c\u2500Linear: 1-5                            [-1, 10]                  110\n\u251c\u2500GCNConv: 1-6                           [-1, 12]                  120\n\u251c\u2500GCNConv: 1-7                           [-1, 21]                  252\n==========================================================================================\nTotal params: 996\nTrainable params: 996\nNon-trainable params: 0\nTotal mult-adds (M): 0.01\n==========================================================================================\nInput size (MB): 0.11\nForward/backward pass size (MB): 0.01\nParams size (MB): 0.00\nEstimated Total Size (MB): 0.13\n==========================================================================================", "threshold": "18.823477"}, "DenseNet2": {"auc_score": 0.5977389516957863, "model_summary": "==========================================================================================\nLayer (type:depth-idx)                   Output Shape              Param #\n==========================================================================================\n\u251c\u2500GCNConv: 1-1                           [-1, 12]                  252\n\u251c\u2500GCNConv: 1-2                           [-1, 10]                  120\n\u251c\u2500NLGCN: 1-3                             [-1, 10]                  --\n|    \u2514\u2500Conv1d: 2-1                       [-1, 1, 1418]             10\n\u251c\u2500Linear: 1-4                            [-1, 12]                  132\n\u251c\u2500Linear: 1-5                            [-1, 10]                  110\n\u251c\u2500Linear: 1-6                            [-1, 10]                  110\n\u251c\u2500GCNConv: 1-7                           [-1, 12]                  120\n\u251c\u2500GCNConv: 1-8                           [-1, 21]                  252\n==========================================================================================\nTotal params: 1,106\nTrainable params: 1,106\nNon-trainable params: 0\nTotal mult-adds (M): 0.01\n==========================================================================================\nInput size (MB): 0.11\nForward/backward pass size (MB): 0.01\nParams size (MB): 0.00\nEstimated Total Size (MB): 0.13\n==========================================================================================", "threshold": "18.80801"}, "DenseNet3": {"auc_score": 0.6042137718396712, "model_summary": "==========================================================================================\nLayer (type:depth-idx)                   Output Shape              Param #\n==========================================================================================\n\u251c\u2500GCNConv: 1-1                           [-1, 12]                  252\n\u251c\u2500GCNConv: 1-2                           [-1, 10]                  120\n\u251c\u2500NLGCN: 1-3                             [-1, 10]                  --\n|    \u2514\u2500Conv1d: 2-1                       [-1, 1, 1418]             10\n\u251c\u2500Linear: 1-4                            [-1, 12]                  132\n\u251c\u2500Linear: 1-5                            [-1, 10]                  110\n\u251c\u2500Linear: 1-6                            [-1, 10]                  110\n\u251c\u2500Linear: 1-7                            [-1, 10]                  110\n\u251c\u2500GCNConv: 1-8                           [-1, 12]                  120\n\u251c\u2500GCNConv: 1-9                           [-1, 21]                  252\n==========================================================================================\nTotal params: 1,216\nTrainable params: 1,216\nNon-trainable params: 0\nTotal mult-adds (M): 0.01\n==========================================================================================\nInput size (MB): 0.11\nForward/backward pass size (MB): 0.01\nParams size (MB): 0.00\nEstimated Total Size (MB): 0.13\n==========================================================================================", "threshold": "9.41863"}, "DenseNet4": {"auc_score": 0.6128211716341213, "model_summary": "==========================================================================================\nLayer (type:depth-idx)                   Output Shape              Param #\n==========================================================================================\n\u251c\u2500GCNConv: 1-1                           [-1, 12]                  252\n\u251c\u2500GCNConv: 1-2                           [-1, 10]                  120\n\u251c\u2500NLGCN: 1-3                             [-1, 10]                  --\n|    \u2514\u2500Conv1d: 2-1                       [-1, 1, 1418]             10\n\u251c\u2500Linear: 1-4                            [-1, 12]                  132\n\u251c\u2500Linear: 1-5                            [-1, 10]                  110\n\u251c\u2500Linear: 1-6                            [-1, 10]                  110\n\u251c\u2500Linear: 1-7                            [-1, 10]                  110\n\u251c\u2500Linear: 1-8                            [-1, 10]                  110\n\u251c\u2500GCNConv: 1-9                           [-1, 12]                  120\n\u251c\u2500GCNConv: 1-10                          [-1, 21]                  252\n==========================================================================================\nTotal params: 1,326\nTrainable params: 1,326\nNon-trainable params: 0\nTotal mult-adds (M): 0.01\n==========================================================================================\nInput size (MB): 0.11\nForward/backward pass size (MB): 0.01\nParams size (MB): 0.01\nEstimated Total Size (MB): 0.13\n==========================================================================================", "threshold": "18.819431"}, "DenseNet5": {"auc_score": 0.6010020554984583, "model_summary": "==========================================================================================\nLayer (type:depth-idx)                   Output Shape              Param #\n==========================================================================================\n\u251c\u2500GCNConv: 1-1                           [-1, 12]                  252\n\u251c\u2500GCNConv: 1-2                           [-1, 10]                  120\n\u251c\u2500NLGCN: 1-3                             [-1, 10]                  --\n|    \u2514\u2500Conv1d: 2-1                       [-1, 1, 1418]             10\n\u251c\u2500Linear: 1-4                            [-1, 12]                  132\n\u251c\u2500Linear: 1-5                            [-1, 10]                  110\n\u251c\u2500Linear: 1-6                            [-1, 10]                  110\n\u251c\u2500Linear: 1-7                            [-1, 10]                  110\n\u251c\u2500Linear: 1-8                            [-1, 10]                  110\n\u251c\u2500Linear: 1-9                            [-1, 10]                  110\n\u251c\u2500GCNConv: 1-10                          [-1, 12]                  120\n\u251c\u2500GCNConv: 1-11                          [-1, 21]                  252\n==========================================================================================\nTotal params: 1,436\nTrainable params: 1,436\nNon-trainable params: 0\nTotal mult-adds (M): 0.01\n==========================================================================================\nInput size (MB): 0.11\nForward/backward pass size (MB): 0.01\nParams size (MB): 0.01\nEstimated Total Size (MB): 0.13\n==========================================================================================", "threshold": "18.817099"}, "DenseNet6": {"auc_score": 0.6069630010277491, "model_summary": "==========================================================================================\nLayer (type:depth-idx)                   Output Shape              Param #\n==========================================================================================\n\u251c\u2500GCNConv: 1-1                           [-1, 12]                  252\n\u251c\u2500GCNConv: 1-2                           [-1, 10]                  120\n\u251c\u2500NLGCN: 1-3                             [-1, 10]                  --\n|    \u2514\u2500Conv1d: 2-1                       [-1, 1, 1418]             10\n\u251c\u2500Linear: 1-4                            [-1, 12]                  132\n\u251c\u2500Linear: 1-5                            [-1, 10]                  110\n\u251c\u2500Linear: 1-6                            [-1, 10]                  110\n\u251c\u2500Linear: 1-7                            [-1, 10]                  110\n\u251c\u2500Linear: 1-8                            [-1, 10]                  110\n\u251c\u2500Linear: 1-9                            [-1, 10]                  110\n\u251c\u2500Linear: 1-10                           [-1, 10]                  110\n\u251c\u2500GCNConv: 1-11                          [-1, 12]                  120\n\u251c\u2500GCNConv: 1-12                          [-1, 21]                  252\n==========================================================================================\nTotal params: 1,546\nTrainable params: 1,546\nNon-trainable params: 0\nTotal mult-adds (M): 0.01\n==========================================================================================\nInput size (MB): 0.11\nForward/backward pass size (MB): 0.01\nParams size (MB): 0.01\nEstimated Total Size (MB): 0.13\n==========================================================================================", "threshold": "18.819431"}, "DenseNet7": {"auc_score": 0.6125385405960946, "model_summary": "==========================================================================================\nLayer (type:depth-idx)                   Output Shape              Param #\n==========================================================================================\n\u251c\u2500GCNConv: 1-1                           [-1, 12]                  252\n\u251c\u2500GCNConv: 1-2                           [-1, 10]                  120\n\u251c\u2500NLGCN: 1-3                             [-1, 10]                  --\n|    \u2514\u2500Conv1d: 2-1                       [-1, 1, 1418]             10\n\u251c\u2500Linear: 1-4                            [-1, 12]                  132\n\u251c\u2500Linear: 1-5                            [-1, 10]                  110\n\u251c\u2500Linear: 1-6                            [-1, 10]                  110\n\u251c\u2500Linear: 1-7                            [-1, 10]                  110\n\u251c\u2500Linear: 1-8                            [-1, 10]                  110\n\u251c\u2500Linear: 1-9                            [-1, 10]                  110\n\u251c\u2500Linear: 1-10                           [-1, 10]                  110\n\u251c\u2500Linear: 1-11                           [-1, 10]                  110\n\u251c\u2500GCNConv: 1-12                          [-1, 12]                  120\n\u251c\u2500GCNConv: 1-13                          [-1, 21]                  252\n==========================================================================================\nTotal params: 1,656\nTrainable params: 1,656\nNon-trainable params: 0\nTotal mult-adds (M): 0.01\n==========================================================================================\nInput size (MB): 0.11\nForward/backward pass size (MB): 0.01\nParams size (MB): 0.01\nEstimated Total Size (MB): 0.13\n==========================================================================================", "threshold": "9.418697"}, "DenseNet8": {"auc_score": 0.6001156217882837, "model_summary": "==========================================================================================\nLayer (type:depth-idx)                   Output Shape              Param #\n==========================================================================================\n\u251c\u2500GCNConv: 1-1                           [-1, 12]                  252\n\u251c\u2500GCNConv: 1-2                           [-1, 10]                  120\n\u251c\u2500NLGCN: 1-3                             [-1, 10]                  --\n|    \u2514\u2500Conv1d: 2-1                       [-1, 1, 1418]             10\n\u251c\u2500Linear: 1-4                            [-1, 12]                  132\n\u251c\u2500Linear: 1-5                            [-1, 10]                  110\n\u251c\u2500Linear: 1-6                            [-1, 10]                  110\n\u251c\u2500Linear: 1-7                            [-1, 10]                  110\n\u251c\u2500Linear: 1-8                            [-1, 10]                  110\n\u251c\u2500Linear: 1-9                            [-1, 10]                  110\n\u251c\u2500Linear: 1-10                           [-1, 10]                  110\n\u251c\u2500Linear: 1-11                           [-1, 10]                  110\n\u251c\u2500Linear: 1-12                           [-1, 10]                  110\n\u251c\u2500GCNConv: 1-13                          [-1, 12]                  120\n\u251c\u2500GCNConv: 1-14                          [-1, 21]                  252\n==========================================================================================\nTotal params: 1,766\nTrainable params: 1,766\nNon-trainable params: 0\nTotal mult-adds (M): 0.01\n==========================================================================================\nInput size (MB): 0.11\nForward/backward pass size (MB): 0.01\nParams size (MB): 0.01\nEstimated Total Size (MB): 0.13\n==========================================================================================", "threshold": "18.819431"}, "NLNet1": {"auc_score": 0.6098663926002055, "model_summary": "==========================================================================================\nLayer (type:depth-idx)                   Output Shape              Param #\n==========================================================================================\n\u251c\u2500GCNConv: 1-1                           [-1, 12]                  252\n\u251c\u2500GCNConv: 1-2                           [-1, 10]                  120\n\u251c\u2500NLGCN: 1-3                             [-1, 10]                  --\n|    \u2514\u2500Conv1d: 2-1                       [-1, 1, 1418]             10\n\u251c\u2500Linear: 1-4                            [-1, 12]                  132\n\u251c\u2500Linear: 1-5                            [-1, 10]                  110\n\u251c\u2500Linear: 1-6                            [-1, 10]                  110\n\u251c\u2500GCNConv: 1-7                           [-1, 12]                  120\n\u251c\u2500GCNConv: 1-8                           [-1, 21]                  252\n==========================================================================================\nTotal params: 1,106\nTrainable params: 1,106\nNon-trainable params: 0\nTotal mult-adds (M): 0.01\n==========================================================================================\nInput size (MB): 0.11\nForward/backward pass size (MB): 0.01\nParams size (MB): 0.00\nEstimated Total Size (MB): 0.13\n==========================================================================================", "threshold": "18.819431"}, "NLNet2": {"auc_score": 0.59525950668037, "model_summary": "==========================================================================================\nLayer (type:depth-idx)                   Output Shape              Param #\n==========================================================================================\n\u251c\u2500GCNConv: 1-1                           [-1, 12]                  252\n\u251c\u2500GCNConv: 1-2                           [-1, 10]                  120\n\u251c\u2500NLGCN: 1-3                             [-1, 10]                  --\n|    \u2514\u2500Conv1d: 2-1                       [-1, 1, 1418]             10\n\u251c\u2500NLGCN: 1-4                             [-1, 10]                  --\n|    \u2514\u2500Conv1d: 2-2                       [-1, 1, 1418]             10\n\u251c\u2500Linear: 1-5                            [-1, 12]                  132\n\u251c\u2500Linear: 1-6                            [-1, 10]                  110\n\u251c\u2500Linear: 1-7                            [-1, 10]                  110\n\u251c\u2500GCNConv: 1-8                           [-1, 12]                  120\n\u251c\u2500GCNConv: 1-9                           [-1, 21]                  252\n==========================================================================================\nTotal params: 1,116\nTrainable params: 1,116\nNon-trainable params: 0\nTotal mult-adds (M): 0.03\n==========================================================================================\nInput size (MB): 0.11\nForward/backward pass size (MB): 0.02\nParams size (MB): 0.00\nEstimated Total Size (MB): 0.14\n==========================================================================================", "threshold": "18.806793"}, "NLNet3": {"auc_score": 0.600077081192189, "model_summary": "==========================================================================================\nLayer (type:depth-idx)                   Output Shape              Param #\n==========================================================================================\n\u251c\u2500GCNConv: 1-1                           [-1, 12]                  252\n\u251c\u2500GCNConv: 1-2                           [-1, 10]                  120\n\u251c\u2500NLGCN: 1-3                             [-1, 10]                  --\n|    \u2514\u2500Conv1d: 2-1                       [-1, 1, 1418]             10\n\u251c\u2500NLGCN: 1-4                             [-1, 10]                  (recursive)\n|    \u2514\u2500Conv1d: 2-2                       [-1, 1, 1418]             (recursive)\n\u251c\u2500NLGCN: 1-5                             [-1, 10]                  (recursive)\n|    \u2514\u2500Conv1d: 2-3                       [-1, 1, 1418]             (recursive)\n\u251c\u2500Linear: 1-6                            [-1, 12]                  132\n\u251c\u2500Linear: 1-7                            [-1, 10]                  110\n\u251c\u2500Linear: 1-8                            [-1, 10]                  110\n\u251c\u2500GCNConv: 1-9                           [-1, 12]                  120\n\u251c\u2500GCNConv: 1-10                          [-1, 21]                  252\n==========================================================================================\nTotal params: 1,106\nTrainable params: 1,106\nNon-trainable params: 0\nTotal mult-adds (M): 0.04\n==========================================================================================\nInput size (MB): 0.11\nForward/backward pass size (MB): 0.01\nParams size (MB): 0.00\nEstimated Total Size (MB): 0.1
…
