{"AttConvNet1": {"auc_score": 0.5637384615384615, "model_summary": "==========================================================================================\nLayer (type:depth-idx)                   Output Shape              Param #\n==========================================================================================\n\u251c\u2500GCNConv: 1-1                           [-1, 12]                  180\n\u251c\u2500GCNConv: 1-2                           [-1, 10]                  120\n\u251c\u2500NLGCN: 1-3                             [-1, 10]                  --\n|    \u2514\u2500Conv1d: 2-1                       [-1, 1, 2050]             10\n\u251c\u2500Linear: 1-4                            [-1, 12]                  132\n\u251c\u2500Linear: 1-5                            [-1, 10]                  110\n\u251c\u2500Linear: 1-6                            [-1, 10]                  110\n\u251c\u2500GCNConv: 1-7                           [-1, 12]                  120\n\u251c\u2500GCNConv: 1-8                           [-1, 15]                  180\n==========================================================================================\nTotal params: 962\nTrainable params: 962\nNon-trainable params: 0\nTotal mult-adds (M): 0.02\n==========================================================================================\nInput size (MB): 0.12\nForward/backward pass size (MB): 0.02\nParams size (MB): 0.00\nEstimated Total Size (MB): 0.14\n=========================================================================================="}, "AttConvNet2": {"auc_score": 0.5637384615384615, "model_summary": "==========================================================================================\nLayer (type:depth-idx)                   Output Shape              Param #\n==========================================================================================\n\u251c\u2500GCNConv: 1-1                           [-1, 12]                  180\n\u251c\u2500GCNConv: 1-2                           [-1, 10]                  120\n\u251c\u2500NLGCN: 1-3                             [-1, 10]                  --\n|    \u2514\u2500Conv1d: 2-1                       [-1, 1, 2050]             10\n\u251c\u2500Linear: 1-4                            [-1, 12]                  132\n\u251c\u2500Linear: 1-5                            [-1, 10]                  110\n\u251c\u2500Linear: 1-6                            [-1, 10]                  110\n\u251c\u2500GCNConv: 1-7                           [-1, 12]                  120\n\u251c\u2500GCNConv: 1-8                           [-1, 15]                  180\n==========================================================================================\nTotal params: 962\nTrainable params: 962\nNon-trainable params: 0\nTotal mult-adds (M): 0.02\n==========================================================================================\nInput size (MB): 0.12\nForward/backward pass size (MB): 0.02\nParams size (MB): 0.00\nEstimated Total Size (MB): 0.14\n=========================================================================================="}, "AttConvNet3": {"auc_score": 0.563723076923077, "model_summary": "==========================================================================================\nLayer (type:depth-idx)                   Output Shape              Param #\n==========================================================================================\n\u251c\u2500GCNConv: 1-1                           [-1, 12]                  180\n\u251c\u2500GCNConv: 1-2                           [-1, 10]                  120\n\u251c\u2500NLGCN: 1-3                             [-1, 10]                  --\n|    \u2514\u2500Conv1d: 2-1                       [-1, 1, 2050]             10\n\u251c\u2500Linear: 1-4                            [-1, 12]                  132\n\u251c\u2500Linear: 1-5                            [-1, 10]                  110\n\u251c\u2500Linear: 1-6                            [-1, 10]                  110\n\u251c\u2500GCNConv: 1-7                           [-1, 12]                  120\n\u251c\u2500GCNConv: 1-8                           [-1, 15]                  180\n==========================================================================================\nTotal params: 962\nTrainable params: 962\nNon-trainable params: 0\nTotal mult-adds (M): 0.02\n==========================================================================================\nInput size (MB): 0.12\nForward/backward pass size (MB): 0.02\nParams size (MB): 0.00\nEstimated Total Size (MB): 0.14\n=========================================================================================="}, "AttConvNet4": {"auc_score": 0.5637384615384615, "model_summary": "==========================================================================================\nLayer (type:depth-idx)                   Output Shape              Param #\n==========================================================================================\n\u251c\u2500GCNConv: 1-1                           [-1, 12]                  180\n\u251c\u2500GCNConv: 1-2                           [-1, 10]                  120\n\u251c\u2500NLGCN: 1-3                             [-1, 10]                  --\n|    \u2514\u2500Conv1d: 2-1                       [-1, 1, 2050]             10\n\u251c\u2500Linear: 1-4                            [-1, 12]                  132\n\u251c\u2500Linear: 1-5                            [-1, 10]                  110\n\u251c\u2500Linear: 1-6                            [-1, 10]                  110\n\u251c\u2500GCNConv: 1-7                           [-1, 12]                  120\n\u251c\u2500GCNConv: 1-8                           [-1, 15]                  180\n==========================================================================================\nTotal params: 962\nTrainable params: 962\nNon-trainable params: 0\nTotal mult-adds (M): 0.02\n==========================================================================================\nInput size (MB): 0.12\nForward/backward pass size (MB): 0.02\nParams size (MB): 0.00\nEstimated Total Size (MB): 0.14\n=========================================================================================="}, "ConvNet1": {"auc_score": 0.5637641025641026, "model_summary": "==========================================================================================\nLayer (type:depth-idx)                   Output Shape              Param #\n==========================================================================================\n\u251c\u2500GCNConv: 1-1                           [-1, 12]                  180\n\u251c\u2500GCNConv: 1-2                           [-1, 10]                  120\n\u251c\u2500NLGCN: 1-3                             [-1, 10]                  --\n|    \u2514\u2500Conv1d: 2-1                       [-1, 1, 2050]             10\n\u251c\u2500Linear: 1-4                            [-1, 12]                  132\n\u251c\u2500Linear: 1-5                            [-1, 10]                  110\n\u251c\u2500Linear: 1-6                            [-1, 10]                  110\n\u251c\u2500GCNConv: 1-7                           [-1, 12]                  120\n\u251c\u2500GCNConv: 1-8                           [-1, 15]                  180\n==========================================================================================\nTotal params: 962\nTrainable params: 962\nNon-trainable params: 0\nTotal mult-adds (M): 0.02\n==========================================================================================\nInput size (MB): 0.12\nForward/backward pass size (MB): 0.02\nParams size (MB): 0.00\nEstimated Total Size (MB): 0.14\n=========================================================================================="}, "ConvNet2": {"auc_score": 0.5638307692307692, "model_summary": "==========================================================================================\nLayer (type:depth-idx)                   Output Shape              Param #\n==========================================================================================\n\u251c\u2500GCNConv: 1-1                           [-1, 12]                  180\n\u251c\u2500GCNConv: 1-2                           [-1, 10]                  120\n\u251c\u2500NLGCN: 1-3                             [-1, 10]                  --\n|    \u2514\u2500Conv1d: 2-1                       [-1, 1, 2050]             10\n\u251c\u2500Linear: 1-4                            [-1, 12]                  132\n\u251c\u2500Linear: 1-5                            [-1, 10]                  110\n\u251c\u2500Linear: 1-6                            [-1, 10]                  110\n\u251c\u2500GCNConv: 1-7                           [-1, 12]                  120\n\u251c\u2500GCNConv: 1-8                           [-1, 15]                  180\n==========================================================================================\nTotal params: 962\nTrainable params: 962\nNon-trainable params: 0\nTotal mult-adds (M): 0.02\n==========================================================================================\nInput size (MB): 0.12\nForward/backward pass size (MB): 0.02\nParams size (MB): 0.00\nEstimated Total Size (MB): 0.14\n=========================================================================================="}, "ConvNet3": {"auc_score": 0.5637384615384615, "model_summary": "==========================================================================================\nLayer (type:depth-idx)                   Output Shape              Param #\n==========================================================================================\n\u251c\u2500GCNConv: 1-1                           [-1, 12]                  180\n\u251c\u2500GCNConv: 1-2                           [-1, 10]                  120\n\u251c\u2500NLGCN: 1-3                             [-1, 10]                  --\n|    \u2514\u2500Conv1d: 2-1                       [-1, 1, 2050]             10\n\u251c\u2500Linear: 1-4                            [-1, 12]                  132\n\u251c\u2500Linear: 1-5                            [-1, 10]                  110\n\u251c\u2500Linear: 1-6                            [-1, 10]                  110\n\u251c\u2500GCNConv: 1-7                           [-1, 12]                  120\n\u251c\u2500GCNConv: 1-8                           [-1, 15]                  180\n==========================================================================================\nTotal params: 962\nTrainable params: 962\nNon-trainable params: 0\nTotal mult-adds (M): 0.02\n==========================================================================================\nInput size (MB): 0.12\nForward/backward pass size (MB): 0.02\nParams size (MB): 0.00\nEstimated Total Size (MB): 0.14\n=========================================================================================="}, "ConvNet4": {"auc_score": 0.563748717948718, "model_summary": "==========================================================================================\nLayer (type:depth-idx)                   Output Shape              Param #\n==========================================================================================\n\u251c\u2500GCNConv: 1-1                           [-1, 12]                  180\n\u251c\u2500GCNConv: 1-2                           [-1, 10]                  120\n\u251c\u2500NLGCN: 1-3                             [-1, 10]                  --\n|    \u2514\u2500Conv1d: 2-1                       [-1, 1, 2050]             10\n\u251c\u2500Linear: 1-4                            [-1, 12]                  132\n\u251c\u2500Linear: 1-5                            [-1, 10]                  110\n\u251c\u2500Linear: 1-6                            [-1, 10]                  110\n\u251c\u2500GCNConv: 1-7                           [-1, 12]                  120\n\u251c\u2500GCNConv: 1-8                           [-1, 15]                  180\n==========================================================================================\nTotal params: 962\nTrainable params: 962\nNon-trainable params: 0\nTotal mult-adds (M): 0.02\n==========================================================================================\nInput size (MB): 0.12\nForward/backward pass size (MB): 0.02\nParams size (MB): 0.00\nEstimated Total Size (MB): 0.14\n=========================================================================================="}, "ConvNet5": {"auc_score": 0.563723076923077, "model_summary": "==========================================================================================\nLayer (type:depth-idx)                   Output Shape              Param #\n==========================================================================================\n\u251c\u2500GCNConv: 1-1                           [-1, 12]                  180\n\u251c\u2500GCNConv: 1-2                           [-1, 10]                  120\n\u251c\u2500NLGCN: 1-3                             [-1, 10]                  --\n|    \u2514\u2500Conv1d: 2-1                       [-1, 1, 2050]             10\n\u251c\u2500Linear: 1-4                            [-1, 12]                  132\n\u251c\u2500Linear: 1-5                            [-1, 10]                  110\n\u251c\u2500Linear: 1-6                            [-1, 10]                  110\n\u251c\u2500GCNConv: 1-7                           [-1, 12]                  120\n\u251c\u2500GCNConv: 1-8                           [-1, 15]                  180\n==========================================================================================\nTotal params: 962\nTrainable params: 962\nNon-trainable params: 0\nTotal mult-adds (M): 0.02\n==========================================================================================\nInput size (MB): 0.12\nForward/backward pass size (MB): 0.02\nParams size (MB): 0.00\nEstimated Total Size (MB): 0.14\n=========================================================================================="}, "ConvNet6": {"auc_score": 0.5637384615384615, "model_summary": "==========================================================================================\nLayer (type:depth-idx)                   Output Shape              Param #\n==========================================================================================\n\u251c\u2500GCNConv: 1-1                           [-1, 12]                  180\n\u251c\u2500GCNConv: 1-2                           [-1, 10]                  120\n\u251c\u2500NLGCN: 1-3                             [-1, 10]                  --\n|    \u2514\u2500Conv1d: 2-1                       [-1, 1, 2050]             10\n\u251c\u2500Linear: 1-4                            [-1, 12]                  132\n\u251c\u2500Linear: 1-5                            [-1, 10]                  110\n\u251c\u2500Linear: 1-6                            [-1, 10]                  110\n\u251c\u2500GCNConv: 1-7                           [-1, 12]                  120\n\u251c\u2500GCNConv: 1-8                           [-1, 15]                  180\n==========================================================================================\nTotal params: 962\nTrainable params: 962\nNon-trainable params: 0\nTotal mult-adds (M): 0.02\n==========================================================================================\nInput size (MB): 0.12\nForward/backward pass size (MB): 0.02\nParams size (MB): 0.00\nEstimated Total Size (MB): 0.14\n=========================================================================================="}, "DenseNet1": {"auc_score": 0.5636871794871796, "model_summary": "==========================================================================================\nLayer (type:depth-idx)                   Output Shape              Param #\n==========================================================================================\n\u251c\u2500GCNConv: 1-1                           [-1, 12]                  180\n\u251c\u2500GCNConv: 1-2                           [-1, 10]                  120\n\u251c\u2500NLGCN: 1-3                             [-1, 10]                  --\n|    \u2514\u2500Conv1d: 2-1                       [-1, 1, 2050]             10\n\u251c\u2500Linear: 1-4                            [-1, 12]                  132\n\u251c\u2500Linear: 1-5                            [-1, 10]                  110\n\u251c\u2500Linear: 1-6                            [-1, 10]                  110\n\u251c\u2500GCNConv: 1-7                           [-1, 12]                  120\n\u251c\u2500GCNConv: 1-8                           [-1, 15]                  180\n==========================================================================================\nTotal params: 962\nTrainable params: 962\nNon-trainable params: 0\nTotal mult-adds (M): 0.02\n==========================================================================================\nInput size (MB): 0.12\nForward/backward pass size (MB): 0.02\nParams size (MB): 0.00\nEstimated Total Size (MB): 0.14\n=========================================================================================="}, "DenseNet2": {"auc_score": 0.5637384615384615, "model_summary": "==========================================================================================\nLayer (type:depth-idx)                   Output Shape              Param #\n==========================================================================================\n\u251c\u2500GCNConv: 1-1                           [-1, 12]                  180\n\u251c\u2500GCNConv: 1-2                           [-1, 10]                  120\n\u251c\u2500NLGCN: 1-3                             [-1, 10]                  --\n|    \u2514\u2500Conv1d: 2-1                       [-1, 1, 2050]             10\n\u251c\u2500Linear: 1-4                            [-1, 12]                  132\n\u251c\u2500Linear: 1-5                            [-1, 10]                  110\n\u251c\u2500Linear: 1-6                            [-1, 10]                  110\n\u251c\u2500GCNConv: 1-7                           [-1, 12]                  120\n\u251c\u2500GCNConv: 1-8                           [-1, 15]                  180\n==========================================================================================\nTotal params: 962\nTrainable params: 962\nNon-trainable params: 0\nTotal mult-adds (M): 0.02\n==========================================================================================\nInput size (MB): 0.12\nForward/backward pass size (MB): 0.02\nParams size (MB): 0.00\nEstimated Total Size (MB): 0.14\n=========================================================================================="}, "DenseNet3": {"auc_score": 0.5637384615384615, "model_summary": "==========================================================================================\nLayer (type:depth-idx)                   Output Shape              Param #\n==========================================================================================\n\u251c\u2500GCNConv: 1-1                           [-1, 12]                  180\n\u251c\u2500GCNConv: 1-2                           [-1, 10]                  120\n\u251c\u2500NLGCN: 1-3                             [-1, 10]                  --\n|    \u2514\u2500Conv1d: 2-1                       [-1, 1, 2050]             10\n\u251c\u2500Linear: 1-4                            [-1, 12]                  132\n\u251c\u2500Linear: 1-5                            [-1, 10]                  110\n\u251c\u2500Linear: 1-6                            [-1, 10]                  110\n\u251c\u2500GCNConv: 1-7                           [-1, 12]                  120\n\u251c\u2500GCNConv: 1-8                           [-1, 15]                  180\n==========================================================================================\nTotal params: 962\nTrainable params: 962\nNon-trainable params: 0\nTotal mult-adds (M): 0.02\n==========================================================================================\nInput size (MB): 0.12\nForward/backward pass size (MB): 0.02\nParams size (MB): 0.00\nEstimated Total Size (MB): 0.14\n=========================================================================================="}, "DenseNet4": {"auc_score": 0.5636871794871796, "model_summary": "==========================================================================================\nLayer (type:depth-idx)                   Output Shape              Param #\n==========================================================================================\n\u251c\u2500GCNConv: 1-1                           [-1, 12]                  180\n\u251c\u2500GCNConv: 1-2                           [-1, 10]                  120\n\u251c\u2500NLGCN: 1-3                             [-1, 10]                  --\n|    \u2514\u2500Conv1d: 2-1                       [-1, 1, 2050]             10\n\u251c\u2500Linear: 1-4                            [-1, 12]                  132\n\u251c\u2500Linear: 1-5                            [-1, 10]                  110\n\u251c\u2500Linear: 1-6                            [-1, 10]                  110\n\u251c\u2500GCNConv: 1-7                           [-1, 12]                  120\n\u251c\u2500GCNConv: 1-8                           [-1, 15]                  180\n==========================================================================================\nTotal params: 962\nTrainable params: 962\nNon-trainable params: 0\nTotal mult-adds (M): 0.02\n==========================================================================================\nInput size (MB): 0.12\nForward/backward pass size (MB): 0.02\nParams size (MB): 0.00\nEstimated Total Size (MB): 0.14\n=========================================================================================="}, "DenseNet5": {"auc_score": 0.5637384615384615, "model_summary": "==========================================================================================\nLayer (type:depth-idx)                   Output Shape              Param #\n==========================================================================================\n\u251c\u2500GCNConv: 1-1                           [-1, 12]                  180\n\u251c\u2500GCNConv: 1-2                           [-1, 10]                  120\n\u251c\u2500NLGCN: 1-3                             [-1, 10]                  --\n|    \u2514\u2500Conv1d: 2-1                       [-1, 1, 2050]             10\n\u251c\u2500Linear: 1-4                            [-1, 12]                  132\n\u251c\u2500Linear: 1-5                            [-1, 10]                  110\n\u251c\u2500Linear: 1-6                            [-1, 10]                  110\n\u251c\u2500GCNConv: 1-7                           [-1, 12]                  120\n\u251c\u2500GCNConv: 1-8                           [-1, 15]                  180\n==========================================================================================\nTotal params: 962\nTrainable params: 962\nNon-trainable params: 0\nTotal mult-adds (M): 0.02\n==========================================================================================\nInput size (MB): 0.12\nForward/backward pass size (MB): 0.02\nParams size (MB): 0.00\nEstimated Total Size (MB): 0.14\n=========================================================================================="}, "DenseNet6": {"auc_score": 0.5637384615384615, "model_summary": "==========================================================================================\nLayer (type:depth-idx)                   Output Shape              Param #\n==========================================================================================\n\u251c\u2500GCNConv: 1-1                           [-1, 12]                  180\n\u251c\u2500GCNConv: 1-2                           [-1, 10]                  120\n\u251c\u2500NLGCN: 1-3                             [-1, 10]                  --\n|    \u2514\u2500Conv1d: 2-1                       [-1, 1, 2050]             10\n\u251c\u2500Linear: 1-4                            [-1, 12]                  132\n\u251c\u2500Linear: 1-5                            [-1, 10]                  110\n\u251c\u2500Linear: 1-6                            [-1, 10]                  110\n\u251c\u2500GCNConv: 1-7                           [-1, 12]                  120\n\u251c\u2500GCNConv: 1-8                           [-1, 15]                  180\n==========================================================================================\nTotal params: 962\nTrainable params: 962\nNon-trainable params: 0\nTotal mult-adds (M): 0.02\n==========================================================================================\nInput size (MB): 0.12\nForward/backward pass size (MB): 0.02\nParams size (MB): 0.00\nEstimated Total Size (MB): 0.14\n=========================================================================================="}, "DenseNet7": {"auc_score": 0.5637384615384615, "model_summary": "==========================================================================================\nLayer (type:depth-idx)                   Output Shape              Param #\n==========================================================================================\n\u251c\u2500GCNConv: 1-1                           [-1, 12]                  180\n\u251c\u2500GCNConv: 1-2                           [-1, 10]                  120\n\u251c\u2500NLGCN: 1-3                             [-1, 10]                  --\n|    \u2514\u2500Conv1d: 2-1                       [-1, 1, 2050]             10\n\u251c\u2500Linear: 1-4                            [-1, 12]                  132\n\u251c\u2500Linear: 1-5                            [-1, 10]                  110\n\u251c\u2500Linear: 1-6                            [-1, 10]                  110\n\u251c\u2500GCNConv: 1-7                           [-1, 12]                  120\n\u251c\u2500GCNConv: 1-8                           [-1, 15]                  180\n==========================================================================================\nTotal params: 962\nTrainable params: 962\nNon-trainable params: 0\nTotal mult-adds (M): 0.02\n==========================================================================================\nInput size (MB): 0.12\nForward/backward pass size (MB): 0.02\nParams size (MB): 0.00\nEstimated Total Size (MB): 0.14\n=========================================================================================="}, "DenseNet8": {"auc_score": 0.5638307692307692, "model_summary": "==========================================================================================\nLayer (type:depth-idx)                   Output Shape              Param #\n==========================================================================================\n\u251c\u2500GCNConv: 1-1                           [-1, 12]                  180\n\u251c\u2500GCNConv: 1-2                           [-1, 10]                  120\n\u251c\u2500NLGCN: 1-3                             [-1, 10]                  --\n|    \u2514\u2500Conv1d: 2-1                       [-1, 1, 2050]             10\n\u251c\u2500Linear: 1-4                            [-1, 12]                  132\n\u251c\u2500Linear: 1-5                            [-1, 10]                  110\n\u251c\u2500Linear: 1-6                            [-1, 10]                  110\n\u251c\u2500GCNConv: 1-7                           [-1, 12]                  120\n\u251c\u2500GCNConv: 1-8                           [-1, 15]                  180\n==========================================================================================\nTotal params: 962\nTrainable params: 962\nNon-trainable params: 0\nTotal mult-adds (M): 0.02\n==========================================================================================\nInput size (MB): 0.12\nForward/backward pass size (MB): 0.02\nParams size (MB): 0.00\nEstimated Total Size (MB): 0.14\n=========================================================================================="}, "NLNet1": {"auc_score": 0.5638307692307692, "model_summary": "==========================================================================================\nLayer (type:depth-idx)                   Output Shape              Param #\n==========================================================================================\n\u251c\u2500GCNConv: 1-1                           [-1, 12]                  180\n\u251c\u2500GCNConv: 1-2                           [-1, 10]                  120\n\u251c\u2500NLGCN: 1-3                             [-1, 10]                  --\n|    \u2514\u2500Conv1d: 2-1                       [-1, 1, 2050]             10\n\u251c\u2500Linear: 1-4                            [-1, 12]                  132\n\u251c\u2500Linear: 1-5                            [-1, 10]                  110\n\u251c\u2500Linear: 1-6                            [-1, 10]                  110\n\u251c\u2500GCNConv: 1-7                           [-1, 12]                  120\n\u251c\u2500GCNConv: 1-8                           [-1, 15]                  180\n==========================================================================================\nTotal params: 962\nTrainable params: 962\nNon-trainable params: 0\nTotal mult-adds (M): 0.02\n==========================================================================================\nInput size (MB): 0.12\nForward/backward pass size (MB): 0.02\nParams size (MB): 0.00\nEstimated Total Size (MB): 0.14\n=========================================================================================="}, "NLNet2": {"auc_score": 0.5637384615384615, "model_summary": "==========================================================================================\nLayer (type:depth-idx)                   Output Shape              Param #\n==========================================================================================\n\u251c\u2500GCNConv: 1-1                           [-1, 12]                  180\n\u251c\u2500GCNConv: 1-2                           [-1, 10]                  120\n\u251c\u2500NLGCN: 1-3                             [-1, 10]                  --\n|    \u2514\u2500Conv1d: 2-1                       [-1, 1, 2050]             10\n\u251c\u2500Linear: 1-4                            [-1, 12]                  132\n\u251c\u2500Linear: 1-5                            [-1, 10]                  110\n\u251c\u2500Linear: 1-6                            [-1, 10]                  110\n\u251c\u2500GCNConv: 1-7                           [-1, 12]                  120\n\u251c\u2500GCNConv: 1-8                           [-1, 15]                  180\n==========================================================================================\nTotal params: 962\nTrainable params: 962\nNon-trainable params: 0\nTotal mult-adds (M): 0.02\n==========================================================================================\nInput size (MB): 0.12\nForward/backward pass size (MB): 0.02\nParams size (MB): 0.00\nEstimated Total Size (MB): 0.14\n=========================================================================================="}, "NLNet3": {"auc_score": 0.5636871794871796, "model_summary": "==========================================================================================\nLayer (type:depth-idx)                   Output Shape              Param #\n==========================================================================================\n\u251c\u2500GCNConv: 1-1                           [-1, 12]                  180\n\u251c\u2500GCNConv: 1-2                           [-1, 10]                  120\n\u251c\u2500NLGCN: 1-3                             [-1, 10]                  --\n|    \u2514\u2500Conv1d: 2-1                       [-1, 1, 2050]             10\n\u251c\u2500Linear: 1-4                            [-1, 12]                  132\n\u251c\u2500Linear: 1-5                            [-1, 10]                  110\n\u251c\u2500Linear: 1-6                            [-1, 10]                  110\n\u251c\u2500GCNConv: 1-7                           [-1, 12]                  120\n\u251c\u2500GCNConv: 1-8                           [-1, 15]                  180\n==========================================================================================\nTotal params: 962\nTrainable params: 962\nNon-trainable params: 0\nTotal mult-adds (M): 0.02\n==========================================================================================\nInput size (MB): 0.12\nForward/backward pass size (MB): 0.02\nParams size (MB): 0.00\nEstimated Total Size (MB): 0.14\n=========================================================================================="}, "N2": {"auc_score": 0.5637282051282051, "model_summary": "==========================================================================================\nLayer (type:depth-idx)                   Output Shape              Param #\n==========================================================================================\n\u251c\u2500GCNConv: 1-1                           [-1, 8]                   120\n\u251c\u2500GCNConv: 1-2                           [-1, 6]                   48\n\u251c\u2500NLGCN: 1-3                             [-1, 6]                   --\n|    \u2514\u2500Conv1d: 2-1                       [-1, 1, 2050]             10\n\u251c\u2500GCNConv: 1-4                           [-1, 6]                   36\n\u251c\u2500GCNConv: 1-5                           [-1, 8]                   48\n\u251c\u2500Linear: 1-6                            [-1, 8]                   72\n\u251c\u2500Linear: 1-7                            [-1, 6]                   42\n\u251c\u2500Linear: 1-8                            [-1, 6]                   42\n\u251c\u2500GCNConv: 1-9                           [-1, 8]                   48\n\u251c\u2500GCNConv: 1-10                          [-1, 15]                  120\n==========================================================================================\nTotal params: 586\nTrainable params: 586\nNon-trainable params: 0\nTotal mult-adds (M): 0.02\n==========================================================================================\nInput size (MB): 0.12\nForward/backward pass size (MB): 0.02\nParams size (MB): 0.00\nEstimated Total Size (MB): 0.14\n==========================================================================================", "threshold": "371.49918", "accuracy": "0.7039024390243902"}, "N3": {"auc_score": 0.3817589743589744, "model_summary": "==========================================================================================\nLayer (type:depth-idx)                   Output Shape              Param #\n==========================================================================================\n\u251c\u2500GCNConv: 1-1                           [-1, 11]                  165\n\u251c\u2500GCNConv: 1-2                           [-1, 7]                   77\n\u251c\u2500GCNConv: 1-3                           [-1, 11]                  77\n\u251c\u2500GCNConv: 1-4                           [-1, 11]                  77\n\u251c\u2500GCNConv: 1-5                           [-1, 15]                  165\n==========================================================================================\nTotal params: 561\nTrainable params: 561\nNon-trainable params: 0\nTotal mult-adds (M): 0.00\n==========================================================================================\nInput size (MB): 0.12\nForward/backward pass size (MB): 0.00\nParams size (MB): 0.00\nEstimated Total Size (MB): 0.12\n==========================================================================================", "threshold": "366.14526", "accuracy": "0.7039024390243902"}, "N4": {"auc_score": 0.5515128205128206, "model_summary": "==========================================================================================\nLayer (type:depth-idx)                   Output Shape              Param #\n==========================================================================================\n\u251c\u2500GCNConv: 1-1                           [-1, 256]                 3,840\n\u251c\u2500GCNConv: 1-2                           [-1, 64]                  16,384\n\u251c\u2500GCNConv: 1-3                           [-1, 256]                 16,384\n\u251c\u2500GCNConv: 1-4                           [-1, 256]                 16,384\n\u251c\u2500GCNConv: 1-5                           [-1, 15]                  3,840\n==========================================================================================\nTotal params: 56,832\nTrainable params: 56,832\nNon-trainable params: 0\nTotal mult-adds (M): 0.00\n==========================================================================================\nInput size (MB): 0.12\nForward/backward pass size (MB): 0.01\nParams size (MB): 0.22\nEstimated Total Size (MB): 0
…
