{"AttConvNet1": {"auc_score": 0.6091100346020761, "model_summary": "==========================================================================================\nLayer (type:depth-idx)                   Output Shape              Param #\n==========================================================================================\n\u251c\u2500GCNConv: 1-1                           [-1, 7]                   70\n\u251c\u2500GCNConv: 1-2                           [-1, 5]                   35\n\u251c\u2500NLGCN: 1-3                             [-1, 5]                   --\n|    \u2514\u2500Conv1d: 2-1                       [-1, 1, 4039]             10\n\u251c\u2500Linear: 1-4                            [-1, 7]                   42\n\u251c\u2500Linear: 1-5                            [-1, 5]                   30\n\u251c\u2500GCNConv: 1-6                           [-1, 10]                  50\n==========================================================================================\nTotal params: 237\nTrainable params: 237\nNon-trainable params: 0\nTotal mult-adds (M): 0.04\n==========================================================================================\nInput size (MB): 0.15\nForward/backward pass size (MB): 0.03\nParams size (MB): 0.00\nEstimated Total Size (MB): 0.19\n==========================================================================================", "threshold": "28.197641", "accuracy": "0.7385491458281753"}, "AttConvNet2": {"auc_score": 0.6091095732410612, "model_summary": "==========================================================================================\nLayer (type:depth-idx)                   Output Shape              Param #\n==========================================================================================\n\u251c\u2500GCNConv: 1-1                           [-1, 7]                   70\n\u251c\u2500GCNConv: 1-2                           [-1, 5]                   35\n\u251c\u2500NLGCN: 1-3                             [-1, 5]                   --\n|    \u2514\u2500Conv1d: 2-1                       [-1, 1, 4039]             10\n\u251c\u2500Linear: 1-4                            [-1, 7]                   42\n\u251c\u2500Linear: 1-5                            [-1, 5]                   30\n\u251c\u2500GCNConv: 1-6                           [-1, 7]                   35\n\u251c\u2500GCNConv: 1-7                           [-1, 10]                  70\n==========================================================================================\nTotal params: 292\nTrainable params: 292\nNon-trainable params: 0\nTotal mult-adds (M): 0.04\n==========================================================================================\nInput size (MB): 0.15\nForward/backward pass size (MB): 0.03\nParams size (MB): 0.00\nEstimated Total Size (MB): 0.19\n==========================================================================================", "threshold": "28.187933", "accuracy": "0.7387967318643228"}, "AttConvNet3": {"auc_score": 0.6091381776239907, "model_summary": "==========================================================================================\nLayer (type:depth-idx)                   Output Shape              Param #\n==========================================================================================\n\u251c\u2500GCNConv: 1-1                           [-1, 7]                   70\n\u251c\u2500GCNConv: 1-2                           [-1, 5]                   35\n\u251c\u2500NLGCN: 1-3                             [-1, 5]                   --\n|    \u2514\u2500Conv1d: 2-1                       [-1, 1, 4039]             10\n\u251c\u2500Linear: 1-4                            [-1, 7]                   42\n\u251c\u2500Linear: 1-5                            [-1, 5]                   30\n\u251c\u2500GCNConv: 1-6                           [-1, 7]                   35\n\u251c\u2500GCNConv: 1-7                           [-1, 7]                   49\n\u251c\u2500GCNConv: 1-8                           [-1, 10]                  70\n==========================================================================================\nTotal params: 341\nTrainable params: 341\nNon-trainable params: 0\nTotal mult-adds (M): 0.04\n==========================================================================================\nInput size (MB): 0.15\nForward/backward pass size (MB): 0.03\nParams size (MB): 0.00\nEstimated Total Size (MB): 0.19\n==========================================================================================", "threshold": "28.1857", "accuracy": "0.7400346620450606"}, "AttConvNet4": {"auc_score": 0.6090495963091119, "model_summary": "==========================================================================================\nLayer (type:depth-idx)                   Output Shape              Param #\n==========================================================================================\n\u251c\u2500GCNConv: 1-1                           [-1, 7]                   70\n\u251c\u2500GCNConv: 1-2                           [-1, 5]                   35\n\u251c\u2500NLGCN: 1-3                             [-1, 5]                   --\n|    \u2514\u2500Conv1d: 2-1                       [-1, 1, 4039]             10\n\u251c\u2500Linear: 1-4                            [-1, 7]                   42\n\u251c\u2500Linear: 1-5                            [-1, 5]                   30\n\u251c\u2500GCNConv: 1-6                           [-1, 7]                   35\n\u251c\u2500GCNConv: 1-7                           [-1, 7]                   49\n\u251c\u2500GCNConv: 1-8                           [-1, 7]                   49\n\u251c\u2500GCNConv: 1-9                           [-1, 10]                  70\n==========================================================================================\nTotal params: 390\nTrainable params: 390\nNon-trainable params: 0\nTotal mult-adds (M): 0.04\n==========================================================================================\nInput size (MB): 0.15\nForward/backward pass size (MB): 0.03\nParams size (MB): 0.00\nEstimated Total Size (MB): 0.19\n==========================================================================================", "threshold": "28.181793", "accuracy": "0.7392919039366179"}, "ConvNet1": {"auc_score": 0.649365628604383, "model_summary": "==========================================================================================\nLayer (type:depth-idx)                   Output Shape              Param #\n==========================================================================================\n\u251c\u2500GCNConv: 1-1                           [-1, 5]                   50\n\u251c\u2500NLGCN: 1-2                             [-1, 5]                   --\n|    \u2514\u2500Conv1d: 2-1                       [-1, 1, 4039]             10\n\u251c\u2500Linear: 1-3                            [-1, 7]                   42\n\u251c\u2500Linear: 1-4                            [-1, 5]                   30\n\u251c\u2500Linear: 1-5                            [-1, 5]                   30\n\u251c\u2500GCNConv: 1-6                           [-1, 7]                   35\n\u251c\u2500GCNConv: 1-7                           [-1, 10]                  70\n==========================================================================================\nTotal params: 267\nTrainable params: 267\nNon-trainable params: 0\nTotal mult-adds (M): 0.04\n==========================================================================================\nInput size (MB): 0.15\nForward/backward pass size (MB): 0.03\nParams size (MB): 0.00\nEstimated Total Size (MB): 0.19\n==========================================================================================", "threshold": "16.137926", "accuracy": "0.7447387967318643"}, "ConvNet2": {"auc_score": 0.579925720876586, "model_summary": "==========================================================================================\nLayer (type:depth-idx)                   Output Shape              Param #\n==========================================================================================\n\u251c\u2500GCNConv: 1-1                           [-1, 7]                   70\n\u251c\u2500GCNConv: 1-2                           [-1, 5]                   35\n\u251c\u2500NLGCN: 1-3                             [-1, 5]                   --\n|    \u2514\u2500Conv1d: 2-1                       [-1, 1, 4039]             10\n\u251c\u2500Linear: 1-4                            [-1, 7]                   42\n\u251c\u2500Linear: 1-5                            [-1, 5]                   30\n\u251c\u2500Linear: 1-6                            [-1, 5]                   30\n\u251c\u2500GCNConv: 1-7                           [-1, 7]                   35\n\u251c\u2500GCNConv: 1-8                           [-1, 10]                  70\n==========================================================================================\nTotal params: 322\nTrainable params: 322\nNon-trainable params: 0\nTotal mult-adds (M): 0.04\n==========================================================================================\nInput size (MB): 0.15\nForward/backward pass size (MB): 0.03\nParams size (MB): 0.00\nEstimated Total Size (MB): 0.19\n==========================================================================================", "threshold": "28.267023", "accuracy": "0.6501609309234959"}, "ConvNet3": {"auc_score": 0.6090855824682815, "model_summary": "==========================================================================================\nLayer (type:depth-idx)                   Output Shape              Param #\n==========================================================================================\n\u251c\u2500GCNConv: 1-1                           [-1, 7]                   70\n\u251c\u2500GCNConv: 1-2                           [-1, 5]                   35\n\u251c\u2500GCNConv: 1-3                           [-1, 5]                   25\n\u251c\u2500NLGCN: 1-4                             [-1, 5]                   --\n|    \u2514\u2500Conv1d: 2-1                       [-1, 1, 4039]             10\n\u251c\u2500Linear: 1-5                            [-1, 7]                   42\n\u251c\u2500Linear: 1-6                            [-1, 5]                   30\n\u251c\u2500Linear: 1-7                            [-1, 5]                   30\n\u251c\u2500GCNConv: 1-8                           [-1, 7]                   35\n\u251c\u2500GCNConv: 1-9                           [-1, 10]                  70\n==========================================================================================\nTotal params: 347\nTrainable params: 347\nNon-trainable params: 0\nTotal mult-adds (M): 0.04\n==========================================================================================\nInput size (MB): 0.15\nForward/backward pass size (MB): 0.03\nParams size (MB): 0.00\nEstimated Total Size (MB): 0.19\n==========================================================================================", "threshold": "28.188375", "accuracy": "0.7395394899727655"}, "ConvNet4": {"auc_score": 0.6086108419838524, "model_summary": "==========================================================================================\nLayer (type:depth-idx)                   Output Shape              Param #\n==========================================================================================\n\u251c\u2500GCNConv: 1-1                           [-1, 7]                   70\n\u251c\u2500GCNConv: 1-2                           [-1, 5]                   35\n\u251c\u2500GCNConv: 1-3                           [-1, 5]                   25\n\u251c\u2500GCNConv: 1-4                           [-1, 5]                   25\n\u251c\u2500NLGCN: 1-5                             [-1, 5]                   --\n|    \u2514\u2500Conv1d: 2-1                       [-1, 1, 4039]             10\n\u251c\u2500Linear: 1-6                            [-1, 7]                   42\n\u251c\u2500Linear: 1-7                            [-1, 5]                   30\n\u251c\u2500Linear: 1-8                            [-1, 5]                   30\n\u251c\u2500GCNConv: 1-9                           [-1, 7]                   35\n\u251c\u2500GCNConv: 1-10                          [-1, 10]                  70\n==========================================================================================\nTotal params: 372\nTrainable params: 372\nNon-trainable params: 0\nTotal mult-adds (M): 0.04\n==========================================================================================\nInput size (MB): 0.15\nForward/backward pass size (MB): 0.03\nParams size (MB): 0.00\nEstimated Total Size (MB): 0.19\n==========================================================================================", "threshold": "28.187712", "accuracy": "0.7405298341173557"}, "ConvNet5": {"auc_score": 0.589281660899654, "model_summary": "==========================================================================================\nLayer (type:depth-idx)                   Output Shape              Param #\n==========================================================================================\n\u251c\u2500GCNConv: 1-1                           [-1, 7]                   70\n\u251c\u2500GCNConv: 1-2                           [-1, 5]                   35\n\u251c\u2500GCNConv: 1-3                           [-1, 5]                   25\n\u251c\u2500GCNConv: 1-4                           [-1, 5]                   25\n\u251c\u2500GCNConv: 1-5                           [-1, 5]                   25\n\u251c\u2500NLGCN: 1-6                             [-1, 5]                   --\n|    \u2514\u2500Conv1d: 2-1                       [-1, 1, 4039]             10\n\u251c\u2500Linear: 1-7                            [-1, 7]                   42\n\u251c\u2500Linear: 1-8                            [-1, 5]                   30\n\u251c\u2500Linear: 1-9                            [-1, 5]                   30\n\u251c\u2500GCNConv: 1-10                          [-1, 7]                   35\n\u251c\u2500GCNConv: 1-11                          [-1, 10]                  70\n==========================================================================================\nTotal params: 397\nTrainable params: 397\nNon-trainable params: 0\nTotal mult-adds (M): 0.04\n==========================================================================================\nInput size (MB): 0.15\nForward/backward pass size (MB): 0.03\nParams size (MB): 0.00\nEstimated Total Size (MB): 0.19\n==========================================================================================", "threshold": "28.224754", "accuracy": "0.6744243624659569"}, "ConvNet6": {"auc_score": 0.6091455594002306, "model_summary": "==========================================================================================\nLayer (type:depth-idx)                   Output Shape              Param #\n==========================================================================================\n\u251c\u2500GCNConv: 1-1                           [-1, 7]                   70\n\u251c\u2500GCNConv: 1-2                           [-1, 5]                   35\n\u251c\u2500GCNConv: 1-3                           [-1, 5]                   25\n\u251c\u2500GCNConv: 1-4                           [-1, 5]                   25\n\u251c\u2500GCNConv: 1-5                           [-1, 5]                   25\n\u251c\u2500GCNConv: 1-6                           [-1, 5]                   25\n\u251c\u2500NLGCN: 1-7                             [-1, 5]                   --\n|    \u2514\u2500Conv1d: 2-1                       [-1, 1, 4039]             10\n\u251c\u2500Linear: 1-8                            [-1, 7]                   42\n\u251c\u2500Linear: 1-9                            [-1, 5]                   30\n\u251c\u2500Linear: 1-10                           [-1, 5]                   30\n\u251c\u2500GCNConv: 1-11                          [-1, 7]                   35\n\u251c\u2500GCNConv: 1-12                          [-1, 10]                  70\n==========================================================================================\nTotal params: 422\nTrainable params: 422\nNon-trainable params: 0\nTotal mult-adds (M): 0.04\n==========================================================================================\nInput size (MB): 0.15\nForward/backward pass size (MB): 0.03\nParams size (MB): 0.00\nEstimated Total Size (MB): 0.19\n=
…
ze (MB): 0.03\nParams size (MB): 0.00\nEstimated Total Size (MB): 0.19\n==========================================================================================", "threshold": "28.18819", "accuracy": "0.7392919039366179"}, "DenseNet3": {"auc_score": 0.609114648212226, "model_summary": "==========================================================================================\nLayer (type:depth-idx)                   Output Shape              Param #\n==========================================================================================\n\u251c\u2500GCNConv: 1-1                           [-1, 7]                   70\n\u251c\u2500GCNConv: 1-2                           [-1, 5]                   35\n\u251c\u2500NLGCN: 1-3                             [-1, 5]                   --\n|    \u2514\u2500Conv1d: 2-1                       [-1, 1, 4039]             10\n\u251c\u2500Linear: 1-4                            [-1, 7]                   42\n\u251c\u2500Linear: 1-5                            [-1, 5]                   30\n\u251c\u2500Linear: 1-6                            [-1, 5]                   30\n\u251c\u2500Linear: 1-7                            [-1, 5]                   30\n\u251c\u2500GCNConv: 1-8                           [-1, 7]                   35\n\u251c\u2500GCNConv: 1-9                           [-1, 10]                  70\n==========================================================================================\nTotal params: 352\nTrainable params: 352\nNon-trainable params: 0\nTotal mult-adds (M): 0.04\n==========================================================================================\nInput size (MB): 0.15\nForward/backward pass size (MB): 0.03\nParams size (MB): 0.00\nEstimated Total Size (MB): 0.19\n==========================================================================================", "threshold": "28.187824", "accuracy": "0.7385491458281753"}, "DenseNet4": {"auc_score": 0.6495709342560554, "model_summary": "==========================================================================================\nLayer (type:depth-idx)                   Output Shape              Param #\n==========================================================================================\n\u251c\u2500GCNConv: 1-1                           [-1, 7]                   70\n\u251c\u2500GCNConv: 1-2                           [-1, 5]                   35\n\u251c\u2500NLGCN: 1-3                             [-1, 5]                   --\n|    \u2514\u2500Conv1d: 2-1                       [-1, 1, 4039]             10\n\u251c\u2500Linear: 1-4                            [-1, 7]                   42\n\u251c\u2500Linear: 1-5                            [-1, 5]                   30\n\u251c\u2500Linear: 1-6                            [-1, 5]                   30\n\u251c\u2500Linear: 1-7                            [-1, 5]                   30\n\u251c\u2500Linear: 1-8                            [-1, 5]                   30\n\u251c\u2500GCNConv: 1-9                           [-1, 7]                   35\n\u251c\u2500GCNConv: 1-10                          [-1, 10]                  70\n==========================================================================================\nTotal params: 382\nTrainable params: 382\nNon-trainable params: 0\nTotal mult-adds (M): 0.04\n==========================================================================================\nInput size (MB): 0.15\nForward/backward pass size (MB): 0.03\nParams size (MB): 0.00\nEstimated Total Size (MB): 0.19\n==========================================================================================", "threshold": "16.139833", "accuracy": "0.7437484525872741"}, "DenseNet5": {"auc_score": 0.6090841983852364, "model_summary": "==========================================================================================\nLayer (type:depth-idx)                   Output Shape              Param #\n==========================================================================================\n\u251c\u2500GCNConv: 1-1                           [-1, 7]                   70\n\u251c\u2500GCNConv: 1-2                           [-1, 5]                   35\n\u251c\u2500NLGCN: 1-3                             [-1, 5]                   --\n|    \u2514\u2500Conv1d: 2-1                       [-1, 1, 4039]             10\n\u251c\u2500Linear: 1-4                            [-1, 7]                   42\n\u251c\u2500Linear: 1-5                            [-1, 5]                   30\n\u251c\u2500Linear: 1-6                            [-1, 5]                   30\n\u251c\u2500Linear: 1-7                            [-1, 5]                   30\n\u251c\u2500Linear: 1-8                            [-1, 5]                   30\n\u251c\u2500Linear: 1-9                            [-1, 5]                   30\n\u251c\u2500GCNConv: 1-10                          [-1, 7]                   35\n\u251c\u2500GCNConv: 1-11                          [-1, 10]                  70\n==========================================================================================\nTotal params: 412\nTrainable params: 412\nNon-trainable params: 0\nTotal mult-adds (M): 0.04\n==========================================================================================\nInput size (MB): 0.15\nForward/backward pass size (MB): 0.03\nParams size (MB): 0.00\nEstimated Total Size (MB): 0.19\n==========================================================================================", "threshold": "28.187992", "accuracy": "0.7392919039366179"}, "DenseNet6": {"auc_score": 0.6090952710495963, "model_summary": "==========================================================================================\nLayer (type:depth-idx)                   Output Shape              Param #\n==========================================================================================\n\u251c\u2500GCNConv: 1-1                           [-1, 7]                   70\n\u251c\u2500GCNConv: 1-2                           [-1, 5]                   35\n\u251c\u2500NLGCN: 1-3                             [-1, 5]                   --\n|    \u2514\u2500Conv1d: 2-1                       [-1, 1, 4039]             10\n\u251c\u2500Linear: 1-4                            [-1, 7]                   42\n\u251c\u2500Linear: 1-5                            [-1, 5]                   30\n\u251c\u2500Linear: 1-6                            [-1, 5]                   30\n\u251c\u2500Linear: 1-7                            [-1, 5]                   30\n\u251c\u2500Linear: 1-8                            [-1, 5]                   30\n\u251c\u2500Linear: 1-9                            [-1, 5]                   30\n\u251c\u2500Linear: 1-10                           [-1, 5]                   30\n\u251c\u2500GCNConv: 1-11                          [-1, 7]                   35\n\u251c\u2500GCNConv: 1-12                          [-1, 10]                  70\n==========================================================================================\nTotal params: 442\nTrainable params: 442\nNon-trainable params: 0\nTotal mult-adds (M): 0.04\n==========================================================================================\nInput size (MB): 0.15\nForward/backward pass size (MB): 0.03\nParams size (MB): 0.00\nEstimated Total Size (MB): 0.19\n==========================================================================================", "threshold": "28.18769", "accuracy": "0.7395394899727655"}, "DenseNet7": {"auc_score": 0.6091141868512111, "model_summary": "==========================================================================================\nLayer (type:depth-idx)                   Output Shape              Param #\n==========================================================================================\n\u251c\u2500GCNConv: 1-1                           [-1, 7]                   70\n\u251c\u2500GCNConv: 1-2                           [-1, 5]                   35\n\u251c\u2500NLGCN: 1-3                             [-1, 5]                   --\n|    \u2514\u2500Conv1d: 2-1                       [-1, 1, 4039]             10\n\u251c\u2500Linear: 1-4                            [-1, 7]                   42\n\u251c\u2500Linear: 1-5                            [-1, 5]                   30\n\u251c\u2500Linear: 1-6                            [-1, 5]                   30\n\u251c\u2500Linear: 1-7                            [-1, 5]                   30\n\u251c\u2500Linear: 1-8                            [-1, 5]                   30\n\u251c\u2500Linear: 1-9                            [-1, 5]                   30\n\u251c\u2500Linear: 1-10                           [-1, 5]                   30\n\u251c\u2500Linear: 1-11                           [-1, 5]                   30\n\u251c\u2500GCNConv: 1-12                          [-1, 7]                   35\n\u251c\u2500GCNConv: 1-13                          [-1, 10]                  70\n==========================================================================================\nTotal params: 472\nTrainable params: 472\nNon-trainable params: 0\nTotal mult-adds (M): 0.04\n==========================================================================================\nInput size (MB): 0.15\nForward/backward pass size (MB): 0.03\nParams size (MB): 0.00\nEstimated Total Size (MB): 0.19\n==========================================================================================", "threshold": "28.187992", "accuracy": "0.7392919039366179"}, "DenseNet8": {"auc_score": 0.609120645905421, "model_summary": "==========================================================================================\nLayer (type:depth-idx)                   Output Shape              Param #\n==========================================================================================\n\u251c\u2500GCNConv: 1-1                           [-1, 7]                   70\n\u251c\u2500GCNConv: 1-2                           [-1, 5]                   35\n\u251c\u2500NLGCN: 1-3                             [-1, 5]                   --\n|    \u2514\u2500Conv1d: 2-1                       [-1, 1, 4039]             10\n\u251c\u2500Linear: 1-4                            [-1, 7]                   42\n\u251c\u2500Linear: 1-5                            [-1, 5]                   30\n\u251c\u2500Linear: 1-6                            [-1, 5]                   30\n\u251c\u2500Linear: 1-7                            [-1, 5]                   30\n\u251c\u2500Linear: 1-8                            [-1, 5]                   30\n\u251c\u2500Linear: 1-9                            [-1, 5]                   30\n\u251c\u2500Linear: 1-10                           [-1, 5]                   30\n\u251c\u2500Linear: 1-11                           [-1, 5]                   30\n\u251c\u2500Linear: 1-12                           [-1, 5]                   30\n\u251c\u2500GCNConv: 1-13                          [-1, 7]                   35\n\u251c\u2500GCNConv: 1-14                          [-1, 10]                  70\n==========================================================================================\nTotal params: 502\nTrainable params: 502\nNon-trainable params: 0\nTotal mult-adds (M): 0.04\n==========================================================================================\nInput size (MB): 0.15\nForward/backward pass size (MB): 0.03\nParams size (MB): 0.00\nEstimated Total Size (MB): 0.19\n=
…
size (MB): 0.03\nParams size (MB): 0.00\nEstimated Total Size (MB): 0.19\n==========================================================================================", "threshold": "28.187944", "accuracy": "0.737558801683585"}, "NLNet2": {"auc_score": 0.6091164936562861, "model_summary": "==========================================================================================\nLayer (type:depth-idx)                   Output Shape              Param #\n==========================================================================================\n\u251c\u2500GCNConv: 1-1                           [-1, 7]                   70\n\u251c\u2500GCNConv: 1-2                           [-1, 5]                   35\n\u251c\u2500NLGCN: 1-3                             [-1, 5]                   --\n|    \u2514\u2500Conv1d: 2-1                       [-1, 1, 4039]             10\n\u251c\u2500NLGCN: 1-4                             [-1, 5]                   --\n|    \u2514\u2500Conv1d: 2-2                       [-1, 1, 4039]             10\n\u251c\u2500Linear: 1-5                            [-1, 7]                   42\n\u251c\u2500Linear: 1-6                            [-1, 5]                   30\n\u251c\u2500Linear: 1-7                            [-1, 5]                   30\n\u251c\u2500GCNConv: 1-8                           [-1, 7]                   35\n\u251c\u2500GCNConv: 1-9                           [-1, 10]                  70\n==========================================================================================\nTotal params: 332\nTrainable params: 332\nNon-trainable params: 0\nTotal mult-adds (M): 0.07\n==========================================================================================\nInput size (MB): 0.15\nForward/backward pass size (MB): 0.06\nParams size (MB): 0.00\nEstimated Total Size (MB): 0.22\n=
…
ss size (MB): 0.03\nParams size (MB): 0.00\nEstimated Total Size (MB): 0.19\n==========================================================================================", "threshold": "16.138676", "accuracy": "0.7447387967318643"}, "N2": {"auc_score": 0.6491880046136101, "model_summary": "==========================================================================================\nLayer (type:depth-idx)                   Output Shape              Param #\n==========================================================================================\n\u251c\u2500GCNConv: 1-1                           [-1, 7]                   70\n\u251c\u2500GCNConv: 1-2                           [-1, 5]                   35\n\u251c\u2500NLGCN: 1-3                             [-1, 5]                   --\n|    \u2514\u2500Conv1d: 2-1                       [-1, 1, 4039]             10\n\u251c\u2500GCNConv: 1-4                           [-1, 5]                   25\n\u251c\u2500GCNConv: 1-5                           [-1, 7]                   35\n\u251c\u2500Linear: 1-6                            [-1, 7]                   56\n\u251c\u2500Linear: 1-7                            [-1, 5]                   30\n\u251c\u2500Linear: 1-8                            [-1, 5]                   30\n\u251c\u2500GCNConv: 1-9                           [-1, 7]                   35\n\u251c\u2500GCNConv: 1-10                          [-1, 10]                  70\n==========================================================================================\nTotal params: 396\nTrainable params: 396\nNon-trainable params: 0\nTotal mult-adds (M): 0.04\n==========================================================================================\nInput size (MB): 0.15\nForward/backward pass size (MB): 0.03\nParams size (MB): 0.00\nEstimated Total Size (MB): 0.19\n==========================================================================================", "threshold": "16.110502", "accuracy": "0.7430056944788314"}, "N3": {"auc_score": 0.6057250288350634, "model_summary": "==========================================================================================\nLayer (type:depth-idx)                   Output Shape              Param #\n==========================================================================================\n\u251c\u2500GCNConv: 1-1                           [-1, 7]                   70\n\u251c\u2500GCNConv: 1-2                           [-1, 5]                   35\n\u251c\u2500GCNConv: 1-3                           [-1, 7]                   35\n\u251c\u2500GCNConv: 1-4                           [-1, 7]                   35\n\u251c\u2500GCNConv: 1-5                           [-1, 10]                  70\n==========================================================================================\nTotal params: 245\nTrainable params: 245\nNon-trainable params: 0\nTotal mult-adds (M): 0.00\n==========================================================================================\nInput size (MB): 0.15\nForward/backward pass size (MB): 0.00\nParams size (MB): 0.00\nEstimated Total Size (MB): 0.16\n==========================================================================================", "threshold": "22.46654", "accuracy": "0.7313691507798961"}, "N4": {"auc_score": 0.7136525951557093, "model_summary": "==========================================================================================\nLayer (type:depth-idx)                   Output Shape              Param #\n==========================================================================================\n\u251c\u2500GCNConv: 1-1                           [-1, 256]                 2,560\n\u251c\u2500GCNConv: 1-2                           [-1, 64]                  16,384\n\u251c\u2500GCNConv: 1-3                           [-1, 256]                 16,384\n\u251c\u2500GCNConv: 1-4                           [-1, 256]                 16,384\n\u251c\u2500GCNConv: 1-5                           [-1, 10]                  2,560\n==========================================================================================\nTotal params: 54,272\nTrainable params: 54,272\nNon-trainable params: 0\nTotal mult-adds (M): 0.00\n==========================================================================================\nInput size (MB): 0.15\nForward/backward pass size (MB): 0.01\nParams size (MB): 0.21\nEstimated Total Size (MB): 0
…
ss size (MB): 0.01\nParams size (MB): 0.21\nEstimated Total Size (MB): 0.37\n==========================================================================================", "threshold": "16.788578", "accuracy": "0.7633077494429314"}, "N6": {"auc_score": 0.7212927335640138, "model_summary": "==========================================================================================\nLayer (type:depth-idx)                   Output Shape              Param #\n==========================================================================================\n\u251c\u2500GCNConv: 1-1                           [-1, 256]                 2,560\n\u251c\u2500NLGCN: 1-2                             [-1, 256]                 --\n|    \u2514\u2500Conv1d: 2-1                       [-1, 1, 4039]             10\n\u251c\u2500GCNConv: 1-3                           [-1, 64]                  16,384\n\u251c\u2500NLGCN: 1-4                             [-1, 64]                  --\n|    \u2514\u2500Conv1d: 2-2                       [-1, 1, 4039]             10\n\u251c\u2500GCNConv: 1-5                           [-1, 256]                 16,384\n\u251c\u2500GCNConv: 1-6                           [-1, 256]                 16,384\n\u251c\u2500GCNConv: 1-7                           [-1, 10]                  2,560\n==========================================================================================\nTotal params: 54,292\nTrainable params: 54,292\nNon-trainable params: 0\nTotal mult-adds (M): 0.07\n==========================================================================================\nInput size (MB): 0.15\nForward/backward pass size (MB): 0.07\nParams size (MB): 0.21\nEstimated Total Size (MB): 0
…
