{
    "AttConvNet1": {
        "auc_score": 0.6488166089965397,
        "model_summary": "==========================================================================================\nLayer (type:depth-idx)                   Output Shape              Param #\n==========================================================================================\n\u251c\u2500GCNConv: 1-1                           [-1, 7]                   70\n\u251c\u2500GCNConv: 1-2                           [-1, 5]                   35\n\u251c\u2500NLGCN: 1-3                             [-1, 5]                   --\n|    \u2514\u2500Conv1d: 2-1                       [-1, 1, 4039]             10\n\u251c\u2500Linear: 1-4                            [-1, 7]                   42\n\u251c\u2500Linear: 1-5                            [-1, 5]                   30\n\u251c\u2500GCNConv: 1-6                           [-1, 10]                  50\n==========================================================================================\nTotal params: 237\nTrainable params: 237\nNon-trainable params: 0\nTotal mult-adds (M): 0.04\n==========================================================================================\nInput size (MB): 0.15\nForward/backward pass size (MB): 0.03\nParams size (MB): 0.00\nEstimated Total Size (MB): 0.19\n=========================================================================================="
    },
    "AttConvNet2": {
        "auc_score": 0.579925720876586,
        "model_summary": "==========================================================================================\nLayer (type:depth-idx)                   Output Shape              Param #\n==========================================================================================\n\u251c\u2500GCNConv: 1-1                           [-1, 7]                   70\n\u251c\u2500GCNConv: 1-2                           [-1, 5]                   35\n\u251c\u2500NLGCN: 1-3                             [-1, 5]                   --\n|    \u2514\u2500Conv1d: 2-1                       [-1, 1, 4039]             10\n\u251c\u2500Linear: 1-4                            [-1, 7]                   42\n\u251c\u2500Linear: 1-5                            [-1, 5]                   30\n\u251c\u2500GCNConv: 1-6                           [-1, 7]                   35\n\u251c\u2500GCNConv: 1-7                           [-1, 10]                  70\n==========================================================================================\nTotal params: 292\nTrainable params: 292\nNon-trainable params: 0\nTotal mult-adds (M): 0.04\n==========================================================================================\nInput size (MB): 0.15\nForward/backward pass size (MB): 0.03\nParams size (MB): 0.00\nEstimated Total Size (MB): 0.19\n=========================================================================================="
    },
    "AttConvNet3": {
        "auc_score": 0.6496207612456748,
        "model_summary": "==========================================================================================\nLayer (type:depth-idx)                   Output Shape              Param #\n==========================================================================================\n\u251c\u2500GCNConv: 1-1                           [-1, 7]                   70\n\u251c\u2500GCNConv: 1-2                           [-1, 5]                   35\n\u251c\u2500NLGCN: 1-3                             [-1, 5]                   --\n|    \u2514\u2500Conv1d: 2-1                       [-1, 1, 4039]             10\n\u251c\u2500Linear: 1-4                            [-1, 7]                   42\n\u251c\u2500Linear: 1-5                            [-1, 5]                   30\n\u251c\u2500GCNConv: 1-6                           [-1, 7]                   35\n\u251c\u2500GCNConv: 1-7                           [-1, 7]                   49\n\u251c\u2500GCNConv: 1-8                           [-1, 10]                  70\n==========================================================================================\nTotal params: 341\nTrainable params: 341\nNon-trainable params: 0\nTotal mult-adds (M): 0.04\n==========================================================================================\nInput size (MB): 0.15\nForward/backward pass size (MB): 0.03\nParams size (MB): 0.00\nEstimated Total Size (MB): 0.19\n=========================================================================================="
    },
    "AttConvNet4": {
        "auc_score": 0.6498085351787773,
        "model_summary": "==========================================================================================\nLayer (type:depth-idx)                   Output Shape              Param #\n==========================================================================================\n\u251c\u2500GCNConv: 1-1                           [-1, 7]                   70\n\u251c\u2500GCNConv: 1-2                           [-1, 5]                   35\n\u251c\u2500NLGCN: 1-3                             [-1, 5]                   --\n|    \u2514\u2500Conv1d: 2-1                       [-1, 1, 4039]             10\n\u251c\u2500Linear: 1-4                            [-1, 7]                   42\n\u251c\u2500Linear: 1-5                            [-1, 5]                   30\n\u251c\u2500GCNConv: 1-6                           [-1, 7]                   35\n\u251c\u2500GCNConv: 1-7                           [-1, 7]                   49\n\u251c\u2500GCNConv: 1-8                           [-1, 7]                   49\n\u251c\u2500GCNConv: 1-9                           [-1, 10]                  70\n==========================================================================================\nTotal params: 390\nTrainable params: 390\nNon-trainable params: 0\nTotal mult-adds (M): 0.04\n==========================================================================================\nInput size (MB): 0.15\nForward/backward pass size (MB): 0.03\nParams size (MB): 0.00\nEstimated Total Size (MB): 0.19\n=========================================================================================="
    },
    "ConvNet1": {
        "auc_score": 0.6091054209919262,
        "model_summary": "==========================================================================================\nLayer (type:depth-idx)                   Output Shape              Param #\n==========================================================================================\n\u251c\u2500GCNConv: 1-1                           [-1, 5]                   50\n\u251c\u2500NLGCN: 1-2                             [-1, 5]                   --\n|    \u2514\u2500Conv1d: 2-1                       [-1, 1, 4039]             10\n\u251c\u2500Linear: 1-3                            [-1, 7]                   42\n\u251c\u2500Linear: 1-4                            [-1, 5]                   30\n\u251c\u2500Linear: 1-5                            [-1, 5]                   30\n\u251c\u2500GCNConv: 1-6                           [-1, 7]                   35\n\u251c\u2500GCNConv: 1-7                           [-1, 10]                  70\n==========================================================================================\nTotal params: 267\nTrainable params: 267\nNon-trainable params: 0\nTotal mult-adds (M): 0.04\n==========================================================================================\nInput size (MB): 0.15\nForward/backward pass size (MB): 0.03\nParams size (MB): 0.00\nEstimated Total Size (MB): 0.19\n=========================================================================================="
    },
    "ConvNet2": {
        "auc_score": 0.609125259515571,
        "model_summary": "==========================================================================================\nLayer (type:depth-idx)                   Output Shape              Param #\n==========================================================================================\n\u251c\u2500GCNConv: 1-1                           [-1, 7]                   70\n\u251c\u2500GCNConv: 1-2                           [-1, 5]                   35\n\u251c\u2500NLGCN: 1-3                             [-1, 5]                   --\n|    \u2514\u2500Conv1d: 2-1                       [-1, 1, 4039]             10\n\u251c\u2500Linear: 1-4                            [-1, 7]                   42\n\u251c\u2500Linear: 1-5                            [-1, 5]                   30\n\u251c\u2500Linear: 1-6                            [-1, 5]                   30\n\u251c\u2500GCNConv: 1-7                           [-1, 7]                   35\n\u251c\u2500GCNConv: 1-8                           [-1, 10]                  70\n==========================================================================================\nTotal params: 322\nTrainable params: 322\nNon-trainable params: 0\nTotal mult-adds (M): 0.04\n==========================================================================================\nInput size (MB): 0.15\nForward/backward pass size (MB): 0.03\nParams size (MB): 0.00\nEstimated Total Size (MB): 0.19\n=========================================================================================="
    },
    "ConvNet3": {
        "auc_score": 0.6091077277970012,
        "model_summary": "==========================================================================================\nLayer (type:depth-idx)                   Output Shape              Param #\n==========================================================================================\n\u251c\u2500GCNConv: 1-1                           [-1, 7]                   70\n\u251c\u2500GCNConv: 1-2                           [-1, 5]                   35\n\u251c\u2500GCNConv: 1-3                           [-1, 5]                   25\n\u251c\u2500NLGCN: 1-4                             [-1, 5]                   --\n|    \u2514\u2500Conv1d: 2-1                       [-1, 1, 4039]             10\n\u251c\u2500Linear: 1-5                            [-1, 7]                   42\n\u251c\u2500Linear: 1-6                            [-1, 5]                   30\n\u251c\u2500Linear: 1-7                            [-1, 5]                   30\n\u251c\u2500GCNConv: 1-8                           [-1, 7]                   35\n\u251c\u2500GCNConv: 1-9                           [-1, 10]                  70\n==========================================================================================\nTotal params: 347\nTrainable params: 347\nNon-trainable params: 0\nTotal mult-adds (M): 0.04\n==========================================================================================\nInput size (MB): 0.15\nForward/backward pass size (MB): 0.03\nParams size (MB): 0.00\nEstimated Total Size (MB): 0.19\n=========================================================================================="
    },
    "ConvNet4": {
        "auc_score": 0.6091100346020761,
        "model_summary": "==========================================================================================\nLayer (type:depth-idx)                   Output Shape              Param #\n==========================================================================================\n\u251c\u2500GCNConv: 1-1                           [-1, 7]                   70\n\u251c\u2500GCNConv: 1-2                           [-1, 5]                   35\n\u251c\u2500GCNConv: 1-3                           [-1, 5]                   25\n\u251c\u2500GCNConv: 1-4                           [-1, 5]                   25\n\u251c\u2500NLGCN: 1-5                             [-1, 5]                   --\n|    \u2514\u2500Conv1d: 2-1                       [-1, 1, 4039]             10\n\u251c\u2500Linear: 1-6                            [-1, 7]                   42\n\u251c\u2500Linear: 1-7                            [-1, 5]                   30\n\u251c\u2500Linear: 1-8                            [-1, 5]                   30\n\u251c\u2500GCNConv: 1-9                           [-1, 7]                   35\n\u251c\u2500GCNConv: 1-10                          [-1, 10]                  70\n==========================================================================================\nTotal params: 372\nTrainable params: 372\nNon-trainable params: 0\nTotal mult-adds (M): 0.04\n==========================================================================================\nInput size (MB): 0.15\nForward/backward pass size (MB): 0.03\nParams size (MB): 0.00\nEstimated Total Size (MB): 0.19\n=========================================================================================="
    },
    "ConvNet5": {
        "auc_score": 0.6091437139561707,
        "model_summary": "==========================================================================================\nLayer (type:depth-idx)                   Output Shape              Param #\n==========================================================================================\n\u251c\u2500GCNConv: 1-1                           [-1, 7]                   70\n\u251c\u2500GCNConv: 1-2                           [-1, 5]                   35\n\u251c\u2500GCNConv: 1-3                           [-1, 5]                   25\n\u251c\u2500GCNConv: 1-4                           [-1, 5]                   25\n\u251c\u2500GCNConv: 1-5                           [-1, 5]                   25\n\u251c\u2500NLGCN: 1-6                             [-1, 5]                   --\n|    \u2514\u2500Conv1d: 2-1                       [-1, 1, 4039]             10\n\u251c\u2500Linear: 1-7                            [-1, 7]                   42\n\u251c\u2500Linear: 1-8                            [-1, 5]                   30\n\u251c\u2500Linear: 1-9                            [-1, 5]                   30\n\u251c\u2500GCNConv: 1-10                          [-1, 7]                   35\n\u251c\u2500GCNConv: 1-11                          [-1, 10]                  70\n==========================================================================================\nTotal params: 397\nTrainable params: 397\nNon-trainable params: 0\nTotal mult-adds (M): 0.04\n==========================================================================================\nInput size (MB): 0.15\nForward/backward pass size (MB): 0.03\nParams size (MB): 0.00\nEstimated Total Size (MB): 0.19\n=========================================================================================="
    },
    "ConvNet6": {
        "auc_score": 0.609122952710496,
        "model_summary": "==========================================================================================\nLayer (type:depth-idx)                   Output Shape              Param #\n==========================================================================================\n\u251c\u2500GCNConv: 1-1                           [-1, 7]                   70\n\u251c\u2500GCNConv: 1-2                           [-1, 5]                   35\n\u251c\u2500GCNConv: 1-3                           [-1, 5]                   25\n\u251c\u2500GCNConv: 1-4                           [-1, 5]                   25\n\u251c\u2500GCNConv: 1-5                           [-1, 5]                   25\n\u251c\u2500GCNConv: 1-6                           [-1, 5]                   25\n\u251c\u2500NLGCN: 1-7                             [-1, 5]                   --\n|    \u2514\u2500Conv1d: 2-1                       [-1, 1, 4039]             10\n\u251c\u2500Linear: 1-8                            [-1, 7]                   42\n\u251c\u2500Linear: 1-9                            [-1, 5]                   30\n\u251c\u2500Linear: 1-10                           [-1, 5]                   30\n\u251c\u2500GCNConv: 1-11                          [-1, 7]                   35\n\u251c\u2500GCNConv: 1-12                          [-1, 10]                  70\n==========================================================================================\nTotal params: 422\nTrainable params: 422\nNon-trainable params: 0\nTotal mult-adds (M): 0.04\n==========================================================================================\nInput size (MB): 0.15\nForward/backward pass size (MB): 0.03\nParams size (MB): 0.00\nEstimated Total Size (MB): 0.19\n=========================================================================================="
    },
    "DenseNet1": {
        "auc_score": 0.6091077277970012,
        "model_summary": "==========================================================================================\nLayer (type:depth-idx)                   Output Shape              Param #\n==========================================================================================\n\u251c\u2500GCNConv: 1-1                           [-1, 7]                   70\n\u251c\u2500GCNConv: 1-2                           [-1, 5]                   35\n\u251c\u2500NLGCN: 1-3                             [-1, 5]                   --\n|    \u2514\u2500Conv1d: 2-1                       [-1, 1, 4039]             10\n\u251c\u2500Linear: 1-4                            [-1, 7]                   42\n\u251c\u2500Linear: 1-5                            [-1, 5]                   30\n\u251c\u2500GCNConv: 1-6                           [-1, 7]                   35\n\u251c\u2500GCNConv: 1-7                           [-1, 10]                  70\n==========================================================================================\nTotal params: 292\nTrainable params: 292\nNon-trainable params: 0\nTotal mult-adds (M): 0.04\n==========================================================================================\nInput size (MB): 0.15\nForward/backward pass size (MB): 0.03\nParams size (MB): 0.00\nEstimated Total Size (MB): 0.19\n=========================================================================================="
    },
    "DenseNet2": {
        "auc_score": 0.6090943483275664,
        "model_summary": "==========================================================================================\nLayer (type:depth-idx)                   Output Shape              Param #\n==========================================================================================\n\u251c\u2500GCNConv: 1-1                           [-1, 7]                   70\n\u251c\u2500GCNConv: 1-2                           [-1, 5]                   35\n\u251c\u2500NLGCN: 1-3                             [-1, 5]                   --\n|    \u2514\u2500Conv1d: 2-1                       [-1, 1, 4039]             10\n\u251c\u2500Linear: 1-4                            [-1, 7]                   42\n\u251c\u2500Linear: 1-5                            [-1, 5]                   30\n\u251c\u2500Linear: 1-6                            [-1, 5]                   30\n\u251c\u2500GCNConv: 1-7                           [-1, 7]                   35\n\u251c\u2500GCNConv: 1-8                           [-1, 10]                  70\n==========================================================================================\nTotal params: 322\nTrainable params: 322\nNon-trainable params: 0\nTotal mult-adds (M): 0.04\n==========================================================================================\nInput size (MB): 0.15\nForward/backward pass size (MB): 0.03\nParams size (MB): 0.00\nEstimated Total Size (MB): 0.19\n=========================================================================================="
    },
    "DenseNet3": {
        "auc_score": 0.6091123414071511,
        "model_summary": "==========================================================================================\nLayer (type:depth-idx)                   Output Shape              Param #\n==========================================================================================\n\u251c\u2500GCNConv: 1-1                           [-1, 7]                   70\n\u251c\u2500GCNConv: 1-2                           [-1, 5]                   35\n\u251c\u2500NLGCN: 1-3                             [-1, 5]                   --\n|    \u2514\u2500Conv1d: 2-1                       [-1, 1, 4039]             10\n\u251c\u2500Linear: 1-4                            [-1, 7]                   42\n\u251c\u2500Linear: 1-5                            [-1, 5]                   30\n\u251c\u2500Linear: 1-6                            [-1, 5]                   30\n\u251c\u2500Linear: 1-7                            [-1, 5]                   30\n\u251c\u2500GCNConv: 1-8                           [-1, 7]                   35\n\u251c\u2500GCNConv: 1-9                           [-1, 10]                  70\n==========================================================================================\nTotal params: 352\nTrainable params: 352\nNon-trainable params: 0\nTotal mult-adds (M): 0.04\n==========================================================================================\nInput size (MB): 0.15\nForward/backward pass size (MB): 0.03\nParams size (MB): 0.00\nEstimated Total Size (MB): 0.19\n=========================================================================================="
    },
    "DenseNet4": {
        "auc_score": 0.6091317185697809,
        "model_summary": "==========================================================================================\nLayer (type:depth-idx)                   Output Shape              Param #\n==========================================================================================\n\u251c\u2500GCNConv: 1-1                           [-1, 7]                   70\n\u251c\u2500GCNConv: 1-2                           [-1, 5]                   35\n\u251c\u2500NLGCN: 1-3                             [-1, 5]                   --\n|    \u2514\u2500Conv1d: 2-1                       [-1, 1, 4039]             10\n\u251c\u2500Linear: 1-4                            [-1, 7]                   42\n\u251c\u2500Linear: 1-5                            [-1, 5]                   30\n\u251c\u2500Linear: 1-6                            [-1, 5]                   30\n\u251c\u2500Linear: 1-7                            [-1, 5]                   30\n\u251c\u2500Linear: 1-8                            [-1, 5]                   30\n\u251c\u2500GCNConv: 1-9                           [-1, 7]                   35\n\u251c\u2500GCNConv: 1-10                          [-1, 10]                  70\n==========================================================================================\nTotal params: 382\nTrainable params: 382\nNon-trainable params: 0\nTotal mult-adds (M): 0.04\n==========================================================================================\nInput size (MB): 0.15\nForward/backward pass size (MB): 0.03\nParams size (MB): 0.00\nEstimated Total Size (MB): 0.19\n=========================================================================================="
    },
    "DenseNet5": {
        "auc_score": 0.6495441753171857,
        "model_summary": "==========================================================================================\nLayer (type:depth-idx)                   Output Shape              Param #\n==========================================================================================\n\u251c\u2500GCNConv: 1-1                           [-1, 7]                   70\n\u251c\u2500GCNConv: 1-2                           [-1, 5]                   35\n\u251c\u2500NLGCN: 1-3                             [-1, 5]                   --\n|    \u2514\u2500Conv1d: 2-1                       [-1, 1, 4039]             10\n\u251c\u2500Linear: 1-4                            [-1, 7]                   42\n\u251c\u2500Linear: 1-5                            [-1, 5]                   30\n\u251c\u2500Linear: 1-6                            [-1, 5]                   30\n\u251c\u2500Linear: 1-7                            [-1, 5]                   30\n\u251c\u2500Linear: 1-8                            [-1, 5]                   30\n\u251c\u2500Linear: 1-9                            [-1, 5]                   30\n\u251c\u2500GCNConv: 1-10                          [-1, 7]                   35\n\u251c\u2500GCNConv: 1-11                          [-1, 10]                  70\n==========================================================================================\nTotal params: 412\nTrainable params: 412\nNon-trainable params: 0\nTotal mult-adds (M): 0.04\n==========================================================================================\nInput size (MB): 0.15\nForward/backward pass size (MB): 0.03\nParams size (MB): 0.00\nEstimated Total Size (MB): 0.19\n=========================================================================================="
    },
    "DenseNet6": {
        "auc_score": 0.609116955017301,
        "model_summary": "==========================================================================================\nLayer (type:depth-idx)                   Output Shape              Param #\n==========================================================================================\n\u251c\u2500GCNConv: 1-1                           [-1, 7]                   70\n\u251c\u2500GCNConv: 1-2                           [-1, 5]                   35\n\u251c\u2500NLGCN: 1-3                             [-1, 5]                   --\n|    \u2514\u2500Conv1d: 2-1                       [-1, 1, 4039]             10\n\u251c\u2500Linear: 1-4                            [-1, 7]                   42\n\u251c\u2500Linear: 1-5                            [-1, 5]                   30\n\u251c\u2500Linear: 1-6                            [-1, 5]                   30\n\u251c\u2500Linear: 1-7                            [-1, 5]                   30\n\u251c\u2500Linear: 1-8                            [-1, 5]                   30\n\u251c\u2500Linear: 1-9                            [-1, 5]                   30\n\u251c\u2500Linear: 1-10                           [-1, 5]                   30\n\u251c\u2500GCNConv: 1-11                          [-1, 7]                   35\n\u251c\u2500GCNConv: 1-12                          [-1, 10]                  70\n==========================================================================================\nTotal params: 442\nTrainable params: 442\nNon-trainable params: 0\nTotal mult-adds (M): 0.04\n==========================================================================================\nInput size (MB): 0.15\nForward/backward pass size (MB): 0.03\nParams size (MB): 0.00\nEstimated Total Size (MB): 0.19\n=========================================================================================="
    },
    "DenseNet7": {
        "auc_score": 0.6091174163783161,
        "model_summary": "==========================================================================================\nLayer (type:depth-idx)                   Output Shape              Param #\n==========================================================================================\n\u251c\u2500GCNConv: 1-1                           [-1, 7]                   70\n\u251c\u2500GCNConv: 1-2                           [-1, 5]                   35\n\u251c\u2500NLGCN: 1-3                             [-1, 5]                   --\n|    \u2514\u2500Conv1d: 2-1                       [-1, 1, 4039]             10\n\u251c\u2500Linear: 1-4                            [-1, 7]                   42\n\u251c\u2500Linear: 1-5                            [-1, 5]                   30\n\u251c\u2500Linear: 1-6                            [-1, 5]                   30\n\u251c\u2500Linear: 1-7                            [-1, 5]                   30\n\u251c\u2500Linear: 1-8                            [-1, 5]                   30\n\u251c\u2500Linear: 1-9                            [-1, 5]                   30\n\u251c\u2500Linear: 1-10                           [-1, 5]                   30\n\u251c\u2500Linear: 1-11                           [-1, 5]                   30\n\u251c\u2500GCNConv: 1-12                          [-1, 7]                   35\n\u251c\u2500GCNConv: 1-13                          [-1, 10]                  70\n==========================================================================================\nTotal params: 472\nTrainable params: 472\nNon-trainable params: 0\nTotal mult-adds (M): 0.04\n==========================================================================================\nInput size (MB): 0.15\nForward/backward pass size (MB): 0.03\nParams size (MB): 0.00\nEstimated Total Size (MB): 0.19\n=========================================================================================="
    },
    "DenseNet8": {
        "auc_score": 0.6091068050749712,
        "model_summary": "==========================================================================================\nLayer (type:depth-idx)                   Output Shape              Param #\n==========================================================================================\n\u251c\u2500GCNConv: 1-1                           [-1, 7]                   70\n\u251c\u2500GCNConv: 1-2                           [-1, 5]                   35\n\u251c\u2500NLGCN: 1-3                             [-1, 5]                   --\n|    \u2514\u2500Conv1d: 2-1                       [-1, 1, 4039]             10\n\u251c\u2500Linear: 1-4                            [-1, 7]                   42\n\u251c\u2500Linear: 1-5                            [-1, 5]                   30\n\u251c\u2500Linear: 1-6                            [-1, 5]                   30\n\u251c\u2500Linear: 1-7                            [-1, 5]                   30\n\u251c\u2500Linear: 1-8                            [-1, 5]                   30\n\u251c\u2500Linear: 1-9                            [-1, 5]                   30\n\u251c\u2500Linear: 1-10                           [-1, 5]                   30\n\u251c\u2500Linear: 1-11                           [-1, 5]                   30\n\u251c\u2500Linear: 1-12                           [-1, 5]                   30\n\u251c\u2500GCNConv: 1-13                          [-1, 7]                   35\n\u251c\u2500GCNConv: 1-14                          [-1, 10]                  70\n==========================================================================================\nTotal params: 502\nTrainable params: 502\nNon-trainable params: 0\nTotal mult-adds (M): 0.04\n==========================================================================================\nInput size (MB): 0.15\nForward/backward pass size (MB): 0.03\nParams size (MB): 0.00\nEstimated Total Size (MB): 0.19\n=========================================================================================="
    },
    "NLNet1": {
        "auc_score": 0.6090906574394463,
        "model_summary": "==========================================================================================\nLayer (type:depth-idx)                   Output Shape              Param #\n==========================================================================================\n\u251c\u2500GCNConv: 1-1                           [-1, 7]                   70\n\u251c\u2500GCNConv: 1-2                           [-1, 5]                   35\n\u251c\u2500NLGCN: 1-3                             [-1, 5]                   --\n|    \u2514\u2500Conv1d: 2-1                       [-1, 1, 4039]             10\n\u251c\u2500Linear: 1-4                            [-1, 7]                   42\n\u251c\u2500Linear: 1-5                            [-1, 5]                   30\n\u251c\u2500Linear: 1-6                            [-1, 5]                   30\n\u251c\u2500GCNConv: 1-7                           [-1, 7]                   35\n\u251c\u2500GCNConv: 1-8                           [-1, 10]                  70\n==========================================================================================\nTotal params: 322\nTrainable params: 322\nNon-trainable params: 0\nTotal mult-adds (M): 0.04\n==========================================================================================\nInput size (MB): 0.15\nForward/backward pass size (MB): 0.03\nParams size (MB): 0.00\nEstimated Total Size (MB): 0.19\n=========================================================================================="
    },
    "NLNet2": {
        "auc_score": 0.6493960784313726,
        "model_summary": "==========================================================================================\nLayer (type:depth-idx)                   Output Shape              Param #\n==========================================================================================\n\u251c\u2500GCNConv: 1-1                           [-1, 7]                   70\n\u251c\u2500GCNConv: 1-2                           [-1, 5]                   35\n\u251c\u2500NLGCN: 1-3                             [-1, 5]                   --\n|    \u2514\u2500Conv1d: 2-1                       [-1, 1, 4039]             10\n\u251c\u2500NLGCN: 1-4                             [-1, 5]                   --\n|    \u2514\u2500Conv1d: 2-2                       [-1, 1, 4039]             10\n\u251c\u2500Linear: 1-5                            [-1, 7]                   42\n\u251c\u2500Linear: 1-6                            [-1, 5]                   30\n\u251c\u2500Linear: 1-7                            [-1, 5]                   30\n\u251c\u2500GCNConv: 1-8                           [-1, 7]                   35\n\u251c\u2500GCNConv: 1-9                           [-1, 10]                  70\n==========================================================================================\nTotal params: 332\nTrainable params: 332\nNon-trainable params: 0\nTotal mult-adds (M): 0.07\n==========================================================================================\nInput size (MB): 0.15\nForward/backward pass size (MB): 0.06\nParams size (MB): 0.00\nEstimated Total Size (MB): 0.22\n=========================================================================================="
    },
    "NLNet3": {
        "auc_score": 0.6495326412918108,
        "model_summary": "==========================================================================================\nLayer (type:depth-idx)                   Output Shape              Param #\n==========================================================================================\n\u251c\u2500GCNConv: 1-1                           [-1, 7]                   70\n\u251c\u2500GCNConv: 1-2                           [-1, 5]                   35\n\u251c\u2500NLGCN: 1-3                             [-1, 5]                   --\n|    \u2514\u2500Conv1d: 2-1                       [-1, 1, 4039]             10\n\u251c\u2500NLGCN: 1-4                             [-1, 5]                   (recursive)\n|    \u2514\u2500Conv1d: 2-2                       [-1, 1, 4039]             (recursive)\n\u251c\u2500NLGCN: 1-5                             [-1, 5]                   (recursive)\n|    \u2514\u2500Conv1d: 2-3                       [-1, 1, 4039]             (recursive)\n\u251c\u2500Linear: 1-6                            [-1, 7]                   42\n\u251c\u2500Linear: 1-7                            [-1, 5]                   30\n\u251c\u2500Linear: 1-8                            [-1, 5]                   30\n\u251c\u2500GCNConv: 1-9                           [-1, 7]                   35\n\u251c\u2500GCNConv: 1-10                          [-1, 10]                  70\n==========================================================================================\nTotal params: 322\nTrainable params: 322\nNon-trainable params: 0\nTotal mult-adds (M): 0.11\n==========================================================================================\nInput size (MB): 0.15\nForward/backward pass size (MB): 0.03\nParams size (MB): 0.00\nEstimated Total Size (MB): 0.19\n=========================================================================================="
…
