{"AttConvNet1": {"auc_score": 0.6090841983852364, "model_summary": "==========================================================================================\nLayer (type:depth-idx)                   Output Shape              Param #\n==========================================================================================\n\u251c\u2500GCNConv: 1-1                           [-1, 7]                   70\n\u251c\u2500GCNConv: 1-2                           [-1, 5]                   35\n\u251c\u2500NLGCN: 1-3                             [-1, 5]                   --\n|    \u2514\u2500Conv1d: 2-1                       [-1, 1, 4039]             10\n\u251c\u2500Linear: 1-4                            [-1, 7]                   42\n\u251c\u2500Linear: 1-5                            [-1, 5]                   30\n\u251c\u2500GCNConv: 1-6                           [-1, 10]                  50\n==========================================================================================\nTotal params: 237\nTrainable params: 237\nNon-trainable params: 0\nTotal mult-adds (M): 0.04\n==========================================================================================\nInput size (MB): 0.15\nForward/backward pass size (MB): 0.03\nParams size (MB): 0.00\nEstimated Total Size (MB): 0.19\n==========================================================================================", "threshold": "28.19787"}, "AttConvNet2": {"auc_score": 0.6090883506343714, "model_summary": "==========================================================================================\nLayer (type:depth-idx)                   Output Shape              Param #\n==========================================================================================\n\u251c\u2500GCNConv: 1-1                           [-1, 7]                   70\n\u251c\u2500GCNConv: 1-2                           [-1, 5]                   35\n\u251c\u2500NLGCN: 1-3                             [-1, 5]                   --\n|    \u2514\u2500Conv1d: 2-1                       [-1, 1, 4039]             10\n\u251c\u2500Linear: 1-4                            [-1, 7]                   42\n\u251c\u2500Linear: 1-5                            [-1, 5]                   30\n\u251c\u2500GCNConv: 1-6                           [-1, 7]                   35\n\u251c\u2500GCNConv: 1-7                           [-1, 10]                  70\n==========================================================================================\nTotal params: 292\nTrainable params: 292\nNon-trainable params: 0\nTotal mult-adds (M): 0.04\n==========================================================================================\nInput size (MB): 0.15\nForward/backward pass size (MB): 0.03\nParams size (MB): 0.00\nEstimated Total Size (MB): 0.19\n==========================================================================================", "threshold": "28.187902"}, "AttConvNet3": {"auc_score": 0.6496355247981546, "model_summary": "==========================================================================================\nLayer (type:depth-idx)                   Output Shape              Param #\n==========================================================================================\n\u251c\u2500GCNConv: 1-1                           [-1, 7]                   70\n\u251c\u2500GCNConv: 1-2                           [-1, 5]                   35\n\u251c\u2500NLGCN: 1-3                             [-1, 5]                   --\n|    \u2514\u2500Conv1d: 2-1                       [-1, 1, 4039]             10\n\u251c\u2500Linear: 1-4                            [-1, 7]                   42\n\u251c\u2500Linear: 1-5                            [-1, 5]                   30\n\u251c\u2500GCNConv: 1-6                           [-1, 7]                   35\n\u251c\u2500GCNConv: 1-7                           [-1, 7]                   49\n\u251c\u2500GCNConv: 1-8                           [-1, 10]                  70\n==========================================================================================\nTotal params: 341\nTrainable params: 341\nNon-trainable params: 0\nTotal mult-adds (M): 0.04\n==========================================================================================\nInput size (MB): 0.15\nForward/backward pass size (MB): 0.03\nParams size (MB): 0.00\nEstimated Total Size (MB): 0.19\n=
…
