{
    "ConvNet1": {
        "auc_score": 0.442090395480226,
        "model_summary": "==========================================================================================\nLayer (type:depth-idx)                   Output Shape              Param #\n==========================================================================================\n\u251c\u2500GCNConv: 1-1                           [-1, 10]                  280\n\u251c\u2500NLGCN: 1-2                             [-1, 10]                  --\n|    \u2514\u2500Conv1d: 2-1                       [-1, 1, 124]              10\n\u251c\u2500Linear: 1-3                            [-1, 15]                  165\n\u251c\u2500Linear: 1-4                            [-1, 10]                  110\n\u251c\u2500Linear: 1-5                            [-1, 10]                  110\n\u251c\u2500GCNConv: 1-6                           [-1, 15]                  150\n\u251c\u2500GCNConv: 1-7                           [-1, 28]                  420\n==========================================================================================\nTotal params: 1,245\nTrainable params: 1,245\nNon-trainable params: 0\nTotal mult-adds (M): 0.00\n==========================================================================================\nInput size (MB): 0.01\nForward/backward pass size (MB): 0.00\nParams size (MB): 0.00\nEstimated Total Size (MB): 0.02\n=========================================================================================="
    },
    "N2": {
        "auc_score": 0.4689265536723164,
        "model_summary": "==========================================================================================\nLayer (type:depth-idx)                   Output Shape              Param #\n==========================================================================================\n\u251c\u2500GCNConv: 1-1                           [-1, 15]                  420\n\u251c\u2500GCNConv: 1-2                           [-1, 10]                  150\n\u251c\u2500NLGCN: 1-3                             [-1, 10]                  --\n|    \u2514\u2500Conv1d: 2-1                       [-1, 1, 124]              10\n\u251c\u2500GCNConv: 1-4                           [-1, 10]                  100\n\u251c\u2500GCNConv: 1-5                           [-1, 15]                  150\n\u251c\u2500Linear: 1-6                            [-1, 15]                  240\n\u251c\u2500Linear: 1-7                            [-1, 10]                  110\n\u251c\u2500Linear: 1-8                            [-1, 10]                  110\n\u251c\u2500GCNConv: 1-9                           [-1, 15]                  150\n\u251c\u2500GCNConv: 1-10                          [-1, 28]                  420\n==========================================================================================\nTotal params: 1,860\nTrainable params: 1,860\nNon-trainable params: 0\nTotal mult-adds (M): 0.00\n==========================================================================================\nInput size (MB): 0.01\nForward/backward pass size (MB): 0.00\nParams size (MB): 0.01\nEstimated Total Size (MB): 0.02\n=========================================================================================="
    },
    "AttConvNet1": {
        "auc_score": 0.4689265536723164,
        "model_summary": "==========================================================================================\nLayer (type:depth-idx)                   Output Shape              Param #\n==========================================================================================\n\u251c\u2500GCNConv: 1-1                           [-1, 15]                  420\n\u251c\u2500GCNConv: 1-2                           [-1, 10]                  150\n\u251c\u2500NLGCN: 1-3                             [-1, 10]                  --\n|    \u2514\u2500Conv1d: 2-1                       [-1, 1, 124]              10\n\u251c\u2500Linear: 1-4                            [-1, 15]                  165\n\u251c\u2500Linear: 1-5                            [-1, 10]                  110\n\u251c\u2500GCNConv: 1-6                           [-1, 28]                  280\n==========================================================================================\nTotal params: 1,135\nTrainable params: 1,135\nNon-trainable params: 0\nTotal mult-adds (M): 0.00\n==========================================================================================\nInput size (MB): 0.01\nForward/backward pass size (MB): 0.00\nParams size (MB): 0.00\nEstimated Total Size (MB): 0.02\n=========================================================================================="
    },
    "AttConvNet2": {
        "auc_score": 0.4689265536723164,
        "model_summary": "==========================================================================================\nLayer (type:depth-idx)                   Output Shape              Param #\n==========================================================================================\n\u251c\u2500GCNConv: 1-1                           [-1, 15]                  420\n\u251c\u2500GCNConv: 1-2                           [-1, 10]                  150\n\u251c\u2500NLGCN: 1-3                             [-1, 10]                  --\n|    \u2514\u2500Conv1d: 2-1                       [-1, 1, 124]              10\n\u251c\u2500Linear: 1-4                            [-1, 15]                  165\n\u251c\u2500Linear: 1-5                            [-1, 10]                  110\n\u251c\u2500GCNConv: 1-6                           [-1, 15]                  150\n\u251c\u2500GCNConv: 1-7                           [-1, 28]                  420\n==========================================================================================\nTotal params: 1,425\nTrainable params: 1,425\nNon-trainable params: 0\nTotal mult-adds (M): 0.00\n==========================================================================================\nInput size (MB): 0.01\nForward/backward pass size (MB): 0.00\nParams size (MB): 0.01\nEstimated Total Size (MB): 0.02\n=========================================================================================="
…
