{"AttConvNet1": {"auc_score": 0.4717514124293785, "model_summary": "==========================================================================================\nLayer (type:depth-idx)                   Output Shape              Param #\n==========================================================================================\n\u251c\u2500GCNConv: 1-1                           [-1, 15]                  420\n\u251c\u2500GCNConv: 1-2                           [-1, 10]                  150\n\u251c\u2500NLGCN: 1-3                             [-1, 10]                  --\n|    \u2514\u2500Conv1d: 2-1                       [-1, 1, 124]              10\n\u251c\u2500Linear: 1-4                            [-1, 15]                  165\n\u251c\u2500Linear: 1-5                            [-1, 10]                  110\n\u251c\u2500GCNConv: 1-6                           [-1, 28]                  280\n==========================================================================================\nTotal params: 1,135\nTrainable params: 1,135\nNon-trainable params: 0\nTotal mult-adds (M): 0.00\n==========================================================================================\nInput size (MB): 0.01\nForward/backward pass size (MB): 0.00\nParams size (MB): 0.00\nEstimated Total Size (MB): 0.02\n==========================================================================================", "threshold": "3.5138588", "accuracy": "0.7096774193548387"}, "AttConvNet2": {"auc_score": 0.4590395480225989, "model_summary": "==========================================================================================\nLayer (type:depth-idx)                   Output Shape              Param #\n==========================================================================================\n\u251c\u2500GCNConv: 1-1                           [-1, 15]                  420\n\u251c\u2500GCNConv: 1-2                           [-1, 10]                  150\n\u251c\u2500NLGCN: 1-3                             [-1, 10]                  --\n|    \u2514\u2500Conv1d: 2-1                       [-1, 1, 124]              10\n\u251c\u2500Linear: 1-4                            [-1, 15]                  165\n\u251c\u2500Linear: 1-5                            [-1, 10]                  110\n\u251c\u2500GCNConv: 1-6                           [-1, 15]                  150\n\u251c\u2500GCNConv: 1-7                           [-1, 28]                  420\n==========================================================================================\nTotal params: 1,425\nTrainable params: 1,425\nNon-trainable params: 0\nTotal mult-adds (M): 0.00\n==========================================================================================\nInput size (MB): 0.01\nForward/backward pass size (MB): 0.00\nParams size (MB): 0.01\nEstimated Total Size (MB): 0.02\n==========================================================================================", "threshold": "3.512714", "accuracy": "0.7096774193548387"}, "AttConvNet3": {"auc_score": 0.4251412429378531, "model_summary": "==========================================================================================\nLayer (type:depth-idx)                   Output Shape              Param #\n==========================================================================================\n\u251c\u2500GCNConv: 1-1                           [-1, 15]                  420\n\u251c\u2500GCNConv: 1-2                           [-1, 10]                  150\n\u251c\u2500NLGCN: 1-3                             [-1, 10]                  --\n|    \u2514\u2500Conv1d: 2-1                       [-1, 1, 124]              10\n\u251c\u2500Linear: 1-4                            [-1, 15]                  165\n\u251c\u2500Linear: 1-5                            [-1, 10]                  110\n\u251c\u2500GCNConv: 1-6                           [-1, 15]                  150\n\u251c\u2500GCNConv: 1-7                           [-1, 15]                  225\n\u251c\u2500GCNConv: 1-8                           [-1, 28]                  420\n==========================================================================================\nTotal params: 1,650\nTrainable params: 1,650\nNon-trainable params: 0\nTotal mult-adds (M): 0.00\n==========================================================================================\nInput size (MB): 0.01\nForward/backward pass size (MB): 0.00\nParams size (MB): 0.01\nEstimated Total Size (MB): 0.02\n==========================================================================================", "threshold": "3.537759", "accuracy": "0.7096774193548387"}, "AttConvNet4": {"auc_score": 0.4378531073446328, "model_summary": "==========================================================================================\nLayer (type:depth-idx)                   Output Shape              Param #\n==========================================================================================\n\u251c\u2500GCNConv: 1-1                           [-1, 15]                  420\n\u251c\u2500GCNConv: 1-2                           [-1, 10]                  150\n\u251c\u2500NLGCN: 1-3                             [-1, 10]                  --\n|    \u2514\u2500Conv1d: 2-1                       [-1, 1, 124]              10\n\u251c\u2500Linear: 1-4                            [-1, 15]                  165\n\u251c\u2500Linear: 1-5                            [-1, 10]                  110\n\u251c\u2500GCNConv: 1-6                           [-1, 15]                  150\n\u251c\u2500GCNConv: 1-7                           [-1, 15]                  225\n\u251c\u2500GCNConv: 1-8                           [-1, 15]                  225\n\u251c\u2500GCNConv: 1-9                           [-1, 28]                  420\n==========================================================================================\nTotal params: 1,875\nTrainable params: 1,875\nNon-trainable params: 0\nTotal mult-adds (M): 0.00\n==========================================================================================\nInput size (MB): 0.01\nForward/backward pass size (MB): 0.00\nParams size (MB): 0.01\nEstimated Total Size (MB): 0.02\n==========================================================================================", "threshold": "3.5383449", "accuracy": "0.7258064516129032"}, "ConvNet1": {"auc_score": 0.4265536723163842, "model_summary": "==========================================================================================\nLayer (type:depth-idx)                   Output Shape              Param #\n==========================================================================================\n\u251c\u2500GCNConv: 1-1                           [-1, 10]                  280\n\u251c\u2500NLGCN: 1-2                             [-1, 10]                  --\n|    \u2514\u2500Conv1d: 2-1                       [-1, 1, 124]              10\n\u251c\u2500Linear: 1-3                            [-1, 15]                  165\n\u251c\u2500Linear: 1-4                            [-1, 10]                  110\n\u251c\u2500Linear: 1-5                            [-1, 10]                  110\n\u251c\u2500GCNConv: 1-6                           [-1, 15]                  150\n\u251c\u2500GCNConv: 1-7                           [-1, 28]                  420\n==========================================================================================\nTotal params: 1,245\nTrainable params: 1,245\nNon-trainable params: 0\nTotal mult-adds (M): 0.00\n==========================================================================================\nInput size (MB): 0.01\nForward/backward pass size (MB): 0.00\nParams size (MB): 0.00\nEstimated Total Size (MB): 0.02\n==========================================================================================", "threshold": "3.5037913", "accuracy": "0.7096774193548387"}, "ConvNet2": {"auc_score": 0.4251412429378531, "model_summary": "==========================================================================================\nLayer (type:depth-idx)                   Output Shape              Param #\n==========================================================================================\n\u251c\u2500GCNConv: 1-1                           [-1, 15]                  420\n\u251c\u2500GCNConv: 1-2                           [-1, 10]                  150\n\u251c\u2500NLGCN: 1-3                             [-1, 10]                  --\n|    \u2514\u2500Conv1d: 2-1                       [-1, 1, 124]              10\n\u251c\u2500Linear: 1-4                            [-1, 15]                  165\n\u251c\u2500Linear: 1-5                            [-1, 10]                  110\n\u251c\u2500Linear: 1-6                            [-1, 10]                  110\n\u251c\u2500GCNConv: 1-7                           [-1, 15]                  150\n\u251c\u2500GCNConv: 1-8                           [-1, 28]                  420\n==========================================================================================\nTotal params: 1,535\nTrainable params: 1,535\nNon-trainable params: 0\nTotal mult-adds (M): 0.00\n==========================================================================================\nInput size (MB): 0.01\nForward/backward pass size (MB): 0.00\nParams size (MB): 0.01\nEstimated Total Size (MB): 0.02\n==========================================================================================", "threshold": "3.5042028", "accuracy": "0.7096774193548387"}, "ConvNet3": {"auc_score": 0.44774011299435024, "model_summary": "==========================================================================================\nLayer (type:depth-idx)                   Output Shape              Param #\n==========================================================================================\n\u251c\u2500GCNConv: 1-1                           [-1, 15]                  420\n\u251c\u2500GCNConv: 1-2                           [-1, 10]                  150\n\u251c\u2500GCNConv: 1-3                           [-1, 10]                  100\n\u251c\u2500NLGCN: 1-4                             [-1, 10]                  --\n|    \u2514\u2500Conv1d: 2-1                       [-1, 1, 124]              10\n\u251c\u2500Linear: 1-5                            [-1, 15]                  165\n\u251c\u2500Linear: 1-6                            [-1, 10]                  110\n\u251c\u2500Linear: 1-7                            [-1, 10]                  110\n\u251c\u2500GCNConv: 1-8                           [-1, 15]                  150\n\u251c\u2500GCNConv: 1-9                           [-1, 28]                  420\n==========================================================================================\nTotal params: 1,635\nTrainable params: 1,635\nNon-trainable params: 0\nTotal mult-adds (M): 0.00\n==========================================================================================\nInput size (MB): 0.01\nForward/backward pass size (MB): 0.00\nParams size (MB): 0.01\nEstimated Total Size (MB): 0.02\n==========================================================================================", "threshold": "3.50523", "accuracy": "0.7096774193548387"}, "ConvNet4": {"auc_score": 0.4731638418079096, "model_summary": "==========================================================================================\nLayer (type:depth-idx)                   Output Shape              Param #\n==========================================================================================\n\u251c\u2500GCNConv: 1-1                           [-1, 15]                  420\n\u251c\u2500GCNConv: 1-2                           [-1, 10]                  150\n\u251c\u2500GCNConv: 1-3                           [-1, 10]                  100\n\u251c\u2500GCNConv: 1-4                           [-1, 10]                  100\n\u251c\u2500NLGCN: 1-5                             [-1, 10]                  --\n|    \u2514\u2500Conv1d: 2-1                       [-1, 1, 124]              10\n\u251c\u2500Linear: 1-6                            [-1, 15]                  165\n\u251c\u2500Linear: 1-7                            [-1, 10]                  110\n\u251c\u2500Linear: 1-8                            [-1, 10]                  110\n\u251c\u2500GCNConv: 1-9                           [-1, 15]                  150\n\u251c\u2500GCNConv: 1-10                          [-1, 28]                  420\n==========================================================================================\nTotal params: 1,735\nTrainable params: 1,735\nNon-trainable params: 0\nTotal mult-adds (M): 0.00\n==========================================================================================\nInput size (MB): 0.01\nForward/backward pass size (MB): 0.00\nParams size (MB): 0.01\nEstimated Total Size (MB): 0.02\n==========================================================================================", "threshold": "3.5047107", "accuracy": "0.7096774193548387"}, "ConvNet5": {"auc_score": 0.423728813559322, "model_summary": "==========================================================================================\nLayer (type:depth-idx)                   Output Shape              Param #\n==========================================================================================\n\u251c\u2500GCNConv: 1-1                           [-1, 15]                  420\n\u251c\u2500GCNConv: 1-2                           [-1, 10]                  150\n\u251c\u2500GCNConv: 1-3                           [-1, 10]                  100\n\u251c\u2500GCNConv: 1-4                           [-1, 10]                  100\n\u251c\u2500GCNConv: 1-5                           [-1, 10]                  100\n\u251c\u2500NLGCN: 1-6                             [-1, 10]                  --\n|    \u2514\u2500Conv1d: 2-1                       [-1, 1, 124]              10\n\u251c\u2500Linear: 1-7                            [-1, 15]                  165\n\u251c\u2500Linear: 1-8                            [-1, 10]                  110\n\u251c\u2500Linear: 1-9                            [-1, 10]                  110\n\u251c\u2500GCNConv: 1-10                          [-1, 15]                  150\n\u251c\u2500GCNConv: 1-11                          [-1, 28]                  420\n==========================================================================================\nTotal params: 1,835\nTrainable params: 1,835\nNon-trainable params: 0\nTotal mult-adds (M): 0.00\n==========================================================================================\nInput size (MB): 0.01\nForward/backward pass size (MB): 0.00\nParams size (MB): 0.01\nEstimated Total Size (MB): 0.02\n==========================================================================================", "threshold": "3.504339", "accuracy": "0.7096774193548387"}, "ConvNet6": {"auc_score": 0.4336158192090396, "model_summary": "==========================================================================================\nLayer (type:depth-idx)                   Output Shape              Param #\n==========================================================================================\n\u251c\u2500GCNConv: 1-1                           [-1, 15]                  420\n\u251c\u2500GCNConv: 1-2                           [-1, 10]                  150\n\u251c\u2500GCNConv: 1-3                           [-1, 10]                  100\n\u251c\u2500GCNConv: 1-4                           [-1, 10]                  100\n\u251c\u2500GCNConv: 1-5                           [-1, 10]                  100\n\u251c\u2500GCNConv: 1-6                           [-1, 10]                  100\n\u251c\u2500NLGCN: 1-7                             [-1, 10]                  --\n|    \u2514\u2500Conv1d: 2-1                       [-1, 1, 124]              10\n\u251c\u2500Linear: 1-8                            [-1, 15]                  165\n\u251c\u2500Linear: 1-9                            [-1, 10]                  110\n\u251c\u2500Linear: 1-10                           [-1, 10]                  110\n\u251c\u2500GCNConv: 1-11                          [-1, 15]                  150\n\u251c\u2500GCNConv: 1-12                          [-1, 28]                  420\n==========================================================================================\nTotal params: 1,935\nTrainable params: 1,935\nNon-trainable params: 0\nTotal mult-adds (M): 0.00\n==========================================================================================\nInput size (MB): 0.01\nForward/backward pass size (MB): 0.00\nParams size (MB): 0.01\nEstimated Total Size (MB): 0.0
…
 (MB): 0.00\nParams size (MB): 0.01\nEstimated Total Size (MB): 0.02\n==========================================================================================", "threshold": "3.501857", "accuracy": "0.7096774193548387"}, "DenseNet3": {"auc_score": 0.42372881355932207, "model_summary": "==========================================================================================\nLayer (type:depth-idx)                   Output Shape              Param #\n==========================================================================================\n\u251c\u2500GCNConv: 1-1                           [-1, 15]                  420\n\u251c\u2500GCNConv: 1-2                           [-1, 10]                  150\n\u251c\u2500NLGCN: 1-3                             [-1, 10]                  --\n|    \u2514\u2500Conv1d: 2-1                       [-1, 1, 124]              10\n\u251c\u2500Linear: 1-4                            [-1, 15]                  165\n\u251c\u2500Linear: 1-5                            [-1, 10]                  110\n\u251c\u2500Linear: 1-6                            [-1, 10]                  110\n\u251c\u2500Linear: 1-7                            [-1, 10]                  110\n\u251c\u2500GCNConv: 1-8                           [-1, 15]                  150\n\u251c\u2500GCNConv: 1-9                           [-1, 28]                  420\n==========================================================================================\nTotal params: 1,645\nTrainable params: 1,645\nNon-trainable params: 0\nTotal mult-adds (M): 0.00\n==========================================================================================\nInput size (MB): 0.01\nForward/backward pass size (MB): 0.00\nParams size (MB): 0.01\nEstimated Total Size (MB): 0.02\n==========================================================================================", "threshold": "3.502211", "accuracy": "0.7096774193548387"}, "DenseNet4": {"auc_score": 0.4322033898305085, "model_summary": "==========================================================================================\nLayer (type:depth-idx)                   Output Shape              Param #\n==========================================================================================\n\u251c\u2500GCNConv: 1-1                           [-1, 15]                  420\n\u251c\u2500GCNConv: 1-2                           [-1, 10]                  150\n\u251c\u2500NLGCN: 1-3                             [-1, 10]                  --\n|    \u2514\u2500Conv1d: 2-1                       [-1, 1, 124]              10\n\u251c\u2500Linear: 1-4                            [-1, 15]                  165\n\u251c\u2500Linear: 1-5                            [-1, 10]                  110\n\u251c\u2500Linear: 1-6                            [-1, 10]                  110\n\u251c\u2500Linear: 1-7                            [-1, 10]                  110\n\u251c\u2500Linear: 1-8                            [-1, 10]                  110\n\u251c\u2500GCNConv: 1-9                           [-1, 15]                  150\n\u251c\u2500GCNConv: 1-10                          [-1, 28]                  420\n==========================================================================================\nTotal params: 1,755\nTrainable params: 1,755\nNon-trainable params: 0\nTotal mult-adds (M): 0.00\n==========================================================================================\nInput size (MB): 0.01\nForward/backward pass size (MB): 0.00\nParams size (MB): 0.01\nEstimated Total Size (MB): 0.02\n==========================================================================================", "threshold": "3.508396", "accuracy": "0.7096774193548387"}, "DenseNet5": {"auc_score": 0.47175141242937857, "model_summary": "==========================================================================================\nLayer (type:depth-idx)                   Output Shape              Param #\n==========================================================================================\n\u251c\u2500GCNConv: 1-1                           [-1, 15]                  420\n\u251c\u2500GCNConv: 1-2                           [-1, 10]                  150\n\u251c\u2500NLGCN: 1-3                             [-1, 10]                  --\n|    \u2514\u2500Conv1d: 2-1                       [-1, 1, 124]              10\n\u251c\u2500Linear: 1-4                            [-1, 15]                  165\n\u251c\u2500Linear: 1-5                            [-1, 10]                  110\n\u251c\u2500Linear: 1-6                            [-1, 10]                  110\n\u251c\u2500Linear: 1-7                            [-1, 10]                  110\n\u251c\u2500Linear: 1-8                            [-1, 10]                  110\n\u251c\u2500Linear: 1-9                            [-1, 10]                  110\n\u251c\u2500GCNConv: 1-10                          [-1, 15]                  150\n\u251c\u2500GCNConv: 1-11                          [-1, 28]                  420\n==========================================================================================\nTotal params: 1,865\nTrainable params: 1,865\nNon-trainable params: 0\nTotal mult-adds (M): 0.00\n==========================================================================================\nInput size (MB): 0.01\nForward/backward pass size (MB): 0.00\nParams size (MB): 0.01\nEstimated Total Size (MB): 0.02\n==========================================================================================", "threshold": "3.5249724", "accuracy": "0.7096774193548387"}, "DenseNet6": {"auc_score": 0.4322033898305085, "model_summary": "==========================================================================================\nLayer (type:depth-idx)                   Output Shape              Param #\n==========================================================================================\n\u251c\u2500GCNConv: 1-1                           [-1, 15]                  420\n\u251c\u2500GCNConv: 1-2                           [-1, 10]                  150\n\u251c\u2500NLGCN: 1-3                             [-1, 10]                  --\n|    \u2514\u2500Conv1d: 2-1                       [-1, 1, 124]              10\n\u251c\u2500Linear: 1-4                            [-1, 15]                  165\n\u251c\u2500Linear: 1-5                            [-1, 10]                  110\n\u251c\u2500Linear: 1-6                            [-1, 10]                  110\n\u251c\u2500Linear: 1-7                            [-1, 10]                  110\n\u251c\u2500Linear: 1-8                            [-1, 10]                  110\n\u251c\u2500Linear: 1-9                            [-1, 10]                  110\n\u251c\u2500Linear: 1-10                           [-1, 10]                  110\n\u251c\u2500GCNConv: 1-11                          [-1, 15]                  150\n\u251c\u2500GCNConv: 1-12                          [-1, 28]                  420\n==========================================================================================\nTotal params: 1,975\nTrainable params: 1,975\nNon-trainable params: 0\nTotal mult-adds (M): 0.00\n==========================================================================================\nInput size (MB): 0.01\nForward/backward pass size (MB): 0.00\nParams size (MB): 0.01\nEstimated Total Size (MB): 0.02\n==========================================================================================", "threshold": "3.5142608", "accuracy": "0.7096774193548387"}, "DenseNet7": {"auc_score": 0.4180790960451977, "model_summary": "==========================================================================================\nLayer (type:depth-idx)                   Output Shape              Param #\n==========================================================================================\n\u251c\u2500GCNConv: 1-1                           [-1, 15]                  420\n\u251c\u2500GCNConv: 1-2                           [-1, 10]                  150\n\u251c\u2500NLGCN: 1-3                             [-1, 10]                  --\n|    \u2514\u2500Conv1d: 2-1                       [-1, 1, 124]              10\n\u251c\u2500Linear: 1-4                            [-1, 15]                  165\n\u251c\u2500Linear: 1-5                            [-1, 10]                  110\n\u251c\u2500Linear: 1-6                            [-1, 10]                  110\n\u251c\u2500Linear: 1-7                            [-1, 10]                  110\n\u251c\u2500Linear: 1-8                            [-1, 10]                  110\n\u251c\u2500Linear: 1-9                            [-1, 10]                  110\n\u251c\u2500Linear: 1-10                           [-1, 10]                  110\n\u251c\u2500Linear: 1-11                           [-1, 10]                  110\n\u251c\u2500GCNConv: 1-12                          [-1, 15]                  150\n\u251c\u2500GCNConv: 1-13                          [-1, 28]                  420\n==========================================================================================\nTotal params: 2,085\nTrainable params: 2,085\nNon-trainable params: 0\nTotal mult-adds (M): 0.00\n==========================================================================================\nInput size (MB): 0.01\nForward/backward pass size (MB): 0.00\nParams size (MB): 0.01\nEstimated Total Size (MB): 0.02\n==========================================================================================", "threshold": "3.512287"}, "DenseNet8": {"auc_score": 0.422316384180791, "model_summary": "==========================================================================================\nLayer (type:depth-idx)                   Output Shape              Param #\n==========================================================================================\n\u251c\u2500GCNConv: 1-1                           [-1, 15]                  420\n\u251c\u2500GCNConv: 1-2                           [-1, 10]                  150\n\u251c\u2500NLGCN: 1-3                             [-1, 10]                  --\n|    \u2514\u2500Conv1d: 2-1                       [-1, 1, 124]              10\n\u251c\u2500Linear: 1-4                            [-1, 15]                  165\n\u251c\u2500Linear: 1-5                            [-1, 10]                  110\n\u251c\u2500Linear: 1-6                            [-1, 10]                  110\n\u251c\u2500Linear: 1-7                            [-1, 10]                  110\n\u251c\u2500Linear: 1-8                            [-1, 10]                  110\n\u251c\u2500Linear: 1-9                            [-1, 10]                  110\n\u251c\u2500Linear: 1-10                           [-1, 10]                  110\n\u251c\u2500Linear: 1-11                           [-1, 10]                  110\n\u251c\u2500Linear: 1-12                           [-1, 10]                  110\n\u251c\u2500GCNConv: 1-13                          [-1, 15]                  150\n\u251c\u2500GCNConv: 1-14                          [-1, 28]                  420\n==========================================================================================\nTotal params: 2,195\nTrainable params: 2,195\nNon-trainable params: 0\nTotal mult-adds (M): 0.00\n==========================================================================================\nInput size (MB): 0.01\nForward/backward pass size (MB): 0.00\nParams size (MB): 0.01\nEstimated Total Size (MB): 0.02\n==========================================================================================", "threshold": "3.502057"}, "NLNet1": {"auc_score": 0.4646892655367232, "model_summary": "==========================================================================================\nLayer (type:depth-idx)                   Output Shape              Param #\n==========================================================================================\n\u251c\u2500GCNConv: 1-1                           [-1, 15]                  420\n\u251c\u2500GCNConv: 1-2                           [-1, 10]                  150\n\u251c\u2500NLGCN: 1-3                             [-1, 10]                  --\n|    \u2514\u2500Conv1d: 2-1                       [-1, 1, 124]              10\n\u251c\u2500Linear: 1-4                            [-1, 15]                  165\n\u251c\u2500Linear: 1-5                            [-1, 10]                  110\n\u251c\u2500Linear: 1-6                            [-1, 10]                  110\n\u251c\u2500GCNConv: 1-7                           [-1, 15]                  150\n\u251c\u2500GCNConv: 1-8                           [-1, 28]                  420\n==========================================================================================\nTotal params: 1,535\nTrainable params: 1,535\nNon-trainable params: 0\nTotal mult-adds (M): 0.00\n==========================================================================================\nInput size (MB): 0.01\nForward/backward pass size (MB): 0.00\nParams size (MB): 0.01\nEstimated Total Size (MB): 0.02\n==========================================================================================", "threshold": "3.5158737"}, "NLNet2": {"auc_score": 0.422316384180791, "model_summary": "==========================================================================================\nLayer (type:depth-idx)                   Output Shape              Param #\n==========================================================================================\n\u251c\u2500GCNConv: 1-1                           [-1, 15]                  420\n\u251c\u2500GCNConv: 1-2                           [-1, 10]                  150\n\u251c\u2500NLGCN: 1-3                             [-1, 10]                  --\n|    \u2514\u2500Conv1d: 2-1                       [-1, 1, 124]              10\n\u251c\u2500NLGCN: 1-4                             [-1, 10]                  --\n|    \u2514\u2500Conv1d: 2-2                       [-1, 1, 124]              10\n\u251c\u2500Linear: 1-5                            [-1, 15]                  165\n\u251c\u2500Linear: 1-6                            [-1, 10]                  110\n\u251c\u2500Linear: 1-7                            [-1, 10]                  110\n\u251c\u2500GCNConv: 1-8                           [-1, 15]                  150\n\u251c\u2500GCNConv: 1-9                           [-1, 28]                  420\n==========================================================================================\nTotal params: 1,545\nTrainable params: 1,545\nNon-trainable params: 0\nTotal mult-adds (M): 0.00\n==========================================================================================\nInput size (MB): 0.01\nForward/backward pass size (MB): 0.00\nParams size (MB): 0.01\nEstimated Total Size (MB): 0.02\n==========================================================================================", "threshold": "3.506598"}, "NLNet3": {"auc_score": 0.4632768361581921, "model_summary": "==========================================================================================\nLayer (type:depth-idx)                   Output Shape              Param #\n==========================================================================================\n\u251c\u2500GCNConv: 1-1                           [-1, 15]                  420\n\u251c\u2500GCNConv: 1-2                           [-1, 10]                  150\n\u251c\u2500NLGCN: 1-3                             [-1, 10]                  --\n|    \u2514\u2500Conv1d: 2-1                       [-1, 1, 124]              10\n\u251c\u2500NLGCN: 1-4                             [-1, 10]                  (recursive)\n|    \u2514\u2500Conv1d: 2-2                       [-1, 1, 124]              (recursive)\n\u251c\u2500NLGCN: 1-5                             [-1, 10]                  (recursive)\n|    \u2514\u2500Conv1d: 2-3                       [-1, 1, 124]              (recursive)\n\u251c\u2500Linear: 1-6                            [-1, 15]                  165\n\u251c\u2500Linear: 1-7                            [-1, 10]                  110\n\u251c\u2500Linear: 1-8                            [-1, 10]                  110\n\u251c\u2500GCNConv: 1-9                           [-1, 15]                  150\n\u251c\u2500GCNConv: 1-10                          [-1, 28]                  420\n==========================================================================================\nTotal params: 1,535\nTrainable params: 1,535\nNon-trainable params: 0\nTotal mult-adds (M): 0.00\n==========================================================================================\nInput size (MB): 0.01\nForward/backward pass size (MB): 0.00\nParams size (MB): 0.01\nEstimated Total Size (MB): 0.0
…
