{"AttConvNet1": {"auc_score": 0.46610169491525427, "model_summary": "==========================================================================================\nLayer (type:depth-idx)                   Output Shape              Param #\n==========================================================================================\n\u251c\u2500GCNConv: 1-1                           [-1, 15]                  420\n\u251c\u2500GCNConv: 1-2                           [-1, 10]                  150\n\u251c\u2500NLGCN: 1-3                             [-1, 10]                  --\n|    \u2514\u2500Conv1d: 2-1                       [-1, 1, 124]              10\n\u251c\u2500Linear: 1-4                            [-1, 15]                  165\n\u251c\u2500Linear: 1-5                            [-1, 10]                  110\n\u251c\u2500GCNConv: 1-6                           [-1, 28]                  280\n==========================================================================================\nTotal params: 1,135\nTrainable params: 1,135\nNon-trainable params: 0\nTotal mult-adds (M): 0.00\n==========================================================================================\nInput size (MB): 0.01\nForward/backward pass size (MB): 0.00\nParams size (MB): 0.00\nEstimated Total Size (MB): 0.02\n==========================================================================================", "threshold": "3.5090451", "accuracy": "0.7096774193548387"}, "AttConvNet2": {"auc_score": 0.4350282485875706, "model_summary": "==========================================================================================\nLayer (type:depth-idx)                   Output Shape              Param #\n==========================================================================================\n\u251c\u2500GCNConv: 1-1                           [-1, 15]                  420\n\u251c\u2500GCNConv: 1-2                           [-1, 10]                  150\n\u251c\u2500NLGCN: 1-3                             [-1, 10]                  --\n|    \u2514\u2500Conv1d: 2-1                       [-1, 1, 124]              10\n\u251c\u2500Linear: 1-4                            [-1, 15]                  165\n\u251c\u2500Linear: 1-5                            [-1, 10]                  110\n\u251c\u2500GCNConv: 1-6                           [-1, 15]                  150\n\u251c\u2500GCNConv: 1-7                           [-1, 28]                  420\n==========================================================================================\nTotal params: 1,425\nTrainable params: 1,425\nNon-trainable params: 0\nTotal mult-adds (M): 0.00\n==========================================================================================\nInput size (MB): 0.01\nForward/backward pass size (MB): 0.00\nParams size (MB): 0.01\nEstimated Total Size (MB): 0.02\n==========================================================================================", "threshold": "3.5233138", "accuracy": "0.7096774193548387"}, "AttConvNet3": {"auc_score": 0.4251412429378531, "model_summary": "==========================================================================================\nLayer (type:depth-idx)                   Output Shape              Param #\n==========================================================================================\n\u251c\u2500GCNConv: 1-1                           [-1, 15]                  420\n\u251c\u2500GCNConv: 1-2                           [-1, 10]                  150\n\u251c\u2500NLGCN: 1-3                             [-1, 10]                  --\n|    \u2514\u2500Conv1d: 2-1                       [-1, 1, 124]              10\n\u251c\u2500Linear: 1-4                            [-1, 15]                  165\n\u251c\u2500Linear: 1-5                            [-1, 10]                  110\n\u251c\u2500GCNConv: 1-6                           [-1, 15]                  150\n\u251c\u2500GCNConv: 1-7                           [-1, 15]                  225\n\u251c\u2500GCNConv: 1-8                           [-1, 28]                  420\n==========================================================================================\nTotal params: 1,650\nTrainable params: 1,650\nNon-trainable params: 0\nTotal mult-adds (M): 0.00\n==========================================================================================\nInput size (MB): 0.01\nForward/backward pass size (MB): 0.00\nParams size (MB): 0.01\nEstimated Total Size (MB): 0.02\n==========================================================================================", "threshold": "3.5374753", "accuracy": "0.7096774193548387"}, "AttConvNet4": {"auc_score": 0.4533898305084746, "model_summary": "==========================================================================================\nLayer (type:depth-idx)                   Output Shape              Param #\n==========================================================================================\n\u251c\u2500GCNConv: 1-1                           [-1, 15]                  420\n\u251c\u2500GCNConv: 1-2                           [-1, 10]                  150\n\u251c\u2500NLGCN: 1-3                             [-1, 10]                  --\n|    \u2514\u2500Conv1d: 2-1                       [-1, 1, 124]              10\n\u251c\u2500Linear: 1-4                            [-1, 15]                  165\n\u251c\u2500Linear: 1-5                            [-1, 10]                  110\n\u251c\u2500GCNConv: 1-6                           [-1, 15]                  150\n\u251c\u2500GCNConv: 1-7                           [-1, 15]                  225\n\u251c\u2500GCNConv: 1-8                           [-1, 15]                  225\n\u251c\u2500GCNConv: 1-9                           [-1, 28]                  420\n==========================================================================================\nTotal params: 1,875\nTrainable params: 1,875\nNon-trainable params: 0\nTotal mult-adds (M): 0.00\n==========================================================================================\nInput size (MB): 0.01\nForward/backward pass size (MB): 0.00\nParams size (MB): 0.01\nEstimated Total Size (MB): 0.02\n==========================================================================================", "threshold": "3.5377939", "accuracy": "0.7258064516129032"}, "ConvNet1": {"auc_score": 0.4265536723163842, "model_summary": "==========================================================================================\nLayer (type:depth-idx)                   Output Shape              Param #\n==========================================================================================\n\u251c\u2500GCNConv: 1-1                           [-1, 10]                  280\n\u251c\u2500NLGCN: 1-2                             [-1, 10]                  --\n|    \u2514\u2500Conv1d: 2-1                       [-1, 1, 124]              10\n\u251c\u2500Linear: 1-3                            [-1, 15]                  165\n\u251c\u2500Linear: 1-4                            [-1, 10]                  110\n\u251c\u2500Linear: 1-5                            [-1, 10]                  110\n\u251c\u2500GCNConv: 1-6                           [-1, 15]                  150\n\u251c\u2500GCNConv: 1-7                           [-1, 28]                  420\n==========================================================================================\nTotal params: 1,245\nTrainable params: 1,245\nNon-trainable params: 0\nTotal mult-adds (M): 0.00\n==========================================================================================\nInput size (MB): 0.01\nForward/backward pass size (MB): 0.00\nParams size (MB): 0.00\nEstimated Total Size (MB): 0.02\n==========================================================================================", "threshold": "3.5101376", "accuracy": "0.7096774193548387"}, "ConvNet2": {"auc_score": 0.4562146892655367, "model_summary": "==========================================================================================\nLayer (type:depth-idx)                   Output Shape              Param #\n==========================================================================================\n\u251c\u2500GCNConv: 1-1                           [-1, 15]                  420\n\u251c\u2500GCNConv: 1-2                           [-1, 10]                  150\n\u251c\u2500NLGCN: 1-3                             [-1, 10]                  --\n|    \u2514\u2500Conv1d: 2-1                       [-1, 1, 124]              10\n\u251c\u2500Linear: 1-4                            [-1, 15]                  165\n\u251c\u2500Linear: 1-5                            [-1, 10]                  110\n\u251c\u2500Linear: 1-6                            [-1, 10]                  110\n\u251c\u2500GCNConv: 1-7                           [-1, 15]                  150\n\u251c\u2500GCNConv: 1-8                           [-1, 28]                  420\n==========================================================================================\nTotal params: 1,535\nTrainable params: 1,535\nNon-trainable params: 0\nTotal mult-adds (M): 0.00\n==========================================================================================\nInput size (MB): 0.01\nForward/backward pass size (MB): 0.00\nParams size (MB): 0.01\nEstimated Total Size (MB): 0.02\n==========================================================================================", "threshold": "3.5046728", "accuracy": "0.7096774193548387"}, "ConvNet3": {"auc_score": 0.4322033898305085, "model_summary": "==========================================================================================\nLayer (type:depth-idx)                   Output Shape              Param #\n==========================================================================================\n\u251c\u2500GCNConv: 1-1                           [-1, 15]                  420\n\u251c\u2500GCNConv: 1-2                           [-1, 10]                  150\n\u251c\u2500GCNConv: 1-3                           [-1, 10]                  100\n\u251c\u2500NLGCN: 1-4                             [-1, 10]                  --\n|    \u2514\u2500Conv1d: 2-1                       [-1, 1, 124]              10\n\u251c\u2500Linear: 1-5                            [-1, 15]                  165\n\u251c\u2500Linear: 1-6                            [-1, 10]                  110\n\u251c\u2500Linear: 1-7                            [-1, 10]                  110\n\u251c\u2500GCNConv: 1-8                           [-1, 15]                  150\n\u251c\u2500GCNConv: 1-9                           [-1, 28]                  420\n==========================================================================================\nTotal params: 1,635\nTrainable params: 1,635\nNon-trainable params: 0\nTotal mult-adds (M): 0.00\n==========================================================================================\nInput size (MB): 0.01\nForward/backward pass size (MB): 0.00\nParams size (MB): 0.01\nEstimated Total Size (MB): 0.02\n==========================================================================================", "threshold": "3.5084815", "accuracy": "0.7096774193548387"}, "ConvNet4": {"auc_score": 0.4265536723163842, "model_summary": "==========================================================================================\nLayer (type:depth-idx)                   Output Shape              Param #\n==========================================================================================\n\u251c\u2500GCNConv: 1-1                           [-1, 15]                  420\n\u251c\u2500GCNConv: 1-2                           [-1, 10]                  150\n\u251c\u2500GCNConv: 1-3                           [-1, 10]                  100\n\u251c\u2500GCNConv: 1-4                           [-1, 10]                  100\n\u251c\u2500NLGCN: 1-5                             [-1, 10]                  --\n|    \u2514\u2500Conv1d: 2-1                       [-1, 1, 124]              10\n\u251c\u2500Linear: 1-6                            [-1, 15]                  165\n\u251c\u2500Linear: 1-7                            [-1, 10]                  110\n\u251c\u2500Linear: 1-8                            [-1, 10]                  110\n\u251c\u2500GCNConv: 1-9                           [-1, 15]                  150\n\u251c\u2500GCNConv: 1-10                          [-1, 28]                  420\n==========================================================================================\nTotal params: 1,735\nTrainable params: 1,735\nNon-trainable params: 0\nTotal mult-adds (M): 0.00\n==========================================================================================\nInput size (MB): 0.01\nForward/backward pass size (MB): 0.00\nParams size (MB): 0.01\nEstimated Total Size (MB): 0.02\n==========================================================================================", "threshold": "3.50479", "accuracy": "0.7096774193548387"}, "ConvNet5": {"auc_score": 0.4519774011299435, "model_summary": "==========================================================================================\nLayer (type:depth-idx)                   Output Shape              Param #\n==========================================================================================\n\u251c\u2500GCNConv: 1-1                           [-1, 15]                  420\n\u251c\u2500GCNConv: 1-2                           [-1, 10]                  150\n\u251c\u2500GCNConv: 1-3                           [-1, 10]                  100\n\u251c\u2500GCNConv: 1-4                           [-1, 10]                  100\n\u251c\u2500GCNConv: 1-5                           [-1, 10]                  100\n\u251c\u2500NLGCN: 1-6                             [-1, 10]                  --\n|    \u2514\u2500Conv1d: 2-1                       [-1, 1, 124]              10\n\u251c\u2500Linear: 1-7                            [-1, 15]                  165\n\u251c\u2500Linear: 1-8                            [-1, 10]                  110\n\u251c\u2500Linear: 1-9                            [-1, 10]                  110\n\u251c\u2500GCNConv: 1-10                          [-1, 15]                  150\n\u251c\u2500GCNConv: 1-11                          [-1, 28]                  420\n==========================================================================================\nTotal params: 1,835\nTrainable params: 1,835\nNon-trainable params: 0\nTotal mult-adds (M): 0.00\n==========================================================================================\nInput size (MB): 0.01\nForward/backward pass size (MB): 0.00\nParams size (MB): 0.01\nEstimated Total Size (MB): 0.02\n==========================================================================================", "threshold": "3.5061698", "accuracy": "0.7096774193548387"}, "ConvNet6": {"auc_score": 0.4265536723163842, "model_summary": "==========================================================================================\nLayer (type:depth-idx)                   Output Shape              Param #\n==========================================================================================\n\u251c\u2500GCNConv: 1-1                           [-1, 15]                  420\n\u251c\u2500GCNConv: 1-2                           [-1, 10]                  150\n\u251c\u2500GCNConv: 1-3                           [-1, 10]                  100\n\u251c\u2500GCNConv: 1-4                           [-1, 10]                  100\n\u251c\u2500GCNConv: 1-5                           [-1, 10]                  100\n\u251c\u2500GCNConv: 1-6                           [-1, 10]                  100\n\u251c\u2500NLGCN: 1-7                             [-1, 10]                  --\n|    \u2514\u2500Conv1d: 2-1                       [-1, 1, 124]              10\n\u251c\u2500Linear: 1-8                            [-1, 15]                  165\n\u251c\u2500Linear: 1-9                            [-1, 10]                  110\n\u251c\u2500Linear: 1-10                           [-1, 10]                  110\n\u251c\u2500GCNConv: 1-11                          [-1, 15]                  150\n\u251c\u2500GCNConv: 1-12                          [-1, 28]                  420\n==========================================================================================\nTotal params: 1,935\nTrainable params: 1,935\nNon-trainable params: 0\nTotal mult-adds (M): 0.00\n==========================================================================================\nInput size (MB): 0.01\nForward/backward pass size (MB): 0.00\nParams size (MB): 0.01\nEstimated Total Size (MB): 0.0
…
 (MB): 0.00\nParams size (MB): 0.01\nEstimated Total Size (MB): 0.02\n==========================================================================================", "threshold": "3.5093877", "accuracy": "0.7096774193548387"}, "DenseNet3": {"auc_score": 0.4209039548022599, "model_summary": "==========================================================================================\nLayer (type:depth-idx)                   Output Shape              Param #\n==========================================================================================\n\u251c\u2500GCNConv: 1-1                           [-1, 15]                  420\n\u251c\u2500GCNConv: 1-2                           [-1, 10]                  150\n\u251c\u2500NLGCN: 1-3                             [-1, 10]                  --\n|    \u2514\u2500Conv1d: 2-1                       [-1, 1, 124]              10\n\u251c\u2500Linear: 1-4                            [-1, 15]                  165\n\u251c\u2500Linear: 1-5                            [-1, 10]                  110\n\u251c\u2500Linear: 1-6                            [-1, 10]                  110\n\u251c\u2500Linear: 1-7                            [-1, 10]                  110\n\u251c\u2500GCNConv: 1-8                           [-1, 15]                  150\n\u251c\u2500GCNConv: 1-9                           [-1, 28]                  420\n==========================================================================================\nTotal params: 1,645\nTrainable params: 1,645\nNon-trainable params: 0\nTotal mult-adds (M): 0.00\n==========================================================================================\nInput size (MB): 0.01\nForward/backward pass size (MB): 0.00\nParams size (MB): 0.01\nEstimated Total Size (MB): 0.02\n==========================================================================================", "threshold": "3.5045595", "accuracy": "0.7096774193548387"}, "DenseNet4": {"auc_score": 0.4166666666666667, "model_summary": "==========================================================================================\nLayer (type:depth-idx)                   Output Shape              Param #\n==========================================================================================\n\u251c\u2500GCNConv: 1-1                           [-1, 15]                  420\n\u251c\u2500GCNConv: 1-2                           [-1, 10]                  150\n\u251c\u2500NLGCN: 1-3                             [-1, 10]                  --\n|    \u2514\u2500Conv1d: 2-1                       [-1, 1, 124]              10\n\u251c\u2500Linear: 1-4                            [-1, 15]                  165\n\u251c\u2500Linear: 1-5                            [-1, 10]                  110\n\u251c\u2500Linear: 1-6                            [-1, 10]                  110\n\u251c\u2500Linear: 1-7                            [-1, 10]                  110\n\u251c\u2500Linear: 1-8                            [-1, 10]                  110\n\u251c\u2500GCNConv: 1-9                           [-1, 15]                  150\n\u251c\u2500GCNConv: 1-10                          [-1, 28]                  420\n==========================================================================================\nTotal params: 1,755\nTrainable params: 1,755\nNon-trainable params: 0\nTotal mult-adds (M): 0.00\n==========================================================================================\nInput size (MB): 0.01\nForward/backward pass size (MB): 0.00\nParams size (MB): 0.01\nEstimated Total Size (MB): 0.02\n==========================================================================================", "threshold": "3.501637", "accuracy": "0.7096774193548387"}, "DenseNet5": {"auc_score": 0.4590395480225989, "model_summary": "==========================================================================================\nLayer (type:depth-idx)                   Output Shape              Param #\n==========================================================================================\n\u251c\u2500GCNConv: 1-1                           [-1, 15]                  420\n\u251c\u2500GCNConv: 1-2                           [-1, 10]                  150\n\u251c\u2500NLGCN: 1-3                             [-1, 10]                  --\n|    \u2514\u2500Conv1d: 2-1                       [-1, 1, 124]              10\n\u251c\u2500Linear: 1-4                            [-1, 15]                  165\n\u251c\u2500Linear: 1-5                            [-1, 10]                  110\n\u251c\u2500Linear: 1-6                            [-1, 10]                  110\n\u251c\u2500Linear: 1-7                            [-1, 10]                  110\n\u251c\u2500Linear: 1-8                            [-1, 10]                  110\n\u251c\u2500Linear: 1-9                            [-1, 10]                  110\n\u251c\u2500GCNConv: 1-10                          [-1, 15]                  150\n\u251c\u2500GCNConv: 1-11                          [-1, 28]                  420\n==========================================================================================\nTotal params: 1,865\nTrainable params: 1,865\nNon-trainable params: 0\nTotal mult-adds (M): 0.00\n==========================================================================================\nInput size (MB): 0.01\nForward/backward pass size (MB): 0.00\nParams size (MB): 0.01\nEstimated Total Size (MB): 0.02\n==========================================================================================", "threshold": "3.5077713", "accuracy": "0.7096774193548387"}, "DenseNet6": {"auc_score": 0.4675141242937853, "model_summary": "==========================================================================================\nLayer (type:depth-idx)                   Output Shape              Param #\n==========================================================================================\n\u251c\u2500GCNConv: 1-1                           [-1, 15]                  420\n\u251c\u2500GCNConv: 1-2                           [-1, 10]                  150\n\u251c\u2500NLGCN: 1-3                             [-1, 10]                  --\n|    \u2514\u2500Conv1d: 2-1                       [-1, 1, 124]              10\n\u251c\u2500Linear: 1-4                            [-1, 15]                  165\n\u251c\u2500Linear: 1-5                            [-1, 10]                  110\n\u251c\u2500Linear: 1-6                            [-1, 10]                  110\n\u251c\u2500Linear: 1-7                            [-1, 10]                  110\n\u251c\u2500Linear: 1-8                            [-1, 10]                  110\n\u251c\u2500Linear: 1-9                            [-1, 10]                  110\n\u251c\u2500Linear: 1-10                           [-1, 10]                  110\n\u251c\u2500GCNConv: 1-11                          [-1, 15]                  150\n\u251c\u2500GCNConv: 1-12                          [-1, 28]                  420\n==========================================================================================\nTotal params: 1,975\nTrainable params: 1,975\nNon-trainable params: 0\nTotal mult-adds (M): 0.00\n==========================================================================================\nInput size (MB): 0.01\nForward/backward pass size (MB): 0.00\nParams size (MB): 0.01\nEstimated Total Size (MB): 0.02\n==========================================================================================", "threshold": "3.5104022", "accuracy": "0.7096774193548387"}, "DenseNet7": {"auc_score": 0.4449152542372881, "model_summary": "==========================================================================================\nLayer (type:depth-idx)                   Output Shape              Param #\n==========================================================================================\n\u251c\u2500GCNConv: 1-1                           [-1, 15]                  420\n\u251c\u2500GCNConv: 1-2                           [-1, 10]                  150\n\u251c\u2500NLGCN: 1-3                             [-1, 10]                  --\n|    \u2514\u2500Conv1d: 2-1                       [-1, 1, 124]              10\n\u251c\u2500Linear: 1-4                            [-1, 15]                  165\n\u251c\u2500Linear: 1-5                            [-1, 10]                  110\n\u251c\u2500Linear: 1-6                            [-1, 10]                  110\n\u251c\u2500Linear: 1-7                            [-1, 10]                  110\n\u251c\u2500Linear: 1-8                            [-1, 10]                  110\n\u251c\u2500Linear: 1-9                            [-1, 10]                  110\n\u251c\u2500Linear: 1-10                           [-1, 10]                  110\n\u251c\u2500Linear: 1-11                           [-1, 10]                  110\n\u251c\u2500GCNConv: 1-12                          [-1, 15]                  150\n\u251c\u2500GCNConv: 1-13                          [-1, 28]                  420\n==========================================================================================\nTotal params: 2,085\nTrainable params: 2,085\nNon-trainable params: 0\nTotal mult-adds (M): 0.00\n==========================================================================================\nInput size (MB): 0.01\nForward/backward pass size (MB): 0.00\nParams size (MB): 0.01\nEstimated Total Size (MB): 0.02\n==========================================================================================", "threshold": "3.506418", "accuracy": "0.7096774193548387"}, "DenseNet8": {"auc_score": 0.442090395480226, "model_summary": "==========================================================================================\nLayer (type:depth-idx)                   Output Shape              Param #\n==========================================================================================\n\u251c\u2500GCNConv: 1-1                           [-1, 15]                  420\n\u251c\u2500GCNConv: 1-2                           [-1, 10]                  150\n\u251c\u2500NLGCN: 1-3                             [-1, 10]                  --\n|    \u2514\u2500Conv1d: 2-1                       [-1, 1, 124]              10\n\u251c\u2500Linear: 1-4                            [-1, 15]                  165\n\u251c\u2500Linear: 1-5                            [-1, 10]                  110\n\u251c\u2500Linear: 1-6                            [-1, 10]                  110\n\u251c\u2500Linear: 1-7                            [-1, 10]                  110\n\u251c\u2500Linear: 1-8                            [-1, 10]                  110\n\u251c\u2500Linear: 1-9                            [-1, 10]                  110\n\u251c\u2500Linear: 1-10                           [-1, 10]                  110\n\u251c\u2500Linear: 1-11                           [-1, 10]                  110\n\u251c\u2500Linear: 1-12                           [-1, 10]                  110\n\u251c\u2500GCNConv: 1-13                          [-1, 15]                  150\n\u251c\u2500GCNConv: 1-14                          [-1, 28]                  420\n==========================================================================================\nTotal params: 2,195\nTrainable params: 2,195\nNon-trainable params: 0\nTotal mult-adds (M): 0.00\n==========================================================================================\nInput size (MB): 0.01\nForward/backward pass size (MB): 0.00\nParams size (MB): 0.01\nEstimated Total Size (MB): 0.0
…
ize (MB): 0.00\nParams size (MB): 0.01\nEstimated Total Size (MB): 0.02\n==========================================================================================", "threshold": "3.5029426", "accuracy": "0.7096774193548387"}, "NLNet2": {"auc_score": 0.4576271186440678, "model_summary": "==========================================================================================\nLayer (type:depth-idx)                   Output Shape              Param #\n==========================================================================================\n\u251c\u2500GCNConv: 1-1                           [-1, 15]                  420\n\u251c\u2500GCNConv: 1-2                           [-1, 10]                  150\n\u251c\u2500NLGCN: 1-3                             [-1, 10]                  --\n|    \u2514\u2500Conv1d: 2-1                       [-1, 1, 124]              10\n\u251c\u2500NLGCN: 1-4                             [-1, 10]                  --\n|    \u2514\u2500Conv1d: 2-2                       [-1, 1, 124]              10\n\u251c\u2500Linear: 1-5                            [-1, 15]                  165\n\u251c\u2500Linear: 1-6                            [-1, 10]                  110\n\u251c\u2500Linear: 1-7                            [-1, 10]                  110\n\u251c\u2500GCNConv: 1-8                           [-1, 15]                  150\n\u251c\u2500GCNConv: 1-9                           [-1, 28]                  420\n==========================================================================================\nTotal params: 1,545\nTrainable params: 1,545\nNon-trainable params: 0\nTotal mult-adds (M): 0.00\n==========================================================================================\nInput size (MB): 0.01\nForward/backward pass size (MB): 0.00\nParams size (MB): 0.01\nEstimated Total Size (MB): 0.0
…
ass size (MB): 0.00\nParams size (MB): 0.01\nEstimated Total Size (MB): 0.02\n==========================================================================================", "threshold": "3.499076", "accuracy": "0.7096774193548387"}, "N2": {"auc_score": 0.4689265536723164, "model_summary": "==========================================================================================\nLayer (type:depth-idx)                   Output Shape              Param #\n==========================================================================================\n\u251c\u2500GCNConv: 1-1                           [-1, 15]                  420\n\u251c\u2500GCNConv: 1-2                           [-1, 10]                  150\n\u251c\u2500NLGCN: 1-3                             [-1, 10]                  --\n|    \u2514\u2500Conv1d: 2-1                       [-1, 1, 124]              10\n\u251c\u2500GCNConv: 1-4                           [-1, 10]                  100\n\u251c\u2500GCNConv: 1-5                           [-1, 15]                  150\n\u251c\u2500Linear: 1-6                            [-1, 15]                  240\n\u251c\u2500Linear: 1-7                            [-1, 10]                  110\n\u251c\u2500Linear: 1-8                            [-1, 10]                  110\n\u251c\u2500GCNConv: 1-9                           [-1, 15]                  150\n\u251c\u2500GCNConv: 1-10                          [-1, 28]                  420\n==========================================================================================\nTotal params: 1,860\nTrainable params: 1,860\nNon-trainable params: 0\nTotal mult-adds (M): 0.00\n==========================================================================================\nInput size (MB): 0.01\nForward/backward pass size (MB): 0.00\nParams size (MB): 0.01\nEstimated Total Size (MB): 0.02\n==========================================================================================", "threshold": "3.5107427", "accuracy": "0.7096774193548387"}, "N3": {"auc_score": 0.3545197740112994, "model_summary": "==========================================================================================\nLayer (type:depth-idx)                   Output Shape              Param #\n==========================================================================================\n\u251c\u2500GCNConv: 1-1                           [-1, 15]                  420\n\u251c\u2500GCNConv: 1-2                           [-1, 10]                  150\n\u251c\u2500GCNConv: 1-3                           [-1, 15]                  150\n\u251c\u2500GCNConv: 1-4                           [-1, 15]                  150\n\u251c\u2500GCNConv: 1-5                           [-1, 28]                  420\n==========================================================================================\nTotal params: 1,290\nTrainable params: 1,290\nNon-trainable params: 0\nTotal mult-adds (M): 0.00\n==========================================================================================\nInput size (MB): 0.01\nForward/backward pass size (MB): 0.00\nParams size (MB): 0.00\nEstimated Total Size (MB): 0.02\n==========================================================================================", "threshold": "3.616509", "accuracy": "0.7258064516129032"}, "N4": {"auc_score": 0.5508474576271186, "model_summary": "==========================================================================================\nLayer (type:depth-idx)                   Output Shape              Param #\n==========================================================================================\n\u251c\u2500GCNConv: 1-1                           [-1, 256]                 7,168\n\u251c\u2500GCNConv: 1-2                           [-1, 64]                  16,384\n\u251c\u2500GCNConv: 1-3                           [-1, 256]                 16,384\n\u251c\u2500GCNConv: 1-4                           [-1, 256]                 16,384\n\u251c\u2500GCNConv: 1-5                           [-1, 28]                  7,168\n==========================================================================================\nTotal params: 63,488\nTrainable params: 63,488\nNon-trainable params: 0\nTotal mult-adds (M): 0.00\n==========================================================================================\nInput size (MB): 0.01\nForward/backward pass size (MB): 0.01\nParams size (MB): 0.24\nEstimated Total Size (MB): 0.26\n==========================================================================================", "threshold": "339.7251", "accuracy": "0.7419354838709677"}, "N5": {"auc_score": 0.4194915254237288, "model_summary": "==========================================================================================\nLayer (type:depth-idx)                   Output Shape              Param #\n==========================================================================================\n\u251c\u2500GCNConv: 1-1                           [-1, 64]                  1,792\n\u251c\u2500GCNConv: 1-2                           [-1, 32]                  2,048\n\u251c\u2500GCNConv: 1-3                           [-1, 64]                  2,048\n\u251c\u2500GCNConv: 1-4                           [-1, 64]                  2,048\n\u251c\u2500GCNConv: 1-5                           [-1, 28]                  1,792\n==========================================================================================\nTotal params: 9,728\nTrainable params: 9,728\nNon-trainable params: 0\nTotal mult-adds (M): 0.00\n==========================================================================================\nInput size (MB): 0.01\nForward/backward pass size (MB): 0.00\nParams size (MB): 0.04\nEstimated Total Size (MB): 0.0
…
