{"N2": {"auc_score": 0.46751412429378536, "model_summary": "==========================================================================================\nLayer (type:depth-idx)                   Output Shape              Param #\n==========================================================================================\n\u251c\u2500GCNConv: 1-1                           [-1, 15]                  420\n\u251c\u2500GCNConv: 1-2                           [-1, 10]                  150\n\u251c\u2500NLGCN: 1-3                             [-1, 10]                  --\n|    \u2514\u2500Conv1d: 2-1                       [-1, 1, 124]              10\n\u251c\u2500GCNConv: 1-4                           [-1, 10]                  100\n\u251c\u2500GCNConv: 1-5                           [-1, 15]                  150\n\u251c\u2500Linear: 1-6                            [-1, 15]                  240\n\u251c\u2500Linear: 1-7                            [-1, 10]                  110\n\u251c\u2500Linear: 1-8                            [-1, 10]                  110\n\u251c\u2500GCNConv: 1-9                           [-1, 15]                  150\n\u251c\u2500GCNConv: 1-10                          [-1, 28]                  420\n==========================================================================================\nTotal params: 1,860\nTrainable params: 1,860\nNon-trainable params: 0\nTotal mult-adds (M): 0.00\n==========================================================================================\nInput size (MB): 0.01\nForward/backward pass size (MB): 0.00\nParams size (MB): 0.01\nEstimated Total Size (MB): 0.0
…
