{"AttConvNet1": {"auc_score": 0.7310762862211709, "model_summary": "==========================================================================================\nLayer (type:depth-idx)                   Output Shape              Param #\n==========================================================================================\n\u251c\u2500GCNConv: 1-1                           [-1, 15]                  270\n\u251c\u2500GCNConv: 1-2                           [-1, 12]                  180\n\u251c\u2500NLGCN: 1-3                             [-1, 12]                  --\n|    \u2514\u2500Conv1d: 2-1                       [-1, 1, 13533]            10\n\u251c\u2500Linear: 1-4                            [-1, 15]                  195\n\u251c\u2500Linear: 1-5                            [-1, 12]                  156\n\u251c\u2500GCNConv: 1-6                           [-1, 18]                  216\n==========================================================================================\nTotal params: 1,027\nTrainable params: 1,027\nNon-trainable params: 0\nTotal mult-adds (M): 0.12\n==========================================================================================\nInput size (MB): 0.93\nForward/backward pass size (MB): 0.10\nParams size (MB): 0.00\nEstimated Total Size (MB): 1.04\n=========================================================================================="}, "AttConvNet2": {"auc_score": 0.7310762862211708, "model_summary": "==========================================================================================\nLayer (type:depth-idx)                   Output Shape              Param #\n==========================================================================================\n\u251c\u2500GCNConv: 1-1                           [-1, 15]                  270\n\u251c\u2500GCNConv: 1-2                           [-1, 12]                  180\n\u251c\u2500NLGCN: 1-3                             [-1, 12]                  --\n|    \u2514\u2500Conv1d: 2-1                       [-1, 1, 13533]            10\n\u251c\u2500Linear: 1-4                            [-1, 15]                  195\n\u251c\u2500Linear: 1-5                            [-1, 12]                  156\n\u251c\u2500GCNConv: 1-6                           [-1, 15]                  180\n\u251c\u2500GCNConv: 1-7                           [-1, 18]                  270\n==========================================================================================\nTotal params: 1,261\nTrainable params: 1,261\nNon-trainable params: 0\nTotal mult-adds (M): 0.12\n==========================================================================================\nInput size (MB): 0.93\nForward/backward pass size (MB): 0.10\nParams size (MB): 0.00\nEstimated Total Size (MB): 1.04\n=========================================================================================="}, "AttConvNet3": {"auc_score": 0.7310762862211708, "model_summary": "==========================================================================================\nLayer (type:depth-idx)                   Output Shape              Param #\n==========================================================================================\n\u251c\u2500GCNConv: 1-1                           [-1, 15]                  270\n\u251c\u2500GCNConv: 1-2                           [-1, 12]                  180\n\u251c\u2500NLGCN: 1-3                             [-1, 12]                  --\n|    \u2514\u2500Conv1d: 2-1                       [-1, 1, 13533]            10\n\u251c\u2500Linear: 1-4                            [-1, 15]                  195\n\u251c\u2500Linear: 1-5                            [-1, 12]                  156\n\u251c\u2500GCNConv: 1-6                           [-1, 15]                  180\n\u251c\u2500GCNConv: 1-7                           [-1, 15]                  225\n\u251c\u2500GCNConv: 1-8                           [-1, 18]                  270\n==========================================================================================\nTotal params: 1,486\nTrainable params: 1,486\nNon-trainable params: 0\nTotal mult-adds (M): 0.12\n==========================================================================================\nInput size (MB): 0.93\nForward/backward pass size (MB): 0.10\nParams size (MB): 0.01\nEstimated Total Size (MB): 1.04\n=========================================================================================="}, "AttConvNet4": {"auc_score": 0.7310762862211709, "model_summary": "==========================================================================================\nLayer (type:depth-idx)                   Output Shape              Param #\n==========================================================================================\n\u251c\u2500GCNConv: 1-1                           [-1, 15]                  270\n\u251c\u2500GCNConv: 1-2                           [-1, 12]                  180\n\u251c\u2500NLGCN: 1-3                             [-1, 12]                  --\n|    \u2514\u2500Conv1d: 2-1                       [-1, 1, 13533]            10\n\u251c\u2500Linear: 1-4                            [-1, 15]                  195\n\u251c\u2500Linear: 1-5                            [-1, 12]                  156\n\u251c\u2500GCNConv: 1-6                           [-1, 15]                  180\n\u251c\u2500GCNConv: 1-7                           [-1, 15]                  225\n\u251c\u2500GCNConv: 1-8                           [-1, 15]                  225\n\u251c\u2500GCNConv: 1-9                           [-1, 18]                  270\n==========================================================================================\nTotal params: 1,711\nTrainable params: 1,711\nNon-trainable params: 0\nTotal mult-adds (M): 0.12\n==========================================================================================\nInput size (MB): 0.93\nForward/backward pass size (MB): 0.10\nParams size (MB): 0.01\nEstimated Total Size (MB): 1.04\n=========================================================================================="}, "ConvNet1": {"auc_score": 0.7310762862211708, "model_summary": "==========================================================================================\nLayer (type:depth-idx)                   Output Shape              Param #\n==========================================================================================\n\u251c\u2500GCNConv: 1-1                           [-1, 12]                  216\n\u251c\u2500NLGCN: 1-2                             [-1, 12]                  --\n|    \u2514\u2500Conv1d: 2-1                       [-1, 1, 13533]            10\n\u251c\u2500Linear: 1-3                            [-1, 15]                  195\n\u251c\u2500Linear: 1-4                            [-1, 12]                  156\n\u251c\u2500Linear: 1-5                            [-1, 12]                  156\n\u251c\u2500GCNConv: 1-6                           [-1, 15]                  180\n\u251c\u2500GCNConv: 1-7                           [-1, 18]                  270\n==========================================================================================\nTotal params: 1,183\nTrainable params: 1,183\nNon-trainable params: 0\nTotal mult-adds (M): 0.12\n==========================================================================================\nInput size (MB): 0.93\nForward/backward pass size (MB): 0.10\nParams size (MB): 0.00\nEstimated Total Size (MB): 1.04\n=========================================================================================="}, "ConvNet2": {"auc_score": 0.7310762862211708, "model_summary": "==========================================================================================\nLayer (type:depth-idx)                   Output Shape              Param #\n==========================================================================================\n\u251c\u2500GCNConv: 1-1                           [-1, 15]                  270\n\u251c\u2500GCNConv: 1-2                           [-1, 12]                  180\n\u251c\u2500NLGCN: 1-3                             [-1, 12]                  --\n|    \u2514\u2500Conv1d: 2-1                       [-1, 1, 13533]            10\n\u251c\u2500Linear: 1-4                            [-1, 15]                  195\n\u251c\u2500Linear: 1-5                            [-1, 12]                  156\n\u251c\u2500Linear: 1-6                            [-1, 12]                  156\n\u251c\u2500GCNConv: 1-7                           [-1, 15]                  180\n\u251c\u2500GCNConv: 1-8                           [-1, 18]                  270\n==========================================================================================\nTotal params: 1,417\nTrainable params: 1,417\nNon-trainable params: 0\nTotal mult-adds (M): 0.12\n==========================================================================================\nInput size (MB): 0.93\nForward/backward pass size (MB): 0.10\nParams size (MB): 0.01\nEstimated Total Size (MB): 1.04\n=========================================================================================="}, "ConvNet3": {"auc_score": 0.7310762862211709, "model_summary": "==========================================================================================\nLayer (type:depth-idx)                   Output Shape              Param #\n==========================================================================================\n\u251c\u2500GCNConv: 1-1                           [-1, 15]                  270\n\u251c\u2500GCNConv: 1-2                           [-1, 12]                  180\n\u251c\u2500GCNConv: 1-3                           [-1, 12]                  144\n\u251c\u2500NLGCN: 1-4                             [-1, 12]                  --\n|    \u2514\u2500Conv1d: 2-1                       [-1, 1, 13533]            10\n\u251c\u2500Linear: 1-5                            [-1, 15]                  195\n\u251c\u2500Linear: 1-6                            [-1, 12]                  156\n\u251c\u2500Linear: 1-7                            [-1, 12]                  156\n\u251c\u2500GCNConv: 1-8                           [-1, 15]                  180\n\u251c\u2500GCNConv: 1-9                           [-1, 18]                  270\n==========================================================================================\nTotal params: 1,561\nTrainable params: 1,561\nNon-trainable params: 0\nTotal mult-adds (M): 0.12\n==========================================================================================\nInput size (MB): 0.93\nForward/backward pass size (MB): 0.10\nParams size (MB): 0.01\nEstimated Total Size (MB): 1.04\n=========================================================================================="}, "ConvNet4": {"auc_score": 0.7310762862211708, "model_summary": "==========================================================================================\nLayer (type:depth-idx)                   Output Shape              Param #\n==========================================================================================\n\u251c\u2500GCNConv: 1-1                           [-1, 15]                  270\n\u251c\u2500GCNConv: 1-2                           [-1, 12]                  180\n\u251c\u2500GCNConv: 1-3                           [-1, 12]                  144\n\u251c\u2500GCNConv: 1-4                           [-1, 12]                  144\n\u251c\u2500NLGCN: 1-5                             [-1, 12]                  --\n|    \u2514\u2500Conv1d: 2-1                       [-1, 1, 13533]            10\n\u251c\u2500Linear: 1-6                            [-1, 15]                  195\n\u251c\u2500Linear: 1-7                            [-1, 12]                  156\n\u251c\u2500Linear: 1-8                            [-1, 12]                  156\n\u251c\u2500GCNConv: 1-9                           [-1, 15]                  180\n\u251c\u2500GCNConv: 1-10                          [-1, 18]                  270\n==========================================================================================\nTotal params: 1,705\nTrainable params: 1,705\nNon-trainable params: 0\nTotal mult-adds (M): 0.12\n==========================================================================================\nInput size (MB): 0.93\nForward/backward pass size (MB): 0.10\nParams size (MB): 0.01\nEstimated Total Size (MB): 1.04\n=========================================================================================="}, "ConvNet5": {"auc_score": 0.7310762862211708, "model_summary": "==========================================================================================\nLayer (type:depth-idx)                   Output Shape              Param #\n==========================================================================================\n\u251c\u2500GCNConv: 1-1                           [-1, 15]                  270\n\u251c\u2500GCNConv: 1-2                           [-1, 12]                  180\n\u251c\u2500GCNConv: 1-3                           [-1, 12]                  144\n\u251c\u2500GCNConv: 1-4                           [-1, 12]                  144\n\u251c\u2500GCNConv: 1-5                           [-1, 12]                  144\n\u251c\u2500NLGCN: 1-6                             [-1, 12]                  --\n|    \u2514\u2500Conv1d: 2-1                       [-1, 1, 13533]            10\n\u251c\u2500Linear: 1-7                            [-1, 15]                  195\n\u251c\u2500Linear: 1-8                            [-1, 12]                  156\n\u251c\u2500Linear: 1-9                            [-1, 12]                  156\n\u251c\u2500GCNConv: 1-10                          [-1, 15]                  180\n\u251c\u2500GCNConv: 1-11                          [-1, 18]                  270\n==========================================================================================\nTotal params: 1,849\nTrainable params: 1,849\nNon-trainable params: 0\nTotal mult-adds (M): 0.12\n==========================================================================================\nInput size (MB): 0.93\nForward/backward pass size (MB): 0.10\nParams size (MB): 0.01\nEstimated Total Size (MB): 1.04\n=========================================================================================="}, "ConvNet6": {"auc_score": 0.7310762862211708, "model_summary": "==========================================================================================\nLayer (type:depth-idx)                   Output Shape              Param #\n==========================================================================================\n\u251c\u2500GCNConv: 1-1                           [-1, 15]                  270\n\u251c\u2500GCNConv: 1-2                           [-1, 12]                  180\n\u251c\u2500GCNConv: 1-3                           [-1, 12]                  144\n\u251c\u2500GCNConv: 1-4                           [-1, 12]                  144\n\u251c\u2500GCNConv: 1-5                           [-1, 12]                  144\n\u251c\u2500GCNConv: 1-6                           [-1, 12]                  144\n\u251c\u2500NLGCN: 1-7                             [-1, 12]                  --\n|    \u2514\u2500Conv1d: 2-1                       [-1, 1, 13533]            10\n\u251c\u2500Linear: 1-8                            [-1, 15]                  195\n\u251c\u2500Linear: 1-9                            [-1, 12]                  156\n\u251c\u2500Linear: 1-10                           [-1, 12]                  156\n\u251c\u2500GCNConv: 1-11                          [-1, 15]                  180\n\u251c\u2500GCNConv: 1-12                          [-1, 18]                  270\n==========================================================================================\nTotal params: 1,993\nTrainable params: 1,993\nNon-trainable params: 0\nTotal mult-adds (M): 0.12\n==========================================================================================\nInput size (MB): 0.93\nForward/backward pass size (MB): 0.10\nParams size (MB): 0.01\nEstimated Total Size (MB): 1.04\n=========================================================================================="}, "DenseNet1": {"auc_score": 0.7310762862211708, "model_summary": "==========================================================================================\nLayer (type:depth-idx)                   Output Shape              Param #\n==========================================================================================\n\u251c\u2500GCNConv: 1-1                           [-1, 15]                  270\n\u251c\u2500GCNConv: 1-2                           [-1, 12]                  180\n\u251c\u2500NLGCN: 1-3                             [-1, 12]                  --\n|    \u2514\u2500Conv1d: 2-1                       [-1, 1, 13533]            10\n\u251c\u2500Linear: 1-4                            [-1, 15]                  195\n\u251c\u2500Linear: 1-5                            [-1, 12]                  156\n\u251c\u2500GCNConv: 1-6                           [-1, 15]                  180\n\u251c\u2500GCNConv: 1-7                           [-1, 18]                  270\n==========================================================================================\nTotal params: 1,261\nTrainable params: 1,261\nNon-trainable params: 0\nTotal mult-adds (M): 0.12\n==========================================================================================\nInput size (MB): 0.93\nForward/backward pass size (MB): 0.10\nParams size (MB): 0.00\nEstimated Total Size (MB): 1.04\n=========================================================================================="}, "DenseNet2": {"auc_score": 0.7310762862211708, "model_summary": "==========================================================================================\nLayer (type:depth-idx)                   Output Shape              Param #\n==========================================================================================\n\u251c\u2500GCNConv: 1-1                           [-1, 15]                  270\n\u251c\u2500GCNConv: 1-2                           [-1, 12]                  180\n\u251c\u2500NLGCN: 1-3                             [-1, 12]                  --\n|    \u2514\u2500Conv1d: 2-1                       [-1, 1, 13533]            10\n\u251c\u2500Linear: 1-4                            [-1, 15]                  195\n\u251c\u2500Linear: 1-5                            [-1, 12]                  156\n\u251c\u2500Linear: 1-6                            [-1, 12]                  156\n\u251c\u2500GCNConv: 1-7                           [-1, 15]                  180\n\u251c\u2500GCNConv: 1-8                           [-1, 18]                  270\n==========================================================================================\nTotal params: 1,417\nTrainable params: 1,417\nNon-trainable params: 0\nTotal mult-adds (M): 0.12\n==========================================================================================\nInput size (MB): 0.93\nForward/backward pass size (MB): 0.10\nParams size (MB): 0.01\nEstimated Total Size (MB): 1.04\n=========================================================================================="}, "DenseNet3": {"auc_score": 0.7310762862211708, "model_summary": "==========================================================================================\nLayer (type:depth-idx)                   Output Shape              Param #\n==========================================================================================\n\u251c\u2500GCNConv: 1-1                           [-1, 15]                  270\n\u251c\u2500GCNConv: 1-2                           [-1, 12]                  180\n\u251c\u2500NLGCN: 1-3                             [-1, 12]                  --\n|    \u2514\u2500Conv1d: 2-1                       [-1, 1, 13533]            10\n\u251c\u2500Linear: 1-4                            [-1, 15]                  195\n\u251c\u2500Linear: 1-5                            [-1, 12]                  156\n\u251c\u2500Linear: 1-6                            [-1, 12]                  156\n\u251c\u2500Linear: 1-7                            [-1, 12]                  156\n\u251c\u2500GCNConv: 1-8                           [-1, 15]                  180\n\u251c\u2500GCNConv: 1-9                           [-1, 18]                  270\n==========================================================================================\nTotal params: 1,573\nTrainable params: 1,573\nNon-trainable params: 0\nTotal mult-adds (M): 0.12\n==========================================================================================\nInput size (MB): 0.93\nForward/backward pass size (MB): 0.10\nParams size (MB): 0.01\nEstimated Total Size (MB): 1.04\n=========================================================================================="}, "DenseNet4": {"auc_score": 0.7310762862211708, "model_summary": "==========================================================================================\nLayer (type:depth-idx)                   Output Shape              Param #\n==========================================================================================\n\u251c\u2500GCNConv: 1-1                           [-1, 15]                  270\n\u251c\u2500GCNConv: 1-2                           [-1, 12]                  180\n\u251c\u2500NLGCN: 1-3                             [-1, 12]                  --\n|    \u2514\u2500Conv1d: 2-1                       [-1, 1, 13533]            10\n\u251c\u2500Linear: 1-4                            [-1, 15]                  195\n\u251c\u2500Linear: 1-5                            [-1, 12]                  156\n\u251c\u2500Linear: 1-6                            [-1, 12]                  156\n\u251c\u2500Linear: 1-7                            [-1, 12]                  156\n\u251c\u2500Linear: 1-8                            [-1, 12]                  156\n\u251c\u2500GCNConv: 1-9                           [-1, 15]                  180\n\u251c\u2500GCNConv: 1-10                          [-1, 18]                  270\n==========================================================================================\nTotal params: 1,729\nTrainable params: 1,729\nNon-trainable params: 0\nTotal mult-adds (M): 0.12\n==========================================================================================\nInput size (MB): 0.93\nForward/backward pass size (MB): 0.10\nParams size (MB): 0.01\nEstimated Total Size (MB): 1.04\n=========================================================================================="}, "DenseNet5": {"auc_score": 0.7310762862211708, "model_summary": "==========================================================================================\nLayer (type:depth-idx)                   Output Shape              Param #\n==========================================================================================\n\u251c\u2500GCNConv: 1-1                           [-1, 15]                  270\n\u251c\u2500GCNConv: 1-2                           [-1, 12]                  180\n\u251c\u2500NLGCN: 1-3                             [-1, 12]                  --\n|    \u2514\u2500Conv1d: 2-1                       [-1, 1, 13533]            10\n\u251c\u2500Linear: 1-4                            [-1, 15]                  195\n\u251c\u2500Linear: 1-5                            [-1, 12]                  156\n\u251c\u2500Linear: 1-6                            [-1, 12]                  156\n\u251c\u2500Linear: 1-7                            [-1, 12]                  156\n\u251c\u2500Linear: 1-8                            [-1, 12]                  156\n\u251c\u2500Linear: 1-9                            [-1, 12]                  156\n\u251c\u2500GCNConv: 1-10                          [-1, 15]                  180\n\u251c\u2500GCNConv: 1-11                          [-1, 18]                  270\n==========================================================================================\nTotal params: 1,885\nTrainable params: 1,885\nNon-trainable params: 0\nTotal mult-adds (M): 0.12\n==========================================================================================\nInput size (MB): 0.93\nForward/backward pass size (MB): 0.10\nParams size (MB): 0.01\nEstimated Total Size (MB): 1.04\n=========================================================================================="}, "DenseNet6": {"auc_score": 0.7310762862211708, "model_summary": "==========================================================================================\nLayer (type:depth-idx)                   Output Shape              Param #\n==========================================================================================\n\u251c\u2500GCNConv: 1-1                           [-1, 15]                  270\n\u251c\u2500GCNConv: 1-2                           [-1, 12]                  180\n\u251c\u2500NLGCN: 1-3                             [-1, 12]                  --\n|    \u2514\u2500Conv1d: 2-1                       [-1, 1, 13533]            10\n\u251c\u2500Linear: 1-4                            [-1, 15]                  195\n\u251c\u2500Linear: 1-5                            [-1, 12]                  156\n\u251c\u2500Linear: 1-6                            [-1, 12]                  156\n\u251c\u2500Linear: 1-7                            [-1, 12]                  156\n\u251c\u2500Linear: 1-8                            [-1, 12]                  156\n\u251c\u2500Linear: 1-9                            [-1, 12]                  156\n\u251c\u2500Linear: 1-10                           [-1, 12]                  156\n\u251c\u2500GCNConv: 1-11                          [-1, 15]                  180\n\u251c\u2500GCNConv: 1-12                          [-1, 18]                  270\n==========================================================================================\nTotal params: 2,041\nTrainable params: 2,041\nNon-trainable params: 0\nTotal mult-adds (M): 0.12\n==========================================================================================\nInput size (MB): 0.93\nForward/backward pass size (MB): 0.10\nParams size (MB): 0.01\nEstimated Total Size (MB): 1.04\n=========================================================================================="}, "DenseNet7": {"auc_score": 0.7310762862211708, "model_summary": "==========================================================================================\nLayer (type:depth-idx)                   Output Shape              Param #\n==========================================================================================\n\u251c\u2500GCNConv: 1-1                           [-1, 15]                  270\n\u251c\u2500GCNConv: 1-2                           [-1, 12]                  180\n\u251c\u2500NLGCN: 1-3                             [-1, 12]                  --\n|    \u2514\u2500Conv1d: 2-1                       [-1, 1, 13533]            10\n\u251c\u2500Linear: 1-4                            [-1, 15]                  195\n\u251c\u2500Linear: 1-5                            [-1, 12]                  156\n\u251c\u2500Linear: 1-6                            [-1, 12]                  156\n\u251c\u2500Linear: 1-7                            [-1, 12]                  156\n\u251c\u2500Linear: 1-8                            [-1, 12]                  156\n\u251c\u2500Linear: 1-9                            [-1, 12]                  156\n\u251c\u2500Linear: 1-10                           [-1, 12]                  156\n\u251c\u2500Linear: 1-11                           [-1, 12]                  156\n\u251c\u2500GCNConv: 1-12                          [-1, 15]                  180\n\u251c\u2500GCNConv: 1-13                          [-1, 18]                  270\n==========================================================================================\nTotal params: 2,197\nTrainable params: 2,197\nNon-trainable params: 0\nTotal mult-adds (M): 0.12\n==========================================================================================\nInput size (MB): 0.93\nForward/backward pass size (MB): 0.10\nParams size (MB): 0.01\nEstimated Total Size (MB): 1.04\n=========================================================================================="}, "DenseNet8": {"auc_score": 0.7310762862211708, "model_summary": "==========================================================================================\nLayer (type:depth-idx)                   Output Shape              Param #\n==========================================================================================\n\u251c\u2500GCNConv: 1-1                           [-1, 15]                  270\n\u251c\u2500GCNConv: 1-2                           [-1, 12]                  180\n\u251c\u2500NLGCN: 1-3                             [-1, 12]                  --\n|    \u2514\u2500Conv1d: 2-1                       [-1, 1, 13533]            10\n\u251c\u2500Linear: 1-4                            [-1, 15]                  195\n\u251c\u2500Linear: 1-5                            [-1, 12]                  156\n\u251c\u2500Linear: 1-6                            [-1, 12]                  156\n\u251c\u2500Linear: 1-7                            [-1, 12]                  156\n\u251c\u2500Linear: 1-8                            [-1, 12]                  156\n\u251c\u2500Linear: 1-9                            [-1, 12]                  156\n\u251c\u2500Linear: 1-10                           [-1, 12]                  156\n\u251c\u2500Linear: 1-11                           [-1, 12]                  156\n\u251c\u2500Linear: 1-12                           [-1, 12]                  156\n\u251c\u2500GCNConv: 1-13                          [-1, 15]                  180\n\u251c\u2500GCNConv: 1-14                          [-1, 18]                  270\n==========================================================================================\nTotal params: 2,353\nTrainable params: 2,353\nNon-trainable params: 0\nTotal mult-adds (M): 0.12\n==========================================================================================\nInput size (MB): 0.93\nForward/backward pass size (MB): 0.10\nParams size (MB): 0.01\nEstimated Total Size (MB): 1.04\n=========================================================================================="}, "NLNet1": {"auc_score": 0.7310762862211709, "model_summary": "==========================================================================================\nLayer (type:depth-idx)                   Output Shape              Param #\n==========================================================================================\n\u251c\u2500GCNConv: 1-1                           [-1, 15]                  270\n\u251c\u2500GCNConv: 1-2                           [-1, 12]                  180\n\u251c\u2500NLGCN: 1-3                             [-1, 12]                  --\n|    \u2514\u2500Conv1d: 2-1                       [-1, 1, 13533]            10\n\u251c\u2500Linear: 1-4                            [-1, 15]                  195\n\u251c\u2500Linear: 1-5                            [-1, 12]                  156\n\u251c\u2500Linear: 1-6                            [-1, 12]                  156\n\u251c\u2500GCNConv: 1-7                           [-1, 15]                  180\n\u251c\u2500GCNConv: 1-8                           [-1, 18]                  270\n==========================================================================================\nTotal params: 1,417\nTrainable params: 1,417\nNon-trainable params: 0\nTotal mult-adds (M): 0.12\n==========================================================================================\nInput size (MB): 0.93\nForward/backward pass size (MB): 0.10\nParams size (MB): 0.01\nEstimated Total Size (MB): 1.04\n=========================================================================================="}, "NLNet2": {"auc_score": 0.7310762862211709, "model_summary": "==========================================================================================\nLayer (type:depth-idx)                   Output Shape              Param #\n==========================================================================================\n\u251c\u2500GCNConv: 1-1                           [-1, 15]                  270\n\u251c\u2500GCNConv: 1-2                           [-1, 12]                  180\n\u251c\u2500NLGCN: 1-3                             [-1, 12]                  --\n|    \u2514\u2500Conv1d: 2-1                       [-1, 1, 13533]            10\n\u251c\u2500NLGCN: 1-4                             [-1, 12]                  --\n|    \u2514\u2500Conv1d: 2-2                       [-1, 1, 13533]            10\n\u251c\u2500Linear: 1-5                            [-1, 15]                  195\n\u251c\u2500Linear: 1-6                            [-1, 12]                  156\n\u251c\u2500Linear: 1-7                            [-1, 12]                  156\n\u251c\u2500GCNConv: 1-8                           [-1, 15]                  180\n\u251c\u2500GCNConv: 1-9                           [-1, 18]                  270\n==========================================================================================\nTotal params: 1,427\nTrainable params: 1,427\nNon-trainable params: 0\nTotal mult-adds (M): 0.24\n==========================================================================================\nInput size (MB): 0.93\nForward/backward pass size (MB): 0.21\nParams size (MB): 0.01\nEstimated Total Size (MB): 1.14\n=========================================================================================="}, "NLNet3": {"auc_score": 0.7310762862211708, "model_summary": "==========================================================================================\nLayer (type:depth-idx)                   Output Shape              Param #\n==========================================================================================\n\u251c\u2500GCNConv: 1-1                           [-1, 15]                  270\n\u251c\u2500GCNConv: 1-2                           [-1, 12]                  180\n\u251c\u2500NLGCN: 1-3                             [-1, 12]                  --\n|    \u2514\u2500Conv1d: 2-1                       [-1, 1, 13533]            10\n\u251c\u2500NLGCN: 1-4                             [-1, 12]                  (recursive)\n|    \u2514\u2500Conv1d: 2-2                       [-1, 1, 13533]            (recursive)\n\u251c\u2500NLGCN: 1-5                             [-1, 12]                  (recursive)\n|    \u2514\u2500Conv1d: 2-3                       [-1, 1, 13533]            (recursive)\n\u251c\u2500Linear: 1-6                            [-1, 15]                  195\n\u251c\u2500Linear: 1-7                            [-1, 12]                  156\n\u251c\u2500Linear: 1-8                            [-1, 12]                  156\n\u251c\u2500GCNConv: 1-9                           [-1, 15]                  180\n\u251c\u2500GCNConv: 1-10                          [-1, 18]                  270\n==========================================================================================\nTotal params: 1,417\nTrainable params: 1,417\nNon-trainable params: 0\nTotal mult-adds (M): 0.37\n==========================================================================================\nInput size (MB): 0.93\nForward/backward pass size (MB): 0.10\nParams size (MB): 0.01\nEstimated Total Size (MB): 1.0
…
