{"AttConvNet1": {"auc_score": 0.7310762862211709, "model_summary": "==========================================================================================\nLayer (type:depth-idx)                   Output Shape              Param #\n==========================================================================================\n\u251c\u2500GCNConv: 1-1                           [-1, 15]                  270\n\u251c\u2500GCNConv: 1-2                           [-1, 12]                  180\n\u251c\u2500NLGCN: 1-3                             [-1, 12]                  --\n|    \u2514\u2500Conv1d: 2-1                       [-1, 1, 13533]            10\n\u251c\u2500Linear: 1-4                            [-1, 15]                  195\n\u251c\u2500Linear: 1-5                            [-1, 12]                  156\n\u251c\u2500GCNConv: 1-6                           [-1, 18]                  216\n==========================================================================================\nTotal params: 1,027\nTrainable params: 1,027\nNon-trainable params: 0\nTotal mult-adds (M): 0.12\n==========================================================================================\nInput size (MB): 0.93\nForward/backward pass size (MB): 0.10\nParams size (MB): 0.00\nEstimated Total Size (MB): 1.04\n==========================================================================================", "threshold": "60.18427", "accuracy": "0.7501662602527156"}, "AttConvNet2": {"auc_score": 0.7310762862211709, "model_summary": "==========================================================================================\nLayer (type:depth-idx)                   Output Shape              Param #\n==========================================================================================\n\u251c\u2500GCNConv: 1-1                           [-1, 15]                  270\n\u251c\u2500GCNConv: 1-2                           [-1, 12]                  180\n\u251c\u2500NLGCN: 1-3                             [-1, 12]                  --\n|    \u2514\u2500Conv1d: 2-1                       [-1, 1, 13533]            10\n\u251c\u2500Linear: 1-4                            [-1, 15]                  195\n\u251c\u2500Linear: 1-5                            [-1, 12]                  156\n\u251c\u2500GCNConv: 1-6                           [-1, 15]                  180\n\u251c\u2500GCNConv: 1-7                           [-1, 18]                  270\n==========================================================================================\nTotal params: 1,261\nTrainable params: 1,261\nNon-trainable params: 0\nTotal mult-adds (M): 0.12\n==========================================================================================\nInput size (MB): 0.93\nForward/backward pass size (MB): 0.10\nParams size (MB): 0.00\nEstimated Total Size (MB): 1.04\n==========================================================================================", "threshold": "60.18427", "accuracy": "0.7501662602527156"}, "AttConvNet3": {"auc_score": 0.7310762862211709, "model_summary": "==========================================================================================\nLayer (type:depth-idx)                   Output Shape              Param #\n==========================================================================================\n\u251c\u2500GCNConv: 1-1                           [-1, 15]                  270\n\u251c\u2500GCNConv: 1-2                           [-1, 12]                  180\n\u251c\u2500NLGCN: 1-3                             [-1, 12]                  --\n|    \u2514\u2500Conv1d: 2-1                       [-1, 1, 13533]            10\n\u251c\u2500Linear: 1-4                            [-1, 15]                  195\n\u251c\u2500Linear: 1-5                            [-1, 12]                  156\n\u251c\u2500GCNConv: 1-6                           [-1, 15]                  180\n\u251c\u2500GCNConv: 1-7                           [-1, 15]                  225\n\u251c\u2500GCNConv: 1-8                           [-1, 18]                  270\n==========================================================================================\nTotal params: 1,486\nTrainable params: 1,486\nNon-trainable params: 0\nTotal mult-adds (M): 0.12\n==========================================================================================\nInput size (MB): 0.93\nForward/backward pass size (MB): 0.10\nParams size (MB): 0.01\nEstimated Total Size (MB): 1.04\n==========================================================================================", "threshold": "60.18427", "accuracy": "0.7501662602527156"}, "AttConvNet4": {"auc_score": 0.7310762862211709, "model_summary": "==========================================================================================\nLayer (type:depth-idx)                   Output Shape              Param #\n==========================================================================================\n\u251c\u2500GCNConv: 1-1                           [-1, 15]                  270\n\u251c\u2500GCNConv: 1-2                           [-1, 12]                  180\n\u251c\u2500NLGCN: 1-3                             [-1, 12]                  --\n|    \u2514\u2500Conv1d: 2-1                       [-1, 1, 13533]            10\n\u251c\u2500Linear: 1-4                            [-1, 15]                  195\n\u251c\u2500Linear: 1-5                            [-1, 12]                  156\n\u251c\u2500GCNConv: 1-6                           [-1, 15]                  180\n\u251c\u2500GCNConv: 1-7                           [-1, 15]                  225\n\u251c\u2500GCNConv: 1-8                           [-1, 15]                  225\n\u251c\u2500GCNConv: 1-9                           [-1, 18]                  270\n==========================================================================================\nTotal params: 1,711\nTrainable params: 1,711\nNon-trainable params: 0\nTotal mult-adds (M): 0.12\n==========================================================================================\nInput size (MB): 0.93\nForward/backward pass size (MB): 0.10\nParams size (MB): 0.01\nEstimated Total Size (MB): 1.04\n==========================================================================================", "threshold": "60.18427", "accuracy": "0.7501662602527156"}, "ConvNet1": {"auc_score": 0.7310762862211708, "model_summary": "==========================================================================================\nLayer (type:depth-idx)                   Output Shape              Param #\n==========================================================================================\n\u251c\u2500GCNConv: 1-1                           [-1, 12]                  216\n\u251c\u2500NLGCN: 1-2                             [-1, 12]                  --\n|    \u2514\u2500Conv1d: 2-1                       [-1, 1, 13533]            10\n\u251c\u2500Linear: 1-3                            [-1, 15]                  195\n\u251c\u2500Linear: 1-4                            [-1, 12]                  156\n\u251c\u2500Linear: 1-5                            [-1, 12]                  156\n\u251c\u2500GCNConv: 1-6                           [-1, 15]                  180\n\u251c\u2500GCNConv: 1-7                           [-1, 18]                  270\n==========================================================================================\nTotal params: 1,183\nTrainable params: 1,183\nNon-trainable params: 0\nTotal mult-adds (M): 0.12\n==========================================================================================\nInput size (MB): 0.93\nForward/backward pass size (MB): 0.10\nParams size (MB): 0.00\nEstimated Total Size (MB): 1.04\n==========================================================================================", "threshold": "60.18427", "accuracy": "0.7501662602527156"}, "ConvNet2": {"auc_score": 0.7310762862211708, "model_summary": "==========================================================================================\nLayer (type:depth-idx)                   Output Shape              Param #\n==========================================================================================\n\u251c\u2500GCNConv: 1-1                           [-1, 15]                  270\n\u251c\u2500GCNConv: 1-2                           [-1, 12]                  180\n\u251c\u2500NLGCN: 1-3                             [-1, 12]                  --\n|    \u2514\u2500Conv1d: 2-1                       [-1, 1, 13533]            10\n\u251c\u2500Linear: 1-4                            [-1, 15]                  195\n\u251c\u2500Linear: 1-5                            [-1, 12]                  156\n\u251c\u2500Linear: 1-6                            [-1, 12]                  156\n\u251c\u2500GCNConv: 1-7                           [-1, 15]                  180\n\u251c\u2500GCNConv: 1-8                           [-1, 18]                  270\n==========================================================================================\nTotal params: 1,417\nTrainable params: 1,417\nNon-trainable params: 0\nTotal mult-adds (M): 0.12\n==========================================================================================\nInput size (MB): 0.93\nForward/backward pass size (MB): 0.10\nParams size (MB): 0.01\nEstimated Total Size (MB): 1.04\n==========================================================================================", "threshold": "60.059208", "accuracy": "0.7500923668070643"}, "ConvNet3": {"auc_score": 0.7310762862211708, "model_summary": "==========================================================================================\nLayer (type:depth-idx)                   Output Shape              Param #\n==========================================================================================\n\u251c\u2500GCNConv: 1-1                           [-1, 15]                  270\n\u251c\u2500GCNConv: 1-2                           [-1, 12]                  180\n\u251c\u2500GCNConv: 1-3                           [-1, 12]                  144\n\u251c\u2500NLGCN: 1-4                             [-1, 12]                  --\n|    \u2514\u2500Conv1d: 2-1                       [-1, 1, 13533]            10\n\u251c\u2500Linear: 1-5                            [-1, 15]                  195\n\u251c\u2500Linear: 1-6                            [-1, 12]                  156\n\u251c\u2500Linear: 1-7                            [-1, 12]                  156\n\u251c\u2500GCNConv: 1-8                           [-1, 15]                  180\n\u251c\u2500GCNConv: 1-9                           [-1, 18]                  270\n==========================================================================================\nTotal params: 1,561\nTrainable params: 1,561\nNon-trainable params: 0\nTotal mult-adds (M): 0.12\n==========================================================================================\nInput size (MB): 0.93\nForward/backward pass size (MB): 0.10\nParams size (MB): 0.01\nEstimated Total Size (MB): 1.04\n==========================================================================================", "threshold": "60.18427", "accuracy": "0.7500923668070643"}, "ConvNet4": {"auc_score": 0.7310762862211709, "model_summary": "==========================================================================================\nLayer (type:depth-idx)                   Output Shape              Param #\n==========================================================================================\n\u251c\u2500GCNConv: 1-1                           [-1, 15]                  270\n\u251c\u2500GCNConv: 1-2                           [-1, 12]                  180\n\u251c\u2500GCNConv: 1-3                           [-1, 12]                  144\n\u251c\u2500GCNConv: 1-4                           [-1, 12]                  144\n\u251c\u2500NLGCN: 1-5                             [-1, 12]                  --\n|    \u2514\u2500Conv1d: 2-1                       [-1, 1, 13533]            10\n\u251c\u2500Linear: 1-6                            [-1, 15]                  195\n\u251c\u2500Linear: 1-7                            [-1, 12]                  156\n\u251c\u2500Linear: 1-8                            [-1, 12]                  156\n\u251c\u2500GCNConv: 1-9                           [-1, 15]                  180\n\u251c\u2500GCNConv: 1-10                          [-1, 18]                  270\n==========================================================================================\nTotal params: 1,705\nTrainable params: 1,705\nNon-trainable params: 0\nTotal mult-adds (M): 0.12\n==========================================================================================\nInput size (MB): 0.93\nForward/backward pass size (MB): 0.10\nParams size (MB): 0.01\nEstimated Total Size (MB): 1.04\n==========================================================================================", "threshold": "60.18427", "accuracy": "0.7501662602527156"}, "N2": {"auc_score": 0.7310762862211709, "model_summary": "==========================================================================================\nLayer (type:depth-idx)                   Output Shape              Param #\n==========================================================================================\n\u251c\u2500GCNConv: 1-1                           [-1, 15]                  270\n\u251c\u2500GCNConv: 1-2                           [-1, 12]                  180\n\u251c\u2500NLGCN: 1-3                             [-1, 12]                  --\n|    \u2514\u2500Conv1d: 2-1                       [-1, 1, 13533]            10\n\u251c\u2500GCNConv: 1-4                           [-1, 12]                  144\n\u251c\u2500GCNConv: 1-5                           [-1, 15]                  180\n\u251c\u2500Linear: 1-6                            [-1, 15]                  240\n\u251c\u2500Linear: 1-7                            [-1, 12]                  156\n\u251c\u2500Linear: 1-8                            [-1, 12]                  156\n\u251c\u2500GCNConv: 1-9                           [-1, 15]                  180\n\u251c\u2500GCNConv: 1-10                          [-1, 18]                  270\n==========================================================================================\nTotal params: 1,786\nTrainable params: 1,786\nNon-trainable params: 0\nTotal mult-adds (M): 0.12\n==========================================================================================\nInput size (MB): 0.93\nForward/backward pass size (MB): 0.10\nParams size (MB): 0.01\nEstimated Total Size (MB): 1.0
…
